checkpoint/final/agent_0_policy.pth (torch, 331945 bytes, 6 tensors)

net.0.weight f4 [256, 49]
0.05965117 0.1064651 -0.033544995 0.07298183 0.26454967 0.20766717 -0.17365693 0.034021918
-0.085248254 0.19715273 -0.047050253 -0.17331736 0.12447831 0.14310633 0.053092074 0.040093202
0.13233681 0.049754262 -0.0812147 -0.026381817 0.010595922 0.07132556 -0.14381309 0.10132734
-0.060667865 0.05977158 0.09381838 -0.14192995 -0.11073705 -0.08099537 0.03051063 0.08634622
-0.026555104 0.09996349 0.00081484 0.09147169 0.019347148 -0.032221023 -0.0606751 0.10197205
0.045075506 0.054085113 -0.03647435 0.006940215 0.13839573 0.07460095 -0.03648954 0.10138862
-0.0074310075 0.08869564 -0.1414902 0.027559964 0.013028409 -0.18039359 0.13531654 0.09858544
0.12891793 0.18886761 0.033246987 0.04625051 -0.07763208 -0.09403349 0.17716591 -0.07439764
0.082747206 0.082712784 -0.00468174 -0.11873766 -0.101548664 -0.058924552 0.021759553 -0.012244357
0.056092635 0.06486742 0.09235501 0.07976388 0.057948664 -0.010464482 0.002892194 -0.10115595
-0.0836522 0.07648261 -0.14018106 -0.009997846 -0.057912793 -0.11717696 -0.14615212 0.07945106
-0.058867678 0.11987613 -0.10036087 -0.08396679 0.009009772 0.064087585 0.14568612 0.16809924
0.1908854 -0.15409689 -0.035665706 -0.058012813 0.09794631 0.16995278 -0.059740983 0.012116765
0.107508406 0.13497517 0.14659277 0.13803418 0.12922308 0.0048204013 0.040580496 0.11603504
-0.050240904 -0.17419189 -0.016088009 -0.08088246 0.12821637 -0.08020282 -0.0926042 -0.11511244
0.0047844783 0.026634468 0.067602225 0.09633129 0.12542112 -0.009993753 -0.044415258 0.10550879
-0.108806066 -0.10982395 -0.06749464 -0.040555805 0.05562221 -0.0637816 -0.16176017 -0.0025126305
0.08877191 -0.019126844 0.07256227 0.14084357 -0.14550272 -0.09805668 0.12718508 0.13396926
0.047751244 0.08963016 -0.11123513 -0.0904699 0.17971928 -0.04955216 -0.049001615 0.25442216
0.19286466 -0.07264127 0.09827956 0.052517246 -0.070192665 0.1489108 0.028675724 0.0043245736
0.008649352 0.029493751 -0.12295676 -0.0055809626 0.10392007 -0.025488025 0.08462592 0.12543322
-0.04685415 -0.021634446 0.1409537 0.11579358 0.09047889 0.08718919 0.031781953 -0.09554394
-0.028439043 0.0981707 0.10645351 0.08456057 0.018669216 0.059548855 0.13423143 -0.007265972
-0.04508623 -0.01544149 -0.023899022 0.08964351 -0.01973152 -0.051880814 0.082414694 -0.0690188
0.10683679 0.1183794 -0.09143099 -0.08995651 -0.06743554 -0.034245197 0.039351504 -0.0050697844
-0.12458982 -0.13735896 -0.0374136 -0.08515361 0.123444356 -0.15893428 -0.09170305 0.19209434
0.009933536 -0.039303795 0.015904067 -0.018547466 0.15420605 -0.068671316 0.12162172 -0.041915543
-0.036486536 -0.09783347 -0.042139523 0.115910925 0.06664857 0.029132623 -0.08899712 -0.03018242
-0.005898161 -0.011055965 0.07790797 -0.04831102 0.05284902 -0.07745782 0.18173636 -0.01601198
0.16718674 0.08185404 0.03775162 0.19214648 0.16338919 0.08010029 0.09309221 0.02277278
0.056669816 0.018896416 -0.0697657 0.19984196 0.21825284 0.110211834 0.068573564 -0.15351097
0.019655786 0.06767467 -0.14568728 0.2037348 -0.07158748 -0.042502057 -0.12578459 0.057061035
00000000: c954 743d 600a da3d 7a66 09bd 7f77 953d
00000010: 0e73 873e b4a6 543e 1fd3 31be 915a 0b3d
00000020: a396 aebd 68e2 493e c4b7 40bd 1b7a 31be
00000030: 7cee fe3d 778a 123e 1377 593d c538 243d
00000040: 4d83 073e 20cb 4b3d e553 a6bd ae1e d8bc
00000050: 859a 2d3c 2313 923d bd43 13be b584 cf3d
00000060: de7e 78bd 0bd3 743d da23 c03d 1656 11be
00000070: 1bca e2bd e7e0 a5bd 6ef1 f93c 49d6 b03d
00000080: 178a d9bc a9b9 cc3d fd9a 553a 8255 bb3d
00000090: e97d 9e3c 31fa 03bd 7486 78bd b9d6 d03d
000000a0: 18a1 383d 5a88 5d3d 2166 15bd be6a e33b
000000b0: 9cb7 0d3e 62c8 983d 0e76 15bd d6a4 cf3d
000000c0: cf7f f3bb 0fa6 b53d cfe2 10be 6fc5 e13c
000000d0: 1c75 553c 19b9 38be 6b90 0a3e 2ae7 c93d
000000e0: 1003 043e 8366 413e fe2d 083d 2d71 3d3d
000000f0: 91fd 9ebd a194 c0bd fb6a 353e ca5d 98bd
00000100: 5e77 a93d 5265 a93d 4869 99bb bb2c f3bd
00000110: bff8 cfbd df5a 71bd 1741 b23c 8e9c 48bc
00000120: 64c1 653d 36d9 843d a024 bd3d 3f5b a33d
00000130: 945b 6d3d 3873 2bbc f78a 3d3b da2a cfbd
00000140: d851 abbd eaa2 9c3d a08b 0fbe 01ce 23bc
00000150: f735 6dbd 79fa efbd e7a8 15be 3db7 a23d
00000160: 3c1f 71bd 9e81 f53d 008a cdbd c8f6 abbd
00000170: b99d 133c 5a40 833d be2e 153e 3522 2c3e
00000180: 7677 433e 93cb 1dbe 3416 12bd d89e 6dbd
00000190: 1398 c83d 1a08 2e3e f6b2 74bd 6585 463c
000001a0: 5e2d dc3d ee36 0a3e 6a1c 163e d558 0d3e
000001b0: 0e53 043e 75f4 9d3b bc37 263d c7a3 ed3d
000001c0: 68c9 4dbd 5c5f 32be 00cb 83bc b4a5 a5bd
000001d0: 274b 033e 6041 a4bd 45a7 bdbd 12c0 ebbd
000001e0: 1dc7 9c3b 8730 da3c 0973 8a3d 5749 c53d
000001f0: 656e 003e d7bc 23bc c6ec 35bd fe14 d83d
00000200: b7d5 debd 61eb e0bd a13a 8abd d81d 26bd
00000210: 1dd4 633d ed9f 82bd 75a4 25be f2aa 24bb
00000220: 0cce b53d e6af 9cbc 879b 943d 4c39 103e
00000230: aafe 14be f1d1 c8bd ce3c 023e 3d2f 093e
00000240: cf96 433d 0490 b73d 3ecf e3bd 4848 b9bd
00000250: 5508 383e 35f7 4abd ebb5 48bd 9f43 823e
00000260: 507e 453e f2c4 94bd cb46 c93d 531c 573d
00000270: 2cc1 8fbd 137c 183e 5ae9 ea3c 27b5 8d3b
00000280: 03b6 0d3c e19c f13c c1d0 fbbd 82e0 b6bb
00000290: 0cd4 d43d 43cc d0bc 5b50 ad3d 9171 003e
000002a0: 23ea 3fbd b93a b1bc 2b56 103e 2f25 ed3d
000002b0: ff4c b93d 3f90 b23d cb2d 023d 8bac c3bd
000002c0: fff8 e8bc b80d c93d 4c04 da3d 182e ad3d
000002d0: 2ff0 983c 80e9 733d f773 093e 6417 eebb
000002e0: 57ac 38bd 4efe 7cbc e2c7 c3bc 0497 b73d
000002f0: ffa3 a1bc fa80 54bd 09c9 a83d bb59 8dbd
00000300: 3fcd da3d e670 f23d 2c40 bbbd 1e3b b8bd
00000310: a51b 8abd b144 0cbd 0b2f 213d 6f20 a6bb
00000320: f328 ffbd d4a7 0cbe 013f 19bd 0465 aebd
00000330: 65d0 fc3d abbf 22be cfce bbbd 61b4 443e
00000340: 45c0 223c 04fd 20bd 3f49 823c dbf0 97bc
00000350: 31e8 1d3e 8ca3 8cbd cf14 f93d a2af 2bbd
00000360: e872 15bd ea5c c8bd 7e9a 2cbd b562 ed3d
00000370: 0c7f 883d 8aa7 ee3c 1f44 b6bd 1f41 f7bc
00000380: 5c45 c1bb 1424 35bc 378e 9f3d c7e1 45bd
00000390: 3778 583d 35a2 9ebd 1919 3a3e 8e2b 83bc
000003a0: 0033 2b3e 17a3 a73d 71a1 1a3d 0cc2 443e
000003b0: 7f4f 273e 9f0b a43d 21a7 be3d fb8d ba3c
000003c0: 9c1e 683d a8cc 9a3c 52e1 8ebd 5fa3 4c3e
000003d0: ac7d 5f3e beb6 e13d 4c70 8c3d fb31 1dbe
000003e0: 2c05 a13c 0499 8a3d 0c2f 15be db9f 503e
000003f0: 759c 92bd a316 2ebd adcd 00be d5b8 693d

net.0.bias f4 [256]
0.08777683 0.12221324 -0.03185125 -0.083273225 0.059072454 -0.05763107 0.2505115 -0.15587282
-0.021977982 0.07857592 0.031038053 0.11814187 -0.064892165 -0.10140797 0.11181322 0.10763089
0.06837171 -0.050108936 -0.003098972 -0.0070369197 -0.06974283 -0.14741729 -0.11017077 0.13838905
-0.06266013 -0.06880575 0.038946807 -0.040737495 -0.07876439 -0.04853316 -0.104854956 0.07989684
0.05505013 -0.12225052 0.16820498 0.031776562 -0.08897247 0.01576027 -0.026885964 0.019227477
0.020254236 -0.12670724 0.058782253 -0.025902648 0.03794379 -0.01074574 0.20852917 -0.0826533
-0.050704386 -0.030709239 0.017420944 0.004022465 0.029509047 0.033307195 0.10755746 0.09531645
-0.07553613 0.026742084 0.015693314 0.17814133 -0.033748884 0.19419205 0.03885888 -0.033078175
-0.14005537 0.08975231 -0.03589841 -0.16781509 0.096866876 -0.15083437 -0.11474758 -0.008648843
0.083954826 -0.058701206 -0.022141708 0.048322912 0.00070580986 0.11074036 0.021573212 0.06367787
0.0060331393 -0.029359136 -0.0672796 0.12134937 0.10922301 0.07393226 -0.022446917 -0.055509675
-0.0063758697 -0.007442665 -0.11686022 0.12888317 -0.11628788 0.01563788 -0.083709955 -0.10149256
-0.009837863 0.19631764 -0.093384035 -0.094308406 0.08763458 -0.07629687 0.097950935 0.029208342
0.21234366 0.14177316 0.09237457 0.109987736 0.009348611 -0.04261471 -0.09800788 0.030982355
0.064821705 -0.015991632 -0.04384048 -0.07663573 0.07430303 -0.047017403 0.12219735 -0.13934459
0.07255186 0.1634308 0.045783136 0.0859394 -0.004854341 0.16129538 0.081385896 0.11886568
-0.07420251 -0.035246413 0.12066158 0.008058831 0.053652216 0.14852585 -0.057889286 0.13094583
0.050191037 -0.08309962 0.21067561 0.030475076 -0.005193444 0.097325146 -0.15206066 0.013491453
0.054136965 -0.09175761 -0.04112167 0.022865871 0.04228421 -0.039301507 0.08424833 0.050219536
-0.013684109 0.005629362 -0.0996534 -0.0005722695 0.08176418 0.105748154 -0.008274374 0.016416034
0.15757576 0.076130584 -0.06866119 -0.02933261 -0.09975868 -0.19055341 -0.12450264 0.10258532
-0.008798095 0.16320123 0.19642411 0.09444473 -0.07240908 0.06874577 0.17926483 -0.03936273
0.0059500807 -0.13143885 -0.021706691 0.087129876 0.04645765 0.015907094 0.015570575 0.19764364
0.13594341 0.076071 0.054914266 0.13951351 0.08538595 0.04793909 -0.094785124 0.10959614
-0.02297222 -0.07635221 -0.005287712 -0.051761787 -0.13383764 0.03188216 -0.052081887 -0.027601844
0.072617255 0.060967136 -0.073125936 -0.06081858 0.15310425 0.12050113 0.021456668 0.10726326
0.029552264 -0.027004994 0.00051034027 0.13439703 -0.0052852575 0.0035337447 -0.12779179 -0.10068462
-0.036623076 0.18688858 0.071380965 0.080620594 0.105507545 0.05720417 -0.09795641 -0.07933884
0.15608242 -0.054391235 0.14083774 0.081367575 0.11324915 -0.036093764 -0.016595589 0.12505318
0.026935535 -0.029675653 0.19436353 -0.088072374 0.09802509 -0.039692532 -0.049451765 -0.1447099
0.13782468 0.008778282 0.03092766 -0.0146566415 0.12646325 0.11091923 -0.090241715 -0.06278008
0.1360804 0.102754414 -0.059731893 0.08239243 -0.065756895 0.13562912 -0.006860878 0.0031727098
00000000: 57c4 b33d ef4a fa3d 7576 02bd 278b aabd
00000010: f5f5 713d 8f0e 6cbd 0b43 803e 209d 1fbe
00000020: 2b0b b4bc 69ec a03d 8443 fe3c 5df4 f13d
00000030: 2fe6 84bd fbae cfbd 54fe e43d 966d dc3d
00000040: 7806 8c3d 073f 4dbd 1f18 4bbb f695 e6bb
00000050: 54d5 8ebd 8ff4 16be 36a1 e1bd dcb5 0d3e
00000060: f453 80bd 07ea 8cbd b086 1f3d 5cdc 26bd
00000070: 394f a1bd b5ca 46bd 32be d6bd f4a0 a33d
00000080: 3f7c 613d 7b5e fabd ed3d 2c3e 2428 023d
00000090: 3337 b6bd af1b 813c f43f dcbc f182 9d3c
000000a0: 36ec a53c 8bbf 01be a9c5 703d ca31 d4bc
000000b0: f36a 1b3d e60e 30bc ac88 553e 2246 a9bd
000000c0: 67af 4fbd f191 fbbc 5eb6 8e3c e2ce 833b
000000d0: f5bc f13c 206d 083d 1647 dc3d 4535 c33d
000000e0: b0b2 9abd 3712 db3c 448f 803c ae6a 363e
000000f0: 453c 0abd 48da 463e 7d2a 1f3d fb7c 07bd
00000100: ad6a 0fbe 0fd0 b73d 360a 13bd b8d7 2bbe
00000110: 2462 c63d 5374 1abe c700 ebbd e0b3 0dbc
00000120: 82f0 ab3d ad70 70bd 8762 b5bc 3fee 453d
00000130: 1906 393a d8cb e23d 4eba b03c 8b69 823d
00000140: a4b1 c53b 9282 f0bc e3c9 89bd 0586 f83d
00000150: 50b0 df3d cc69 973d 99e2 b7bc 1d5e 63bd
00000160: acec d0bb 99e1 f3bb 6954 efbd f3f9 033e
00000170: 5728 eebd 031b 803c 2070 abbd 55db cfbd
00000180: fd2e 21bc 7e07 493e 2140 bfbd c424 c1bd
00000190: c279 b33d 8941 9cbd 809a c83d 5546 ef3c
000001a0: 9e70 593e fc2c 113e e12e bd3d 4041 e13d
000001b0: eb2a 193c c38c 2ebd 5bb8 c8bd b5ce fd3c
000001c0: 3ec1 843d e200 83bc 1392 33bd 32f3 9cbd
000001d0: 302c 983d 5295 40bd 9b42 fa3d 59b0 0ebe
000001e0: 1296 943d 675a 273e 1987 3b3d ff00 b03d
000001f0: 2a11 9fbb 9e2a 253e a6ad a63d da6f f33d
00000200: 7cf7 97bd 8b5e 10bd 6b1d f73d 3009 043c
00000210: 6dc2 5b3d 2917 183e 511d 6dbd aa16 063e
00000220: 1e95 4d3d 2230 aabd 59bb 573e dea6 f93c
00000230: c42d aabb 6852 c73d cab5 1bbe 410b 5d3c
00000240: b9be 5d3d 6aeb bbbd 326f 28bd 3551 bb3c
00000250: 3532 2d3d 9efa 20bd 638a ac3d 00b3 4d3d
00000260: 5033 60bc 8376 b83b 1517 ccbd 5b04 16ba
00000270: fa73 a73d 7d92 d83d 3d91 07bc eb7a 863c
00000280: 8a5b 213e 5aea 9b3d 3d9e 8cbd f14a f0bc
00000290: 474e ccbd 6f20 43be 3dfb febd 4118 d23d
000002a0: e325 10bc 391e 273e 6723 493e 3d6c c13d
000002b0: 364b 94bd 95ca 8c3d 3391 373e d03a 21bd
000002c0: e5f8 c23b e897 06be 3bd2 b1bc 2671 b23d
000002d0: 604a 3e3d 984f 823c ba1b 7f3c 1863 4a3e
000002e0: c034 0b3e 1dcb 9b3d c8ed 603d a1dc 0e3e
000002f0: d4de ae3d c75b 443d b41e c2bd f173 e03d
00000300: 3d30 bcbc 8c5e 9cbd 8b44 adbb 2b04 54bd
00000310: bc0c 09be de96 023d d153 55bd 431d e2bc
00000320: 5bb8 943d adb8 793d 0dc3 95bd e71c 79bd
00000330: 5cc7 1c3e 4cc9 f63d e5c5 af3c d7ac db3d
00000340: 9717 f23c 9439 ddbc 5bc8 053a 609f 093e
00000350: f42f adbb 6696 673b dadb 02be bd33 cebd
00000360: 1402 16bd b85f 3f3e 2f30 923d 691c a53d
00000370: 5714 d83d eb4e 6a3d 5f9d c8bd 677c a2bd
00000380: 12d4 1f3e 58c9 5ebd c537 103e 0ba4 a63d
00000390: 2cef e73d 0ed7 13bd 79f3 87bc f10d 003e
000003a0: e9a7 dc3c 5b1a f3bc 3c07 473e 4a5f b4bd
000003b0: 61c1 c83d a394 22bd ef8d 4abd d52e 14be
000003c0: ea21 0d3e c9d2 0f3c 015c fd3c 6922 70bc
000003d0: 957f 013e 9f29 e33d a6d0 b8bd d892 80bd
000003e0: a958 0b3e e870 d23d 6ea9 74bd 5dbd a83d
000003f0: 8dab 86bd 5ce2 0a3e 37d1 e0bb 3ded 4f3b

net.2.weight f4 [256, 256]
0.072462104 0.141899 0.025754772 0.021417957 -0.012680091 0.026884796 0.12856895 -0.058875564
0.03241549 -0.03388072 0.01937161 0.0915222 0.12450881 -0.062124595 0.016563483 -0.05680047
0.025442233 0.052564498 0.06315315 0.032927908 0.013899839 0.04004971 -0.034546155 0.050976574
-0.03784282 0.008634091 0.09156701 -0.04300473 -0.05061272 0.010448993 0.08793341 0.027110146
0.048865747 0.023530383 0.056521866 0.07334508 0.02584855 0.067448914 0.08209714 0.017267426
0.00849823 0.03237885 0.062260892 0.06300828 -0.019714525 0.017461883 0.08449894 0.09092887
-0.003571375 -0.040353872 0.067317925 -0.0051973932 0.021359883 0.09082013 0.06456378 0.011013572
-0.06330641 0.06367086 0.024494128 0.0045117326 -0.010474993 0.08576099 -0.006310896 0.013687872
0.06978656 -0.00770611 -0.010652299 -0.062174484 0.02298274 0.06852099 -0.016257524 0.08401773
0.06362632 0.007695477 0.027248457 0.08657564 0.004677102 0.040841255 0.06518838 -0.015510705
0.020710936 0.0672148 -0.0002854023 -0.038516644 0.08589899 -0.033415068 0.036782 -0.04705544
-0.017053848 -0.013178746 0.03396039 -0.04835109 0.07586839 0.018719777 0.05271829 -0.083253235
0.06885073 -0.010195624 -0.0068782805 -0.018351734 0.09885378 0.035862807 0.050013386 0.07514556
0.037863456 0.060711704 0.07224961 -0.045278057 -0.014174628 -0.00539969 -0.026894232 0.045746107
0.09913984 -0.010990514 0.10474556 -0.018923858 -0.005276037 0.043064423 0.04613212 0.08069703
0.0034544258 -0.010644531 0.047183014 -0.0026040094 0.04430898 0.10852158 0.018437395 0.024949627
-0.056160793 0.07265793 0.03799648 -0.006504427 -0.0016221047 0.024355441 0.06926523 0.04385182
0.09155003 -0.031778753 0.04543125 0.05244163 0.038915515 0.027715797 0.03901998 -0.04019931
0.12408917 -0.0023265018 -0.0027985289 -0.05217692 0.016023397 0.031191032 0.025687426 0.08325325
0.041097764 0.02540949 0.06128762 0.063587405 0.03486119 0.07755938 0.058277 0.0358492
0.064325176 -0.0014095667 -0.023684464 0.045215875 0.0051032137 -0.013280012 -0.029393347 0.08127979
-0.01675553 0.07054188 0.02339535 0.011425375 0.007516724 0.07310479 0.054539274 0.030574225
0.047132496 0.06518184 0.01765974 -0.02070524 0.056897465 0.08806259 -0.021307444 0.06568404
0.06803504 -0.012817162 0.06127508 0.024556147 -0.037383087 0.08076111 0.008653265 -0.018128742
0.1069199 -0.03241016 0.006402014 0.04512742 0.06358169 0.03533764 -0.0131868925 -0.04265617
0.012365833 0.07167072 -0.007687229 0.0010459914 0.0010654827 -0.034540575 0.08265995 0.05533851
-0.012480041 -0.01915928 0.05025513 0.05698674 -0.005384356 -0.002596377 -0.025352446 0.04737855
0.006634943 -0.011990617 0.061308008 -0.039755553 -0.0047261477 -0.02262769 0.08452523 0.037814394
0.06037747 -0.005661443 -0.08410636 -0.058088515 0.033991847 0.017349934 0.09390253 0.063125886
-0.017178893 -0.016065745 -0.057653073 -0.006377891 0.021896282 -0.02770702 0.0004489041 0.007740219
0.09915838 -0.0069442005 0.012603883 -0.026960444 -0.030408086 0.06753114 -0.03092586 -0.066006295
-0.016768841 0.027615873 0.05351351 -0.021478914 0.07996124 0.075153515 0.059547327 0.06971319
00000000: 0367 943d f94d 113e acfb d23c b674 af3c
00000010: 28c0 4fbc 813d dc3c 94a7 033e 8127 71bd
00000020: 1bc6 043d 83c6 0abd 36b1 9e3c fe6f bb3d
00000030: 7afe fe3d 5c76 7ebd 24b0 873c 9ca7 68bd
00000040: 3b6c d03c df4d 573d 7056 813d 6adf 063d
00000050: 26bc 633c 2a0b 243d 4580 0dbd d0cc 503d
00000060: 1301 1bbd 0176 0d3c 7c87 bb3d ba25 30bd
00000070: 494f 4fbd 4132 2b3c 6f16 b43d 1916 de3c
00000080: 7327 483d cac2 c03c 7983 673d f235 963d
00000090: 57c0 d33c a822 8a3d 8c22 a83d 6b74 8d3c
000000a0: 293c 0b3c af9f 043d 4705 7f3d 7c0a 813d
000000b0: 5b80 a1bc 390c 8f3c c80d ad3d ea38 ba3d
000000c0: bb0d 6abb 1a4a 25bd fbdd 893d e54e aabb
000000d0: ecfa ae3c e8ff b93d 043a 843d 4572 343c
000000e0: cba6 81bd de65 823d e9a7 c83c 28d7 933b
000000f0: 4e9f 2bbc 75a3 af3d a2cb cebb 1943 603c
00000100: 42ec 8e3d 8983 fcbb fb86 2ebc acaa 7ebd
00000110: 4d46 bc3c bc54 8c3d 802e 85bc 7d11 ac3d
00000120: 844e 823d 572a fc3b 2838 df3c 924e b13d
00000130: 6042 993b 2949 273d 7c81 853d 9d20 7ebc
00000140: fba9 a93c eaa7 893d 0ca2 95b9 a1c3 1dbd
00000150: cfeb af3d 3dde 08bd b9a8 163d 34bd 40bd
00000160: 83b4 8bbc abeb 57bc 0d1a 0b3d cb0b 46bd
00000170: e360 9b3d 385a 993c 22ef 573d ac80 aabd
00000180: 9d01 8d3d 8c0b 27bc 3363 e1bb 6056 96bc
00000190: da73 ca3d e1e4 123d d6da 4c3d eae5 993d
000001a0: b616 1b3d d6ac 783d 9bf7 933d 7c75 39bd
000001b0: b33c 68bc e2ef b0bb 4b51 dcbc 4560 3b3d
000001c0: d409 cb3d 8f11 34bc d784 d63d 3506 9bbc
000001d0: 9be2 acbb 5264 303d 09f5 3c3d 7c44 a53d
000001e0: a663 623b 6666 2ebc fa42 413d 07a8 2abb
000001f0: 557d 353d 9040 de3d 050a 973c 2963 cc3c
00000200: dc08 66bd aecd 943d 32a2 1b3d 1723 d5bb
00000210: cd9c d4ba 1085 c73c eeda 8d3d f79d 333d
00000220: 957e bb3d 702a 02bd 1e16 3a3d 09cd 563d
00000230: e065 1f3d 3d0c e33c 6ad3 1f3d 08a8 24bd
00000240: 7622 fe3d 3978 18bb 8667 37bb 77b7 55bd
00000250: 8043 833c 5684 ff3c 706e d23c ae80 aa3d
00000260: 2156 283d 9027 d03c ba08 7b3d 1d3a 823d
00000270: 9bca 0e3d 74d7 9e3d ddb3 6e3d 9cd6 123d
00000280: ebbc 833d 36c1 b8ba ec05 c2bc 4834 393d
00000290: dc38 a73b 6894 59bc 51ca f0bc 0576 a63d
000002a0: e542 89bc 4378 903d 9ba7 bf3c 7f31 3b3c
000002b0: da4e f63b f7b7 953d 9364 5f3d cc76 fa3c
000002c0: 010e 413d 0e7e 853d 29ab 903c 099e a9bc
000002d0: 510d 693d 295a b43d f38c aebc 5b85 863d
000002e0: f455 8b3d 13ff 51bc 94fb 7a3d f929 c93c
000002f0: 021f 19bd 1566 a53d 6dc6 0d3c ba82 94bc
00000300: d2f8 da3d 84c0 04bd fcc7 d13b 88d7 383d
00000310: 1e37 823d 34be 103d d60d 58bc 3cb8 2ebd
00000320: 109a 4a3c 19c8 923d 27e5 fbbb a619 893a
00000330: aba7 8b3a 6b7a 0dbd 9f49 a93d a2aa 623d
00000340: 1679 4cbc ecf3 9cbc 53d8 4d3d ee6a 693d
00000350: 406f b0bb fa27 2abb efaf cfbc 0310 423d
00000360: f069 d93b 4b74 44bc 1b1e 7b3d b8d6 22bd
00000370: cddd 9abb b55d b9bc 901b ad3d 44e3 1a3d
00000380: 5e4e 773d a083 b9bb f53f acbd 39ee 6dbd
00000390: 093b 0b3d 7321 8e3c f84f c03d 2548 813d
000003a0: c0ba 8cbc 4f9c 83bc a125 6cbd a1fd d0bb
000003b0: d55f b33c d5f9 e2bc e35a eb39 aaa1 fd3b
000003c0: 8c13 cb3d 2d8c e3bb 8480 4e3c 26dc dcbc
000003d0: 611a f9bc c44d 8a3d 3b58 fdbc 4f2e 87bd
000003e0: cf5e 89bc af3a e23c fb30 5b3d 8cf4 afbc
000003f0: b8c2 a33d 16ea 993d e6e7 733d cac5 8e3d

net.2.bias f4 [256]
0.11105113 0.0017487926 -0.015034588 -0.060439296 0.011569077 -0.03112008 -0.03333557 -0.01585024
-0.011549839 0.03790516 0.030584102 0.019741021 -0.006829735 0.017508617 0.013082277 -0.006598796
0.04717428 0.03184022 0.005696851 0.060300622 0.029302854 0.023049535 0.061747476 0.033197057
0.036663402 0.032993026 -0.006022349 0.076284684 0.014707557 -0.015201319 0.045965698 0.045137767
0.053235352 0.013413595 0.01989594 0.084940284 0.03754496 -0.043061342 0.059989948 -0.050331518
0.05719575 -0.0030142388 0.064618066 -0.014036652 0.06062681 -0.016681524 -0.08913419 -0.0386968
-0.06844099 -0.023785956 -0.044834577 0.033229213 0.010063623 0.06642648 -0.026213905 -0.03778076
0.056239955 0.09737116 0.08334435 0.062058523 -0.034954112 0.07299682 0.0117421085 -0.027557831
0.0680389 0.047814015 -0.055842884 0.0075643877 -0.053620584 -0.017355572 0.03128849 0.046598952
0.014773734 0.029332286 0.13134146 0.023078896 0.03733549 0.011712796 0.06108623 -0.026275437
0.07240455 0.06644188 -0.07462167 -0.018223118 0.011324799 0.021544082 -0.03814089 0.10522436
-0.035805304 0.037141707 -0.047234375 -0.013577045 0.01028122 0.09330206 -0.014807262 0.07240118
-0.0124283405 -0.013408566 -0.0634118 -0.0019693002 0.003457262 -0.028333703 0.06709212 0.07192345
-0.026164124 -0.019307658 -0.04544507 -0.064764 0.012329725 -0.08533112 0.061062872 0.049379256
0.049653456 0.0019307085 0.06429147 -0.08151357 -0.023453394 0.0738284 0.004452704 -0.08335896
0.071476735 0.038996834 -0.009549118 0.0046664737 4.883898e-05 0.024655279 0.042508844 -0.044947684
-0.018547071 -0.02937371 0.0747297 -0.037727263 -0.038537372 -0.0026984476 0.013147901 -0.0010588312
0.032871623 -0.01855321 -0.025053414 0.0058285045 -0.07464254 -0.05032751 -0.065659255 0.07697422
-0.018757943 0.05940502 0.076877475 -0.014150619 0.0009732635 0.017771767 0.013735829 0.087543495
-0.06311828 -0.02401839 0.026485382 0.0013187331 -0.021154447 0.01624186 -0.026508622 0.010598868
0.009277046 -0.017019702 -0.00994067 0.028678373 0.060085766 0.08979882 0.03963821 0.0029588616
0.048300933 0.046518255 0.0595456 0.0056801974 -0.017122092 0.072695605 0.047004413 0.03496644
0.1067049 0.021214886 -0.061748695 -0.0032543913 0.009015707 0.057198837 -0.04578801 -0.06115915
-0.008935095 -0.08227963 0.055826116 -0.063135296 0.06773469 -0.0041841613 -0.058215026 0.049040385
-0.023206107 -0.006557755 -0.046440475 0.061220348 -0.044251833 -0.031344585 -0.013929113 -0.020442287
0.043476 0.021776395 -0.03803488 -0.007061743 0.06052098 0.008113302 -0.035044424 0.06447245
0.07897837 0.020035787 0.021897426 0.00017090896 0.048931047 0.036780562 0.017015139 -0.0129334815
0.07279878 0.09552927 0.060478956 0.029096952 -0.06589667 0.06450816 -0.0489659 0.06981471
-0.015674058 0.062189497 -0.07075878 0.11101999 0.05939236 -0.035454076 -0.0046520913 -0.039045494
0.033028115 -0.020543803 0.10168902 -0.029848302 -0.0139803635 0.03620337 0.014146101 -0.07626778
-0.014706096 0.018550392 -0.017880213 0.027739134 0.07285757 0.089116774 -0.037810594 0.088460244
-0.07288184 0.06693707 0.021512274 0.06965019 0.007897889 0.05981524 -0.028056607 0.0025033113
00000000: c66e e33d be37 e53a a253 76bc 328f 77bd
00000010: 3a8c 3d3c 8aef febc e18a 08bd 5dd8 81bc
00000020: 893b 3dbc 7142 1b3d 838b fa3c ecb7 a13c
00000030: f8cb dfbb 3b6e 8f3c 0c57 563c b73a d8bb
00000040: d139 413d e46a 023d a6ac ba3b c9fd 763d
00000050: 8a0c f03c 61d2 bc3c ecea 7c3d a3f9 073d
00000060: 5d2c 163d b223 073d 2057 c5bb 253b 9c3d
00000070: f7f7 703c f40e 79bc 8746 3c3d 61e2 383d
00000080: 500d 5a3d b2c4 5b3c cffc a23c 2cf5 ad3d
00000090: bec8 193d 1761 30bd 05b8 753d 6c28 4ebd
000000a0: 1746 6a3d 898a 45bb 7a56 843d fcf9 65bc
000000b0: d153 783d b1a7 88bc fc8b b6bd 8980 1ebd
000000c0: ca2a 8cbd c4da c2bc 76a4 37bd 5b1b 083d
000000d0: e5e1 243c 9b0a 883d 8bbe d6bc 00c0 1abd
000000e0: de5b 663d 886a c73d 71b0 aa3d 1431 7e3d
000000f0: 0b2c 0fbd 5b7f 953d f961 403c f6c0 e1bc
00000100: fb57 8b3d a1d8 433d 82bb 64bd afde f73b
00000110: 42a1 5bbd 462d 8ebc 5c28 003d 8bde 3e3d
00000120: 880d 723c 434a f03c 607e 063e f40f bd3c
00000130: 19ed 183d 07e7 3f3c 8e35 7a3d 963f d7bc
00000140: d648 943d ae12 883d 3fd3 98bd a648 95bc
00000150: a68b 393c 377d b03c 9f39 1cbd df7f d73d
00000160: 95a8 12bd e721 183d d578 41bd 4172 5ebc
00000170: 9072 283c 2715 bf3d 299a 72bc 1247 943d
00000180: 3da0 4bbc 9aaf 5bbc 0cde 81bd 600f 01bb
00000190: 3b93 623b 151c e8bc 9867 893d 9a4c 933d
000001a0: 2556 d6bc 182b 9ebc 9c24 3abd fda2 84bd
000001b0: 9d02 4a3c 15c2 aebd 101d 7a3d e741 4a3d
000001c0: 6c61 4b3d d40f fd3a 3fab 833d 96f0 a6bd
000001d0: 5521 c0bc 5833 973d fde7 913b 1ab8 aabd
000001e0: 6562 923d 25bb 1f3d e773 1cbc 38e9 983b
000001f0: 75d8 4c38 def9 c93c c11d 2e3d 101b 38bd
00000200: 07f0 97bc 22a1 f0bc e30b 993d e787 1abd
00000210: 5dd9 1dbd 70d8 30bb 4b6a 573c 7bc8 8aba
00000220: 65a4 063d e7fc 97bc d13c cdbc 0afd be3b
00000230: 30de 98bd 3824 4ebd 5c78 86bd a9a4 9d3d
00000240: 42aa 99bc ae52 733d f071 9d3d ffd7 67bc
00000250: 9c22 7f3a 1996 913c 3e0c 613c 014a b33d
00000260: 2844 81bd 37c2 c4bc dff7 d83c 57d9 ac3a
00000270: 174c adbc a60d 853c 9c28 d9bc e0a6 2d3c
00000280: c0fe 173c e76c 8bbc 31de 22bc e8ee ea3c
00000290: 7e1c 763d 72e8 b73d ad5b 223d 76e9 413b
000002a0: 33d7 453d ed89 3e3d 16e6 733d f320 ba3b
000002b0: a143 8cbc 6fe1 943d b387 403d f838 0f3d
000002c0: 1988 da3d d7ca ad3c 33ec 7cbd a047 55bb
000002d0: 9eb6 133c 5449 6a3d 358c 3bbd 0482 7abd
000002e0: 8164 12bc 3982 a8bd eda9 643d 144d 81bd
000002f0: 7cb8 8a3d 4a1b 89bb e172 6ebd 92de 483d
00000300: bc1a bebc 70e2 d6bb 5e38 3ebd 30c2 7a3d
00000310: 6941 35bd 2e63 00bd ef36 64bc 9576 a7bc
00000320: e413 323d 6964 b23c 76ca 1bbd 3266 e7bb
00000330: d9e4 773d a8ed 043c be8a 0fbd 220a 843d
00000340: 69bf a13d 1722 a43c 3b62 b33c 0636 3339
00000350: ec6b 483d 37a7 163d 5563 8b3c f4e6 53bc
00000360: 8717 953d daa4 c33d c8b8 773d bb5c ee3c
00000370: d5f4 86bd db1c 843d 7890 48bd 04fb 8e3d
00000380: e266 80bc 6aba 7e3d fbe9 90bd 735e e33d
00000390: 6745 733d 4b38 11bd 9270 98bb 2bee 1fbd
000003a0: 7d48 073d 7a4b a8bc 5542 d03d 6d84 f4bc
000003b0: e50d 65bc fc49 143d 0cc5 673c 4832 9cbd
000003c0: d6f1 70bc fef6 973c 8679 92bc 2e3d e33c
000003d0: 5a36 953d db82 b63d 48df 1abd a52a b53d
000003e0: 1343 95bd 4d16 893d 823a b03c c2a4 8e3d
000003f0: 2666 013c d300 753d f8d6 e5bc 980e 243b

net.4.weight f4 [14, 256]
0.104254365 -0.073672414 0.02865207 0.05253378 0.02565992 -0.056037817 0.010291998 0.20603324
-0.0039235326 -0.151121 0.0784688 0.058041196 0.05287663 0.019389376 0.028255152 -0.035225827
0.05680323 0.12391899 -0.037456933 -0.02006685 0.0590113 -0.010047136 -0.03157036 -0.031135727
-0.07918633 0.066660814 -0.042577904 -0.1629047 -0.0132042095 0.062326733 0.024712173 -0.0011175324
0.09122437 0.023094334 0.10228195 0.052956793 0.035322487 -0.041694622 0.062310193 0.048820622
-0.02771882 -0.016625062 0.03261481 -0.08528021 0.08860332 -0.027953828 0.02631568 0.0026424336
0.019237505 0.015842818 0.007335835 0.021460269 -0.053246453 -0.027801186 0.031931464 -0.0222506
-0.079932116 0.043825444 0.0982701 -0.035751604 0.14721657 0.007904919 -0.085768156 -0.043720998
0.022025451 -0.056019187 -0.060860448 0.10798933 0.01219431 0.074935585 0.070903465 -0.03500153
0.0815119 -0.009964608 0.15671377 0.014303487 0.017689375 -0.045499176 0.036500923 0.014215546
0.15274502 -0.066271864 -0.009889547 -0.051033836 0.07672602 0.01680682 0.06879403 0.098128825
0.12983672 -0.012207296 0.015161808 -0.04702982 -0.026629625 0.11680469 0.0441261 0.08992538
-0.11506394 -0.05691905 0.02794088 -0.0711079 0.059410278 0.058841433 -0.06833208 0.0855913
0.063603625 0.025491724 0.08116325 0.021636046 0.03405838 0.087630235 0.0729468 -0.006443252
-0.020056564 0.052007098 0.029334256 0.00028544202 0.066669025 0.062386338 0.1304822 0.026614482
0.038523547 -0.11738599 -0.019998873 -0.01623295 -0.067647204 -0.045566015 -0.024854276 -0.09732101
-0.06776442 0.1350774 -0.0023388164 -0.0109806135 -0.047152646 -0.050501462 0.059210446 0.014812791
-0.036759853 0.08975225 0.04221541 -0.08818927 -0.056384087 -0.026917374 0.0599015 0.09106081
0.1235653 -0.021964587 0.023873968 -0.040131636 0.029866738 0.057159908 0.006154264 -0.036921006
-0.01583216 0.035439454 -0.039671503 0.081876375 0.11974271 0.07337838 0.037699845 0.010117124
-0.101150475 0.10312113 0.12904768 0.034846365 0.030224632 0.09890557 -0.06398113 -0.05673931
0.06641702 -0.023160372 0.07017398 -0.013788705 0.0384105 -0.14554854 -0.014091966 0.009766232
0.11855125 0.041288134 -0.07298978 0.01015328 -0.035673946 0.048240688 -0.008618754 0.004364299
0.009516543 0.0051977043 0.033899646 -0.008397605 -0.07242708 -0.039605398 -0.029616551 -0.0206917
0.029513882 -0.08453637 -0.044625517 -0.058699347 -0.029826652 0.12631848 0.1037388 -0.039892554
-0.017893823 -0.055997606 -0.09870082 -0.021788098 -0.034789912 -0.07259621 -0.04064159 -0.015540945
-0.032242004 -0.0128442915 -0.028714152 -0.0037275194 0.08948064 -0.0043094596 0.008247048 0.022735784
0.13106215 0.007779507 -0.04116785 -0.03645752 0.109098315 0.14761709 -0.05119481 -0.0015425642
0.080887266 0.15641981 -0.01193414 -0.058128215 0.12552708 -0.06020832 0.0007038872 0.12435986
-0.014589695 0.033583667 0.0928489 0.035491727 -0.02761378 0.063548855 -0.012971373 -0.004422815
0.03408771 -0.057065956 0.12716126 -0.01268599 0.14715634 0.0016796328 0.07655718 0.026434548
-0.0021915745 -0.016140217 -0.009540739 0.07025769 -0.03657829 0.055306513 0.15014459 -0.061119713
00000000: 5083 d53d 90e1 96bd bfb7 ea3c a92d 573d
00000010: c134 d23c e987 65bd c59f 283c 61fa 523e
00000020: fa90 80bb 77bf 1abe 40b4 a03d 9bbc 6d3d
00000030: 2a95 583d 78d6 9e3c 5977 e73c f548 10bd
00000040: 81aa 683d 3dc9 fd3d 716c 19bd 3c63 a4bc
00000050: d5b5 713d be9c 24bc ec4f 01bd 5a10 ffbc
00000060: 712c a2bd 7785 883d 2b66 2ebd 7dd0 26be
00000070: 7856 58bc 514a 7f3d 2f71 ca3c 2a7a 92ba
00000080: d8d3 ba3d 5430 bd3c 3379 d13d 39e9 583d
00000090: 50ae 103d fbc7 2abd f938 7f3d 22f8 473d
000000a0: 9412 e3bc 4831 88bc 1b97 053d 64a7 aebd
000000b0: a875 b53d 6dff e4bc fb93 d73c ae2c 2d3b
000000c0: f997 9d3c ccc8 813c 7261 f03b 72cd af3c
000000d0: f418 5abd 50bf e3bc 91ca 023d e446 b6bc
000000e0: 73b3 a3bd 4f82 333d d641 c93d 4670 12bd
000000f0: f1bf 163e a283 013c 37a7 afbd ca14 33bd
00000100: b86e b43c 6074 65bd ce48 79bd 8329 dd3d
00000110: a5ca 473c d477 993d d635 913d c45d 0fbd
00000120: b6ef a63d 9842 23bc 9379 203e 2c59 6a3c
00000130: 4fe9 903c 585d 3abd fe81 153d 52e8 683c
00000140: 3169 1c3e 8bb9 87bd c407 22bc db08 51bd
00000150: 8822 9d3d 75ae 893c e2e3 8c3d c4f7 c83d
00000160: ebf3 043e 1c01 48bc 3b69 783c 57a2 40bd
00000170: 5f26 dabc 4c37 ef3d 92bd 343d cc2a b83d
00000180: a5a6 ebbd f323 69bd 46e4 e43c 05a1 91bd
00000190: 3158 733d b703 713d b1f1 8bbd 7e4a af3d
000001a0: 9e42 823d 05d4 d03c eb38 a63d 143e b13c
000001b0: cd80 0b3d 7b77 b33d 2265 953d ea21 d3bb
000001c0: aa4d a4bc 6505 553d 654e f03c 61a7 9539
000001d0: c589 883d d188 7f3d 209d 053e 9d06 da3c
000001e0: deca 1d3d 1168 f0bd add4 a3bc f7fa 84bc
000001f0: 9e8a 8abd 6ea3 3abd 329b cbbc 3d50 c7bd
00000200: 12c8 8abd bb51 0a3e d446 19bb 08e8 33bc
00000210: 2223 41bd 9fda 4ebd a786 723d 59b1 723c
00000220: 8091 16bd 07d0 b73d 11ea 2c3d 939c b4bd
00000230: 00f3 66bd d381 dcbc 465b 753d 177e ba3d
00000240: ce0f fd3d 14ef b3bc 5793 c33c 1261 24bd
00000250: 17ab f43c 8220 6a3d b5a9 c93b 7b3a 17bd
00000260: 72b2 81bc f628 113d 967e 22bd cdae a73d
00000270: aa3b f53d 6747 963d 276b 1a3d 4bc2 253c
00000280: fb27 cfbd 2c31 d33d 1325 043e 10bb 0e3d
00000290: a699 f73c 018f ca3d 8a08 83bd 7b67 68bd
000002a0: a605 883d d2ba bdbc 60b7 8f3d 05ea 61bc
000002b0: 5454 1d3d ad0a 15be fde1 66bc 8c02 203c
000002c0: ffca f23d bf1d 293d aa7b 95bd f159 263c
000002d0: d81e 12bd 0798 453d ad35 0dbc 6502 8f3b
000002e0: 46eb 1b3c 8151 aa3b 5bda 0a3d 1c96 09bc
000002f0: a654 94bd 4539 22bd 699e f2bc a481 a9bc
00000300: 19c7 f13c 6821 adbd 3fc9 36bd ba6e 70bd
00000310: 0657 f4bc a259 013e 0275 d43d 6066 23bd
00000320: 1196 92bc bf5d 65bd a823 cabd f47c b2bc
00000330: de7f 0ebd 52ad 94bd cc77 26bd 739f 7ebc
00000340: 3110 04bd dd70 52bc f139 ebbc 6649 74bb
00000350: a041 b73d 5e36 8dbb a01e 073c 6540 ba3c
00000360: 2835 063e 3ceb fe3b 9f9f 28bd 7b54 15bd
00000370: f06e df3d ef28 173e a6b1 51bd de2f caba
00000380: 39a8 a53d 842c 203e 6987 43bc da17 6ebd
00000390: 2c8a 003e 009d 76bd 1285 383a 62b0 fe3d
000003a0: 9e09 6fbc 078f 093d 9027 be3d c65f 113d
000003b0: 4b36 e2bc e725 823d e285 54bc 43ed 90bb
000003c0: 8e9f 0b3d febd 69bd 9036 023e e6d8 4fbc
000003d0: 27b0 163e 2027 dc3a 03ca 9c3d 448d d83c
000003e0: 85a0 0fbb 7d38 84bc c250 1cbc 44e3 8f3d
000003f0: 1ed3 15bd 1589 623d 81bf 193e aa58 7abd

net.4.bias f4 [14]
0.022387357 -0.059634887 0.01903052 -0.11513165 -0.028712254 0.023477037 0.0025208788 0.03506385
0.04253343 0.025585093 0.08499914 0.05051339 -0.06355335 -0.05057319
00000000: b165 b73c b643 74bd e5e5 9b3c 24ca ebbd
00000010: f635 ebbc ea52 c03c 5435 253b 1d9f 0f3d
00000020: 8937 2e3d d497 d13c 0714 ae3d 21e7 4e3d
00000030: 4228 82bd d525 4fbd
