checkpoint/final/agent_2_value.pth (torch, 318621 bytes, 5 tensors)

net.0.weight f4 [256, 49]
00000000: 13f5 3e3e 0be7 ddbb a945 033e 8823 91bd
00000010: 6acf bc3d cf47 93bd bcee b3bd cad8 eabd
00000020: 0823 f6bd ceb5 1dbe 00e5 173e 6a8f 023e
00000030: fb3e fabd 9f05 ae3d a01a 2d3c fd8f 15be
00000040: 716e 733d abe6 a73d f61b 1a3d c2b9 b63d
00000050: 911a 793b 7f7c 21be 5094 253d 16ba b2bd
00000060: 57a2 f73d 8e30 f1bd 478e 593d f101 5bbd
00000070: fddd c73d 8478 86bd aa31 0fbd 9731 bfbd
00000080: 9ce0 5a3d 5f48 453d 52a6 9cbb ac17 11be
00000090: 8c7d da3d 9ba2 813d 7626 dd3d f9ee c23b
000000a0: 3751 823d e624 88bd 315b 29bd 83a4 de3d
000000b0: 4d96 cbbd fb0f 3cbd 9fa7 213d 6e7f 383c
000000c0: a742 953d 2eac bcbd 07d6 a8bd b046 6f3c
000000d0: bf82 093e eaf7 1a3e 05d5 5fbe 5407 84bd
000000e0: 4ba8 c63d 6a19 e43d 2859 83be 8542 b6bd
000000f0: 0335 b63c 7417 313e 5644 53be 745c cbbd
00000100: f32d efbc fcfb 95bc 6589 33bb efc8 08be
00000110: 0ed4 cebd d187 853d d407 14bd 5533 643c
00000120: 5e78 89bc 1d2f 083d dbc6 81be 1179 963c
00000130: 9999 1abe 885a 113e 356a 77be 8a21 d53d
00000140: 64df 3b3c 0af4 32bd 52eb 72bd d929 f4bc
00000150: 494d 94bd 769e 04be 9e6d 27be c262 d4bd
00000160: 6208 d0bd add9 e6bd 6f57 66bd 837a ca3d
00000170: c9f5 363d 38ec e3bd 4c15 133d 5720 783d
00000180: c59f 11bd 00c0 da3c 8842 88bd b7ff 09be
00000190: 3c64 b73d cb8a 1fbe d88f 6b3d 8ff9 e0bd
000001a0: a3e5 0ebd 6df0 11bd 3c0a 953d 6e26 68bd
000001b0: f2d1 b3bd 120e c4bd 3749 353d 7b19 f3bd
000001c0: b1f7 a63d 3fe3 0ebe 3116 99bd 44ee dcbd
000001d0: cc97 e43d 417d 8dbd fea8 613c ea57 8f3d
000001e0: 7c7e 203e 6c30 9dbd ed0a d9bd 60e0 29bd
000001f0: 9710 1a3e 7ac2 f63d 4a40 4f3a de03 55be
00000200: c62d 1bbe a6e1 a8bd 20ce 17be 4cdc 67bd
00000210: fa8a 62bd c4f2 adbd be34 55bd 1056 5bbe
00000220: 6ff7 efbc f628 95bb 5eb2 a2bd 4e0e 1ebe
00000230: d87d 86bd df3f bd3c 3a3e 2d3d 5782 1f3d
00000240: 5507 2cbe f357 3c3d ab20 22be 8815 ec3c
00000250: 78d2 fcbc e579 e23c 83f5 d63d b211 253c
00000260: c26a 59be 12ea 3abe bc0c cd3d 838c ef3d
00000270: d4e9 46be a1f6 22bd 304a 8cbc aab2 e53d
00000280: c6fb ccbd a763 eeb9 42fe 5bbc e06d 0b3e
00000290: f180 49be 6f43 6a3d f4f3 cabc 88f5 333d
000002a0: 46c3 0dbe 6dfa 90bd 3828 f43c 5694 d5bd
000002b0: 9657 efbc d147 823c 911a a2bb 4fa6 d8bc
000002c0: 2516 3dbe 1d90 e23c f5bb c03d f4dd 08bd
000002d0: 18c7 f4bd 72d6 693d 0773 8e3c 0de3 b33b
000002e0: ba5c 843d 4caa ee3d 90da debd 96c1 dc3a
000002f0: 8f3b 5ebe b53c f43d f797 eabd 0ea8 3dbd
00000300: 7e94 963c 46e2 bd3d e510 96bd 2c75 e93c
00000310: c1d9 d1b8 7573 6bbd 0807 953d 6f2a e03d
00000320: ef60 053c 19a8 223e 5ad9 2a3e 7e47 ac3d
00000330: a9ef 423d e65d fa3d 6513 d63d 474d 52bd
00000340: 0b6f 103e afbe 5dbd f956 883d 52e8 3c3e
00000350: 936e cc3c 6d07 ee3d a3fe a43c a7c4 c73d
00000360: 470d 7d3d ee67 afbd af52 a1bd faae 0dbe
00000370: 579a fcbd 785c 1ebc fa9d c03d 7316 95bd
00000380: 77c2 09be 172a 963c 0a7a cfbd c87b ef39
00000390: 71a9 d13d ca41 473d 2018 113e 5e5b 28bc
000003a0: 80ae dfbd 57ac bfbd 8358 05be 59a2 e13d
000003b0: 36c6 fd3d f3d8 f33d 43cb 3c3d 7378 8f3d
000003c0: be5e 2e3e 4291 58bd 1555 bf3d a1e8 5c3d
000003d0: c43a 1fbe 08e6 543d 4c14 2e3d 4144 0ebe
000003e0: 33e2 d03d 15f6 9bbc cf01 8f3e 0a4b de3d
000003f0: 7612 7d3d 28fb 74bb 63d8 8cbc b68b 673d
0.18648176 -0.0067719272 0.12819542 -0.07086855 0.092192486 -0.07191431 -0.08785769 -0.114671305
-0.120184004 -0.15401384 0.1483345 0.1275002 -0.12219044 0.08497166 0.01056543 -0.14605708
0.059431497 0.08198293 0.037624322 0.08922149 0.003801022 -0.15770148 0.040424645 -0.08726899
0.12091511 -0.11776839 0.053114202 -0.05346865 0.09759138 -0.06565955 -0.034959473 -0.093356304
0.05343686 0.04816472 -0.004780569 -0.14169186 0.106684774 0.06329843 0.107983515 0.005948898
0.06363147 -0.06647663 -0.041346733 0.10871222 -0.09940777 -0.045913678 0.039466497 0.01126085
0.072881036 -0.09212528 -0.082439475 0.014604256 0.13428782 0.15133634 -0.21858604 -0.0644671
0.09700068 0.1113766 -0.25653958 -0.08899406 0.022242075 0.17294103 -0.20631537 -0.099297434
-0.029196715 -0.018308632 -0.0027395126 -0.133579 -0.1009904 0.065200455 -0.036140278 0.013928254
-0.016781028 0.033248056 -0.25347027 0.018368276 -0.15097655 0.14194691 -0.24161609 0.10406788
0.011466835 -0.043689765 -0.05930645 -0.02980511 -0.072413035 -0.12951073 -0.1635041 -0.10370399
-0.10157849 -0.11271987 -0.056235727 0.098866485 0.044667993 -0.111290395 0.035908982 0.060577717
-0.03555276 0.02670288 -0.06653315 -0.13476454 0.08954665 -0.15580289 0.057510227 -0.109850995
-0.034886967 -0.03562968 0.07277343 -0.056677274 -0.08780278 -0.09572996 0.044259276 -0.118700944
0.08152712 -0.13953875 -0.07474936 -0.10787633 0.111617655 -0.06908656 0.013773201 0.0699919
0.1567325 -0.07675251 -0.10597787 -0.041473746 0.15045391 0.12048812 0.0007906003 -0.20802256
-0.1515418 -0.08246164 -0.14824724 -0.056606576 -0.05530832 -0.084935695 -0.052052252 -0.21419549
-0.02929279 -0.004552002 -0.07944177 -0.15435144 -0.065669715 0.023101745 0.042295672 0.03894266
-0.16799672 0.045982312 -0.15832774 0.02881886 -0.030862078 0.027646014 0.104960464 0.01007502
-0.21232131 -0.18253353 0.100121945 0.11696722 -0.19425136 -0.039785985 -0.01712522 0.11215718
-0.100089595 -0.00045469144 -0.013427319 0.13616133 -0.19678093 0.057193216 -0.024774529 0.04393533
-0.13844022 -0.07079015 0.029804334 -0.104286835 -0.029216569 0.015903385 -0.0049470146 -0.02644649
-0.18465479 0.02765661 0.0941085 -0.033414796 -0.119520366 0.057089277 0.017388834 0.005489713
0.06462999 0.11653575 -0.10881531 0.0016842361 -0.21702407 0.119256414 -0.11454766 -0.046302848
0.018381353 0.09271674 -0.07327441 0.028498255 -0.000100064564 -0.057483155 0.07276732 0.109455936
0.008140787 0.15884437 0.16684476 0.084120736 0.04759184 0.12224941 0.10452918 -0.05134323
0.1410486 -0.05413693 0.06657214 0.18447998 0.02495507 0.1162251 0.020140951 0.09754305
0.06178024 -0.08564745 -0.07877099 -0.1383628 -0.123341255 -0.009665601 0.09405132 -0.072796725
-0.13453089 0.018330617 -0.10130699 0.00045677857 0.102373965 0.048646726 0.14169359 -0.01027569
-0.10921955 -0.09359043 -0.13022046 0.110172935 0.12391321 0.11906614 0.046092283 0.07005396
0.17028329 -0.052872904 0.093424 0.05393279 -0.15549761 0.051977187 0.042499825 -0.13893224
0.10199394 -0.01903824 0.27931067 0.10854156 0.061785184 -0.0037381146 -0.017193025 0.056529723

net.0.bias f4 [256]
00000000: ce7a 453d c565 c8bc b1d5 c5bd e18b b2bd
00000010: a399 9ebd 55df 0a3e e37f 53be f501 8b3d
00000020: bcf4 213e fcd6 013d b610 993e 5d3f a43d
00000030: ad62 51bd 48c6 76bd 8a60 0cbd 7de8 56bc
00000040: 61c2 25bd b67d ab3d 0a54 173d 8f32 54bd
00000050: 02f7 073e d9a2 4e3e f9bc 943d 3b25 c9bd
00000060: eb52 0a3e 3411 9c3e 1305 90bd 3685 b0bc
00000070: 8289 0dbe d8d2 863e 6d9f f73a 849c c33d
00000080: c813 233e f923 c13d a8e8 2fbd 1493 b9bc
00000090: fe08 8a3d 3d05 f1bd a9c1 643d fce3 8ebd
000000a0: 594d d2bc 73d0 e1bd cb53 f23d cee9 f43d
000000b0: fead 9d3e 7205 953e a3b8 be3e 332a 103e
000000c0: 226e 7a3d a754 d6bd 17e2 8abd 1595 f1bd
000000d0: 025d 7bbd 1f4a 983e 2ab1 9e3e 1299 39bd
000000e0: 66ae 03be 4756 023e 60ee e3bc 7853 1c3d
000000f0: c5ee e6bd d54f 8dbd f962 833e aef1 5d3e
00000100: 9258 7c3c 3b31 91bd aef0 cbbd 7ab2 4c3e
00000110: 1492 c5bc a26d d83c f23c edbd a5c3 c53d
00000120: 4419 813a 6e38 88bd fe27 8bbd 0626 f83d
00000130: a83b aebd 3a47 833e adaf e4bd 4e3e c13e
00000140: 68fa b43e f4f3 2f3d 3b77 fcbd c8d0 20be
00000150: 9f4a c7bd dfea 013e c1ed 8f3d bbdc f83a
00000160: 2fe0 e0bd d0cb d53c 1d2c 2a3d 857f b83e
00000170: 858a 3f3d 7551 a23d f743 113e ed83 21bd
00000180: cfbc 0d3e 5257 04be 7b1a bd3d 53eb 053e
00000190: d328 b63d 05b4 b33d a232 583d fbbe d93e
000001a0: 6f0f db3d c6e3 07be b8ed 853c 8613 d9bd
000001b0: ec20 88bc 14a0 e1bd 901e 4f3e c1b4 a8bb
000001c0: e87b 35bd eaac 113e e99f 4a3e 65b3 4fbe
000001d0: 7db8 5cbd 5c7f 3c3e 1feb 993e 6c7a 79bd
000001e0: 1d7f c43e 7e2d 5ebd 1319 7f3d 674b f8bd
000001f0: 9b40 783e 22f9 99bd 22ec 48bd ce1d 2cbd
00000200: 1c97 013e 838e 3f3c 42be 853d 595b dfbd
00000210: fca7 553d 4181 2d3e 5f64 16be 9e19 18be
00000220: e1fb 1abc 3308 e8bd 6cc2 1abd 669b 10ba
00000230: b86b b83c bf3e 203d 0cfa 60bb b8ce e33d
00000240: c902 1d3c 0f2c e2bc 1afd b13e a1e3 c23d
00000250: 7560 6cbd 5ba2 78bc e891 dcbd ed9c 303e
00000260: d5e2 34be 9595 013e 8f2d 99bd 9182 5a3e
00000270: ff5f c0bd bda7 413e 1ccc 7ebd e2c9 f53b
00000280: 531d 6ebd 4065 45bd f661 b43d 37dd b23d
00000290: e8c9 a9bd 6d66 b03e 9388 cd3d ecbb 2dbe
000002a0: 1b19 a13e 0159 143c c5a4 293d cdf7 b53e
000002b0: 5dd2 673d ef2b fcbc 97d3 50bd c66f 473c
000002c0: 1d2a 2abe 99e9 893d a148 87bd aa69 8dbd
000002d0: 5555 2f3e 6c63 833d 343a 60bc a4e1 10bd
000002e0: e0e9 a53a 9a64 893e 1b9b 4a3e 7d4f 8a3e
000002f0: 1af4 f03d f724 953e 56fb 633e 36bc 273e
00000300: d1f4 393d 90b0 cb3e 41ba 803e 9c64 2fbb
00000310: c53b 613d 7c52 693d ca48 783d e863 02be
00000320: e415 82bd c75d 11bd a144 093d f6f0 a4bd
00000330: 7fef 913e 9649 083e fa2d a3bd 36da ba3d
00000340: dd95 48b8 fda1 29be cc95 9bbd a707 223e
00000350: 70b3 6f3d 0730 43be 902a 01be 5e0e b83c
00000360: fa25 ba3e d979 0dbe 3211 293e 9fbd 91bd
00000370: 2899 c03d 1320 0e3e 2264 3fbe d5b7 8a3e
00000380: e21d c63d ca5d 5c3d e7cb c9bd b445 17be
00000390: 1256 cc3c 03a6 733d b8f6 a03e 6263 6d3d
000003a0: d230 c5bd 82d8 33bc 629e 0ebe baf0 4f3e
000003b0: 8b32 a33e f053 f9bd 7501 253e 4945 093e
000003c0: eca5 4f3e 492d 79bd e6ba 0c3d ce56 603e
000003d0: 209e 333e a8ee 06be b43f 843d 8f37 2abe
000003e0: 2029 c9bd 2504 e1bd 0368 6d3c d086 27be
000003f0: fc65 4cbd 2d63 d03c 1bbc dfbd c1f4 3f3d
0.04821282 -0.02446259 -0.09659899 -0.08718086 -0.07744148 0.13561757 -0.20654254 0.06787483
0.15816015 0.031699166 0.29895562 0.08019898 -0.051119495 -0.06024769 -0.034271754 -0.013116953
-0.040468577 0.08373587 0.03694538 -0.05180603 0.1327782 0.20179309 0.07262606 -0.09821554
0.13508193 0.30481875 -0.07032218 -0.021547895 -0.13821986 0.26332736 0.0018892117 0.09551337
0.15925515 0.09430689 -0.042946488 -0.02265314 0.067399964 -0.11768577 0.05584875 -0.06977078
-0.025671648 -0.11026087 0.118323885 0.11958657 0.30796808 0.29105717 0.37250242 0.14078598
0.061140187 -0.10465365 -0.067814045 -0.11796013 -0.061367996 0.2974405 0.3099454 -0.045311995
-0.12859496 0.12728225 -0.027823627 0.03816554 -0.112760104 -0.068999924 0.25661448 0.21674225
0.015401976 -0.07089468 -0.099580154 0.19989958 -0.024117507 0.026419464 -0.1158389 0.09656457
0.0009849449 -0.06651388 -0.06794737 0.121166274 -0.08507472 0.2564028 -0.1116632 0.37742847
0.35347295 0.04295726 -0.12327429 -0.15704644 -0.0973103 0.12687252 0.0702777 0.0018986681
-0.109802596 0.026098162 0.041545976 0.3603479 0.046762962 0.07925693 0.14186083 -0.039432455
0.13841556 -0.12923935 0.092335664 0.1307805 0.08894505 0.087745704 0.052782662 0.4252852
0.10696303 -0.13270482 0.016348705 -0.10599427 -0.01661726 -0.110168606 0.20226502 -0.0051485007
-0.04430762 0.14226118 0.19787563 -0.20283277 -0.05388688 0.18407959 0.30062196 -0.060907766
0.3837823 -0.054242603 0.062279772 -0.12123757 0.24243395 -0.075182214 -0.04905332 -0.04202061
0.126553 0.011691692 0.065304294 -0.10906095 0.052162156 0.16943838 -0.14686726 -0.14853522
-0.009459467 -0.11329689 -0.03778307 -0.000551632 0.022512302 0.03912234 -0.0034328727 0.11123413
0.009583184 -0.0276089 0.34763414 0.09516073 -0.057709176 -0.015175427 -0.10770017 0.17247362
-0.17664655 0.12654717 -0.07479393 0.2133887 -0.0939331 0.18911643 -0.062206373 0.007500873
-0.058133435 -0.048192263 0.08807747 0.087336 -0.08290464 0.34453145 0.10035815 -0.16966218
0.31464466 0.009054423 0.041416902 0.3554062 0.056597102 -0.030782668 -0.050983038 0.012172645
-0.16617627 0.06734008 -0.0660565 -0.069049194 0.17122395 0.064154476 -0.013685752 -0.035371438
0.0012658201 0.26834565 0.1978573 0.2701377 0.11765309 0.29129764 0.22263846 0.1638039
0.04539949 0.39783144 0.251421 -0.0026762849 0.05498864 0.05696343 0.060616292 -0.12733424
-0.063518316 -0.035489824 0.033512715 -0.08053772 0.28503034 0.13309321 -0.07967754 0.09123652
-4.7823287e-05 -0.165657 -0.07596931 0.15823232 0.058520734 -0.1906129 -0.12613893 0.022467788
0.363571 -0.13816012 0.16510466 -0.071162455 0.09404212 0.13879423 -0.18690541 0.27093378
0.096736684 0.05380038 -0.098533444 -0.14772683 0.024943385 0.059484493 0.3143823 0.057956107
-0.09628452 -0.010976912 -0.13927606 0.20306674 0.318745 -0.12174213 0.16113837 0.13405336
0.20278138 -0.060834203 0.034357928 0.21908113 0.17540789 -0.13176978 0.06457463 -0.16622756
-0.09822297 -0.10987119 0.01449013 -0.1636002 -0.049901947 0.025437916 -0.1092455 0.046864275

net.2.weight f4 [256, 256]
00000000: dd9c 62bd 21bd eebd 4068 a9bc 2f40 fbbb
00000010: 1e23 2f3d 086d 3e3d a2b5 0f3d 37a2 a8bc
00000020: 3153 12bc b3e4 11bd da8c 023d 8b8f 2e3b
00000030: 2dda e7bd 3f4f b8bd ef8f 6fbc 0a2c 29bd
00000040: 0f4b 15bd 474a 563c 21e4 27bc 64ef 51be
00000050: 8d79 063c a3d0 7f3d 6142 77bd b9b2 32bd
00000060: 5923 50bd 7cee 363c b9bb 2ebd d9e0 263d
00000070: 0109 a6bd 3e04 173e bb38 2dbd ff68 513d
00000080: 8158 d0bb 305f 0f3d b26e e3bd 0800 443c
00000090: c4f5 22bd 1135 b8bd 8c06 833c feae 94bd
000000a0: 290a fc3b 6bf9 84bd f946 7e3d 01ba 3e3d
000000b0: a0d2 c43d 03c4 893d 35a3 6c3d d4d0 8e3d
000000c0: b31d f7bc 13ad cdbc 3909 503d 266d 83bd
000000d0: a22b 153d eae3 9b3d 4195 c83d 55f5 c3bc
000000e0: dd83 d5bd ca2b b63c a9c9 4fbd a6a9 afbc
000000f0: 36c2 8dbd 8d89 26bd 07a4 28bd d598 843d
00000100: 841f f0bd 5173 1c3d 2a9b 413c 94f2 0b3d
00000110: 7b81 00bc afa2 51bd 73fd 9cbd 469c 2c3d
00000120: 3f40 1cbd 17e7 34bd df60 23bc 900b dd3d
00000130: a133 9ebd 6241 783d 55cd f63c 8dd4 ce3c
00000140: 5230 483d 58a4 8dbd e35b 90bd 10a9 89bd
00000150: fa51 0abd 023a 363c ac52 a1bd da02 e23c
00000160: 1374 cdbd d76b b93c bdc8 ca3c 7805 9b3d
00000170: eae5 b838 a846 4dbc 0042 a8bc cf17 923d
00000180: ff59 4f3d b7de bcbd 78d0 f03c ac98 38bd
00000190: f704 99bb 2e13 543d 7018 38bd 9069 d43d
000001a0: 0f1c 363d 5fe6 de3c fdc5 833c 74d6 56bc
000001b0: 0427 a1bd e052 29bd b45e 5c3d 8f49 053d
000001c0: 86f3 9ebc 35ac 843d b389 073d cf10 4c3b
000001d0: efb1 6cbd 1711 053d d6da 433d c2bb d0bc
000001e0: aa42 c63d f071 babd 0b44 df3c f101 4f3d
000001f0: 7680 983c c601 cc3c bf39 a63c 2938 18bd
00000200: 9df6 853d ff8f 6cbd 0b2b c7bc a0ed 9fbd
00000210: 9b56 663b dcea 0c3e 08a7 05bd 1768 363c
00000220: ead1 42bd d968 81bc 89ab 313c 6fa0 4c3c
00000230: 7815 a3bc 9443 adbd 0f21 3abb 4233 a2bc
00000240: ff12 913d fb65 663b 72e2 1f3e f0dc 2c3c
00000250: 13bf 32bd 8213 243d 316f e33c 72cf 0c3e
00000260: 7027 953c 47ee ac3a 2062 32bd eeb6 c63c
00000270: 524c 59bc 210d 4d3d 414e a7bd 78b2 fabd
00000280: a7c1 f7bc f409 3a3d f756 95bd 5197 633b
00000290: 8ec8 7b3c 0be4 f83d 4e41 bf3c 5965 22bd
000002a0: 8fe8 b93d f501 603c 5315 51bd e4f9 af3d
000002b0: 5135 d8bd d816 04be 084e fa3c f082 76bd
000002c0: 5547 783d 59ab 58bd 5c18 e2bc 653e 1a3c
000002d0: 036e 203d afbf 333d 9a75 bcbc d5aa 183d
000002e0: 5407 71bd 31f0 223d 523e 5bbd f80d bf3d
000002f0: 1d9c 183d 7680 d73d 5236 8f3d a944 883b
00000300: fd09 f23c 1e76 e13d 358f 25bd c08f d23c
00000310: 122b 18bd 7d03 eb3c 669f e93c af75 693d
00000320: 372a c7bd 5fb7 083d 669f 2c3d ef70 73bd
00000330: c1c9 a7bc 9ef6 2fbd 4623 7fbd 0bd6 7bbd
00000340: d01c 353d fe00 ffbc 7106 80bd 81aa 3d3d
00000350: b383 05bc 9c90 59bd 7c0f c9bd a203 74bc
00000360: 0615 043e 5243 4bbb 146f 2d3d 0bd4 36bd
00000370: 81c4 e13c 55fc 10bd 52d2 bebd 115f 8f3d
00000380: 8012 3a3d 3e4f c7ba 274e 8cbd 5abe 64bd
00000390: 5ccc e8bd b5ec 2abd 1e48 0d3d e9f8 8a3c
000003a0: d437 81bc 16da 07bd 75c8 d2bc f129 9a3d
000003b0: 3568 5a3d 1e39 1d3d 8c19 c9bc c372 9abc
000003c0: fa26 b03d cd82 c93c 4627 70bc aba8 ec3d
000003d0: cd32 b73d ce2b 4fbb 1d1f 013d e6da 863c
000003e0: d62e eebd ce42 13bd e626 a7bc 6ecd 5cba
000003f0: 1e7d e0bc 919e 10bd bb88 e83c 3181 4abc
-0.055325378 -0.11657167 -0.020679593 -0.0076675634 0.0427581 0.0464907 0.035085328 -0.020585163
-0.008930967 -0.035618495 0.031872608 0.0026635851 -0.113209106 -0.0899949 -0.014621719 -0.041301765
-0.036448535 0.013079233 -0.010247261 -0.20501477 0.008207691 0.06245483 -0.06036604 -0.043627474
-0.05081496 0.011165258 -0.042659495 0.040741775 -0.08107186 0.14747712 -0.04229043 0.051125523
-0.0063582067 0.035002887 -0.11105098 0.011962898 -0.03978516 -0.089944966 0.015994333 -0.072599396
0.007691641 -0.06492885 0.062079404 0.046564106 0.09610486 0.067268394 0.057772834 0.069734246
-0.030165529 -0.025106942 0.050790045 -0.06417303 0.036418565 0.076118305 0.09794093 -0.023920694
-0.104255415 0.022237677 -0.050729427 -0.0214432 -0.069218084 -0.040658522 -0.041172054 0.06474463
-0.11724761 0.03819591 0.011816779 0.034166887 -0.007843371 -0.051180538 -0.07665529 0.04214122
-0.038147207 -0.044165697 -0.009971826 0.10793221 -0.07724691 0.06060923 0.030127207 0.025247836
0.048874207 -0.06916112 -0.07048776 -0.06721699 -0.033769585 0.011122229 -0.078770965 0.02758925
-0.10031905 0.02263443 0.024753923 0.075694025 8.8166285e-05 -0.012529053 -0.020539284 0.071334474
0.050622936 -0.09222167 0.02939628 -0.045067474 -0.0046697813 0.051776104 -0.04494518 0.10371697
0.044460353 0.027209459 0.01608562 -0.013112653 -0.0786877 -0.0413388 0.053801253 0.032540854
-0.01940323 0.064781584 0.033090305 0.0031137948 -0.05778688 0.032487 0.04781612 -0.025480155
0.09680684 -0.09103763 0.027254125 0.05053896 0.018615942 0.02490319 0.020291207 -0.037162933
0.065411784 -0.057754513 -0.024312517 -0.07808995 0.0035146836 0.13761467 -0.032629997 0.011133215
-0.04756347 -0.015797066 0.01084412 0.012489422 -0.019907698 -0.08460155 -0.0028401052 -0.019799832
0.07083701 0.0035156 0.15613726 0.0105507225 -0.043639254 0.040057667 0.027762981 0.13751009
0.018207282 0.0013193571 -0.04355061 0.02425715 -0.013262825 0.05006135 -0.081692226 -0.122410715
-0.030243708 0.04541965 -0.07291978 0.0034727643 0.01536764 0.12152871 0.02334657 -0.039647434
0.0907756 0.013672342 -0.051045727 0.08592585 -0.10557044 -0.12899339 0.030554786 -0.060183465
0.060614903 -0.052897785 -0.027599506 0.00941429 0.039167415 0.043883976 -0.023005296 0.037272293
-0.05884488 0.039779846 -0.05352623 0.09328836 0.037258256 0.10522549 0.06992783 0.0041585756
0.029545778 0.11008857 -0.040419776 0.025703311 -0.03715045 0.028688187 0.02851839 0.056996997
-0.09724849 0.033378 0.0421442 -0.059433874 -0.020481946 -0.0429598 -0.0622895 -0.061483424
0.04421693 -0.031128403 -0.062512286 0.046305183 -0.008149075 -0.053116426 -0.098174065 -0.014893444
0.12898645 -0.0031015468 0.04234226 -0.044635814 0.02755952 -0.035396893 -0.09317459 0.07000554
0.0454278 -0.0015206111 -0.06850844 -0.055845596 -0.113671035 -0.041729648 0.034492604 0.016964393
-0.015773691 -0.033166967 -0.025730351 0.07527531 0.053322036 0.03838455 -0.024548315 -0.01885355
0.08601184 0.024598503 -0.014657801 0.11555608 0.08945236 -0.0031611803 0.031523813 0.0164618
-0.11630027 -0.03595238 -0.02040429 -0.00084229454 -0.02740341 -0.03530747 0.02838551 -0.012359903

net.2.bias f4 [256]
00000000: 81e2 673e 98b4 9eba b491 7dbd d9e6 02bd
00000010: 875a 773e 5be2 d2bd 8ac1 16bb 5a63 0d3e
00000020: 1c1b 673e 6a33 34bc 9c1f 653e 9beb 543e
00000030: fc14 8cbd 9e5d 1d3e cf03 2bbd ea86 88bd
00000040: 2e5a 29bd ea97 e33c b254 5fbd 042a 87bd
00000050: 00ff 35bc deb6 63bd 5ffc 163d a761 c1bd
00000060: 1748 4fbd d6f6 243e 1979 8abb 7cdf c2bb
00000070: 7ee7 cfbd d8cc aebc 8216 d53c 0722 853e
00000080: c24c 28bd 9ecc bbbb 5c83 dbbd f31f b5bb
00000090: ee14 4f3e 8577 853c 5219 16bc 0164 a6bc
000000a0: d0cb 523e 9c9c 41bc 3964 a43d 8dd9 693e
000000b0: 833d 443d de2c 683e 9be1 10bd 270d 81bd
000000c0: e071 01bd 6d28 70bd 70a1 53bd 1a07 9abd
000000d0: a9bc eabc c969 f1bd e189 e03b 0393 583e
000000e0: 10f6 3d3e 679b 12bd 7433 1ebd e93f e5bb
000000f0: 93e3 30bd 8278 58bd df50 e5bd f375 613e
00000100: c464 6ebd acc8 aabd 213c 663e e705 53bd
00000110: 4093 b33b fa0b 36bc 66fa 8bbd 2912 1c3e
00000120: a3ea 2e3e 10f6 a23d c6ea 673e bf3c 33bd
00000130: 9a9b 3dbd 9ecb 80bd c593 5b3e 8981 173e
00000140: 2559 9c3c b852 50bd 42cc 393e 6505 bfbd
00000150: 0865 8bbd c690 01be d0ab 7fbc b9e4 54bd
00000160: 00f9 443e 5399 65bd dcfc b83b 85bd 29bc
00000170: b1fc fabc 9b7e 8e3e 9b23 08bd ae52 20bd
00000180: b13c 84bd 9f3b 943a 60b3 283e bce5 36bd
00000190: 61b7 97bb 4213 aabd 1499 8b3e e40a 01bb
000001a0: 1e5d 8fbc 0e20 8d3e 1218 703e e6ab a43c
000001b0: 840a 753e d1f2 033e cfb7 833d 2e73 033e
000001c0: f95e 52bd efb0 4d3d f0b5 81bb b589 e83c
000001d0: 0f4e 453e 1075 8e3c 74fa a4bd 4847 883e
000001e0: aad7 51bd fe8b 3dbd aed3 d5bd 3110 d03b
000001f0: 6639 663e d67d 6cbd fe7b 5bbd c52f 7abd
00000200: 25da d3bd 15ec a03c 3b93 61bd 4311 02bd
00000210: aeec 14bd 36fb 23bd a2cf 853e 3689 75bd
00000220: 4868 98bd a73a 8c3e 57ba 2d3b ceb0 853e
00000230: 3300 603e 7bfa 253e 7592 e0bc 3676 5cbd
00000240: ef46 3bbd 7c4d 05bc 0922 7cbc 2631 dd3c
00000250: 4276 3c3e 17f3 b4bd df99 6d3e 775a a6bd
00000260: b23b 383e 43f0 4c3e 68a8 9d3d d52b 793e
00000270: 1871 20bc 5a0c 05bd 8607 0abb 001d 2c3e
00000280: a3ff 323c e1ea b33b 4adc 15bd 439c 50bd
00000290: daa4 08be ef9d 8ebd 930a 8abd 8af9 553e
000002a0: a862 603e 80ef 103d 838d ccbb 4282 b1bc
000002b0: 3a54 bfbd a774 4d3c 9179 7abc d80d 3abc
000002c0: f712 6bbd e024 0b3b 4e4b 913c 411c af3e
000002d0: bc1d 82bb 1a9c 2cbc 5dca 6a3e f301 143c
000002e0: a2b5 603e 5d37 9abc 507e 333c ddb4 e03c
000002f0: a5e8 13bd 73f1 763b 6b18 5c3e 6e71 653e
00000300: 896b d5bd 04eb cdbd 349d e13c 64e3 68bd
00000310: 78ac 0bbd dbec d53d 1f19 b6bd aee7 b63c
00000320: 2c13 b7bd 86ee 133d 5594 4c3e 6ed3 a2bc
00000330: 4958 383d 2c76 983d d525 553e c7c2 85bd
00000340: 0e63 2c3e e7b5 90bc 29ce d93c d4a2 70bd
00000350: 78cd e13d 8862 87bd 2001 853d 0993 61bd
00000360: 0150 083c fb2b 973e 2989 a13e 3de5 a1ba
00000370: 0829 8ebd 9296 b7bc 5761 4abd fe6d 553e
00000380: e0d4 82bd ac80 7f3e f017 27bd 9e0c 433c
00000390: 6d04 65bc 0c15 48bd 20c5 45bc 3443 6c3e
000003a0: 9324 f3bd e88a 6f3e 349a e2bc 5581 70bd
000003b0: 5134 543c 54fa 063c 37d5 543e 3511 103d
000003c0: fcaf 81bd a635 a7bc 3eeb 67bd 09f0 d5bc
000003d0: 7997 8ebd d3d4 bb3c ba7e f6bd 7861 6cbd
000003e0: 19d3 bfbd a86e 833e ecb0 86bd 4a6d 403e
000003f0: 5391 9abd e712 a6bd d7a0 74bc ef3c 8a3e
0.22644998 -0.0012108264 -0.06190653 -0.031958435 0.24155627 -0.1029708 -0.0023003542 0.13807431
0.22568935 -0.010998586 0.2237534 0.20793001 -0.0683994 0.15367743 -0.04175168 -0.06666358
-0.041345768 0.0277824 -0.05452413 -0.06599811 -0.01110816 -0.055594318 0.036861774 -0.09442454
-0.05060586 0.16109785 -0.0042258617 -0.0059470516 -0.101515755 -0.021337911 0.02601171 0.26002523
-0.041088827 -0.0057311794 -0.10718414 -0.0055274903 0.20222828 0.016292343 -0.00916131 -0.020311357
0.20585561 -0.011817124 0.080269285 0.22836895 0.047910225 0.22673365 -0.035371404 -0.06301337
-0.03160274 -0.058632303 -0.05166763 -0.07520886 -0.028654413 -0.11787755 0.006852374 0.2114983
0.18550897 -0.035792734 -0.03862329 -0.006996144 -0.04318578 -0.0528493 -0.111970656 0.2201765
-0.058201566 -0.083390564 0.22483875 -0.0515193 0.0054802 -0.011111254 -0.06834869 0.15241303
0.17081694 0.07957089 0.22648153 -0.043759104 -0.04629097 -0.06288837 0.21443088 0.14795507
0.019085476 -0.050860137 0.18144324 -0.09327201 -0.068063796 -0.12652883 -0.015604928 -0.05197594
0.19235611 -0.056054424 0.0056453776 -0.010360126 -0.03063807 0.27830967 -0.03323708 -0.03914135
-0.064568885 0.0011309272 0.16474676 -0.044652686 -0.0046300148 -0.083044544 0.27265227 -0.001969033
-0.017500456 0.27563518 0.23446682 0.020101499 0.23929793 0.12885596 0.06431543 0.12836906
-0.051360104 0.050217565 -0.003958456 0.028385976 0.19268058 0.017389804 -0.08055583 0.26616883
-0.051231064 -0.046276085 -0.10440765 0.0063495864 0.22482833 -0.057737194 -0.053585045 -0.061080713
-0.10344342 0.019643823 -0.05507205 -0.031754743 -0.036358528 -0.040034495 0.26134974 -0.059945308
-0.07441765 0.27388498 0.0026508772 0.26111454 0.21875076 0.16208832 -0.027413586 -0.053823672
-0.045721944 -0.0081361495 -0.015388974 0.027000975 0.18404487 -0.08835428 0.23203228 -0.081227235
0.17991522 0.20013528 0.076981366 0.24333127 -0.009792589 -0.032482482 -0.0021061613 0.16807938
0.010925206 0.005490646 -0.036587037 -0.050930273 -0.13344136 -0.06963717 -0.06740298 0.20895973
0.21912634 0.035384655 -0.0062424554 -0.021668557 -0.09342237 0.012540019 -0.015287773 -0.01135584
-0.057391133 0.0021231696 0.017736103 0.34201244 -0.00397083 -0.010535264 0.22928758 0.009033668
0.21944287 -0.018825227 0.010955408 0.027429992 -0.03611054 0.0037680536 0.2149369 0.22406551
-0.10420901 -0.10054591 0.02754078 -0.05685748 -0.034100026 0.10445567 -0.0889151 0.02232727
-0.089392036 0.036116146 0.19978459 -0.019876208 0.04500607 0.074444145 0.20815213 -0.065312915
0.16834661 -0.017664863 0.026587563 -0.058749035 0.11025518 -0.0661059 0.06494355 -0.055071864
0.008319856 0.29525742 0.31549957 -0.0012351644 -0.0694142 -0.022410665 -0.049409237 0.2084274
-0.06388259 0.24951428 -0.040794313 0.011904864 -0.013978106 -0.048848197 -0.012070924 0.23072511
-0.1187221 0.23392832 -0.02766142 -0.05871709 0.012951926 0.008238394 0.2078446 0.03517266
-0.063323945 -0.020411324 -0.05662083 -0.026115434 -0.06962485 0.022928631 -0.1203589 -0.05771014
-0.093664356 0.25670362 -0.06576714 0.1879169 -0.0754725 -0.08109074 -0.014930925 0.26999614

net.4.weight f4 [1, 256]
00000000: a1ff 0f3d cc9e 2ebd 4e3b 95bd 154e d5bd
00000010: d9c7 fa3d 26ab 59bd 776c 13bb 4c39 183e
00000020: 05cb 9b3d d5f0 2dbd 551b 8a3d ff4a bc3d
00000030: 8a5f 67bd 4337 773d 9cc9 86bc 4bb2 44bd
00000040: 3697 a9bd c791 a2bd e27c 9538 d31b 86bd
00000050: 5db8 75bd 968b b9bd 0f8f 9bbd 9201 48bd
00000060: 6ab3 3cbd d0a2 5d3d c0b2 0d3c f40e 8abd
00000070: ccb8 80bd 65e2 4ebd a447 233d 5613 5b3d
00000080: 50ba b8bd 2e9f 34bd ce3d 37bd 5f0a e53c
00000090: efbb 703d de33 00bd 3813 213d ba26 9bbd
000000a0: 46f2 ad3d 224b a0bd fbb1 ba3c b044 8b3d
000000b0: ef9e df3c d1f6 1a3d a8ec 73bd 7ca1 a33c
000000c0: e8d2 89bd d506 95bd 417f 5cbd f730 56bd
000000d0: dc71 1abd e377 22bd 4ff1 5cbd ea75 6b3d
000000e0: b199 683d 0982 51bd 73b4 a3bd d8a3 77bd
000000f0: f01c 52bd edde ab3c 9f33 50bd 9278 a53d
00000100: 5442 a5bd 26d6 56bd ff0d df3d 7dc9 c8bd
00000110: 6959 36bd f676 293c c620 26bd c8bd 313d
00000120: ec92 bd3d b751 763b 9dc9 4a3d 5c5c da3c
00000130: 2ed3 82bd b4d5 afbd 9024 f53c b654 203c
00000140: c5e6 be3c 5458 a8bd 9b68 4f3d acec 9ebd
00000150: 1c83 8abd a7c9 1abd 858b b63c 9dd4 84bd
00000160: 1013 e73d 2204 5bbd 67a2 08bd b904 81bd
00000170: fb6b 19bd 3db2 6f3d 0b2f c8bd 9d39 8abd
00000180: b63c 263d c490 9abd edd0 183e 37c4 06bd
00000190: a78e 59bd 0d5f 4ebd abb7 fb3d 0d87 46bd
000001a0: 7e04 80bd ebcc ed3d 6a3f 943d 7527 0fbd
000001b0: 14a8 9e3d 9639 903d 5d92 b5ba 9acf 6d3d
000001c0: 331f 0ebd 5291 f7bd da86 22bd 07e3 91bd
000001d0: 3b9a f23c 4d7a b7bd 21e7 60bd 2b54 873d
000001e0: 0621 f1bc 3afe d43c dae8 38bd 8a80 93bd
000001f0: fc98 f03d 8566 2cbd ef66 adbd 20ca 16bd
00000200: 5ba8 6cbd 2080 4bbd e35b 51bd 0b1b 0a3d
00000210: 856a 093c 7391 91bd d612 843d 7db3 0cbd
00000220: cb41 a7bd 748e e43d a9e8 8bbd a46b ee3d
00000230: e62e 973d 5628 c73d b219 6fbd 0302 82bd
00000240: d72e 60bd 84a3 8fbd 5879 bdbc 6fc3 083b
00000250: c286 093e aba8 04bd c4ee bf3d d989 85bd
00000260: 7efa a43d d113 483d c5a5 fe3c 9b73 c53d
00000270: c963 17bd 298b c43c 4ba4 b23c 6fa1 af3d
00000280: 4344 833c face 9cbd 2539 36bd 0f70 45bd
00000290: d629 17bd 5632 5bbd 5143 a9bd bbd8 823d
000002a0: a638 f03d 34cf 863b e2e6 18bd 5821 4dbd
000002b0: 0510 aabd 186d 90bd 7556 74bd 6f1a 84bd
000002c0: d221 61bd e564 90bd 955a 32bc ee03 0f3e
000002d0: f295 92bd 89e8 b0bd 8499 433d 8dbd bfbc
000002e0: 6538 923d 23fb aebd 2732 81bd 0cd4 563c
000002f0: 3df2 29bd 9b4c 95bd f823 743d 4510 913d
00000300: 83dc eebc 8a02 84bd 1801 ebbc ff31 3bbd
00000310: 762b 6cbd 84aa f93d 60f7 0cbd 2dc3 89bd
00000320: 7fa4 fcbc 0316 013d fae2 823d 5c41 96bd
00000330: 4cc0 a83c 85ed 603c 899b 433d df5d 253b
00000340: e46a 873d 89f7 37bd d3d6 90bd ce09 acbd
00000350: 904a a43c 3dfc b2bd af8f 163e 9994 d23c
00000360: 363a 15bd 864c ed3d f416 c43d ce61 c8bd
00000370: 2e85 93bd fd19 00bd f9f8 543d 7550 093e
00000380: 8e57 c6bc a620 a43d 01eb 52bd 01b6 58bd
00000390: d2fa 43bd 325e a33c cbec adbd b551 513d
000003a0: 947e 4bbd 4206 843d 0a2c 9cbd 6750 46bd
000003b0: 70e2 17bd da7c ebbc 7f31 b33d a1d9 403c
000003c0: 3668 a0bd 552d b7bd cfad 3abd 973e a3bd
000003d0: 3981 05bd d811 a5bd 3b54 5cbd af21 653d
000003e0: 46a0 18bd 22a8 953d 58bc 11bd ab68 443d
000003f0: 3ce5 17bd f7b0 88bd 141f 4bbd ecdb 353d
0.035155896 -0.04263191 -0.07286702 -0.104152836 0.12245149 -0.053141735 -0.002249507 0.14865607
0.07607082 -0.042466003 0.067434944 0.09193992 -0.056487598 0.060355436 -0.016453557 -0.048021596
-0.08280794 -0.07937961 7.128135e-05 -0.06548276 -0.059990276 -0.09059827 -0.07595646 -0.048829623
-0.04606954 0.05411035 0.008648574 -0.06741133 -0.06285247 -0.050508875 0.039863244 0.053485237
-0.09019911 -0.044097118 -0.044736676 0.027959047 0.058772977 -0.031299464 0.03932497 -0.07575746
0.084934756 -0.078268304 0.022789946 0.068002105 0.027297465 0.03783304 -0.059551865 0.019974463
-0.0672968 -0.07276694 -0.053832296 -0.05229279 -0.03770624 -0.039665114 -0.053941067 0.0574855
0.056787197 -0.0511494 -0.07993402 -0.060458988 -0.05129713 0.020980323 -0.05083048 0.080796376
-0.08069292 -0.05245032 0.108913414 -0.09804056 -0.044518862 0.010343304 -0.0405586 0.04339388
0.09256539 0.0037585327 0.04950868 0.026655369 -0.063879356 -0.085856825 0.02992466 0.009785822
0.023303399 -0.08219972 0.05063687 -0.07759985 -0.067632884 -0.037789967 0.022283325 -0.06485865
0.11282933 -0.05347074 -0.033358004 -0.06299729 -0.037456494 0.05851959 -0.09774598 -0.0674927
0.040585242 -0.07547143 0.14923449 -0.03290197 -0.05311456 -0.050383616 0.12290891 -0.04846864
-0.06250857 0.116113506 0.07238658 -0.03494974 0.07746902 0.07042234 -0.0013852824 0.058059312
-0.034697723 -0.120882645 -0.039679386 -0.0712338 0.029614558 -0.08958874 -0.05490792 0.06607851
-0.029434692 0.02600013 -0.04514394 -0.07202251 0.117479295 -0.042089958 -0.08466899 -0.036813855
-0.057777744 -0.049682736 -0.05111302 0.033717196 0.008387213 -0.0710782 0.06448905 -0.03435086
-0.08166846 0.11159983 -0.06831486 0.116416246 0.07381992 0.0972449 -0.058374114 -0.0634804
-0.05473217 -0.0701361 -0.02312915 0.002086844 0.13430312 -0.032387417 0.09371713 -0.06520433
0.0805559 0.048847023 0.031084904 0.096411906 -0.036960397 0.023992138 0.021806857 0.08575713
0.01602376 -0.07656665 -0.04448809 -0.04820257 -0.036905132 -0.0535148 -0.08264793 0.06388994
0.11729555 0.004114056 -0.037329562 -0.050080627 -0.08303837 -0.07052058 -0.059652764 -0.06450354
-0.054963894 -0.07050494 -0.010885854 0.13966343 -0.07157506 -0.086381026 0.047753826 -0.023405815
0.07139663 -0.08543994 -0.06308394 0.013112079 -0.041490782 -0.07290002 0.059604615 0.07083181
-0.029157883 -0.06445797 -0.028687045 -0.045701977 -0.057658635 0.121907264 -0.034415603 -0.0672668
-0.030840157 0.031515133 0.063909486 -0.07336685 0.020599507 0.013728504 0.04775575 0.0025232953
0.06612185 -0.044913802 -0.070722245 -0.084003076 0.020055085 -0.08739517 0.14703248 0.025705623
-0.036432467 0.11586861 0.095746905 -0.0978428 -0.072031364 -0.031274784 0.05199525 0.13409598
-0.024211671 0.0801404 -0.05149365 -0.052907947 -0.047846623 0.019942377 -0.0849243 0.051103313
-0.04968126 0.06446506 -0.07625587 -0.04841652 -0.037081182 -0.028746057 0.08749675 0.011770637
-0.07832377 -0.08944193 -0.045575913 -0.079709224 -0.03259394 -0.08060044 -0.053791266 0.055940326
-0.037262224 0.073074594 -0.03558001 0.04795138 -0.03708385 -0.06674378 -0.049590185 0.044399187
