checkpoint/final/agent_1_value.pth (torch, 318621 bytes, 5 tensors)

net.0.weight f4 [256, 49]
00000000: 17ed d9bc e8df 7fbc ff66 0b3e d9f1 f83d
00000010: 6be5 0c3e 48fd 6a3e fadc fc3a b764 a33d
00000020: e3bb 94bb 8086 563e 17e4 ca3d cb62 ae3d
00000030: e53b 073e c1b6 a33c f094 01bd 2d9c 28be
00000040: ae44 f43c 8b75 32ba 9fe6 873b aea9 973d
00000050: e9e9 013e 7311 253e 845d 273e 51b5 103e
00000060: 95cf dcbb bc7e a33d 9c27 c7bd 107b 903d
00000070: 0820 d0bd 4492 ccbd c664 033e c4b2 43bd
00000080: b2dd 3ebd cd35 1fbe 6642 f7bd c36a 16be
00000090: 4729 0ebe dd42 7bbe 7d67 1cbe 47f0 10be
000000a0: 8626 2abd 24ee a23d 42a6 c93d eec6 17bd
000000b0: a4d8 9cbd a5d4 fabd dbc1 dfbc 6290 0abe
000000c0: 2c2d 1ebe 6d6b dbbd 7125 893a eb96 e1bc
000000d0: fc52 753c 929f 2d3d 73c5 5abe 2af2 12bc
000000e0: 126d 94bd 397d d83c 1eae 2fbe 81af c33d
000000f0: a610 b73d fe2e 91bd af81 67be 2e7b 973d
00000100: c13a be3d 8dc6 42bc 9d38 adbd f542 8fbc
00000110: 80fc dfbc 569c 85bd c1ac b2bd 1e9a b83d
00000120: edb1 9fbd 2607 743d 6a86 cfbd 44ef 993d
00000130: 892e f3bd 3fa7 d83d eb56 83bd 9c7b 203d
00000140: 6d22 993d b35c 013e 29ef 8abb 561c 023d
00000150: 1696 01bd aaaf a3bc 2504 1cbe 9b89 e13d
00000160: bac7 a03d f4c0 573d 541e d93d 5345 243e
00000170: a0f6 513e d447 143e ff14 aebd 2f74 373e
00000180: 0ad6 57bc 88ae dfbd 00b2 e73d 1442 2b3c
00000190: 1ad4 6dbd a916 58be bc9c 433e 15b4 0bbe
000001a0: 1042 26be 96f6 67bb 7363 2e3e ed5a 6bbd
000001b0: e5b1 0a3d 73c0 413e e23b b03d 3520 07be
000001c0: 763c aebd 0a13 363d b779 c73d e3a2 95bd
000001d0: a848 cebd b7ae e6bd 9d3d fc3d ece5 9fbd
000001e0: 5977 413d ed90 1a3c 8c8b 913c fad3 b2bd
000001f0: c94f 8d3c 50e1 d83d 335d adbd 2b82 2fbd
00000200: b041 163d 4687 acbd 8347 e03d aa25 61bc
00000210: 9d87 e3bc c051 5cbd 0903 503d f947 c1bd
00000220: 31eb be3d a996 86bc 0fc9 b6bd 6229 cabd
00000230: b3f5 073e 5a1b f13c f034 3b3c c63c e8bb
00000240: ee65 523d 4249 a6bd c8bb 36bd 2918 f7bd
00000250: ef03 8fbc 4dc8 333c 5207 cfbd 7483 4f3d
00000260: 2413 04be 2add 9ebd 8c67 1c3d 24c3 563d
00000270: 4462 89bd 93b5 963d 160a 603d e20f 07bd
00000280: 3bd1 20be b643 a43d 274a 0a3e 486d 323e
00000290: 8624 56be 2320 02be 9e83 2e3e c6fd 7d3e
000002a0: 7e6b 40be 00d8 64bd 53bf 603d 43ba c23d
000002b0: 10c7 aa3b ff80 a23d a9ed e7bc 4d2d e13d
000002c0: 7c72 39be 5788 d53d 2366 42bd 6759 debd
000002d0: 4098 bdbc d8a3 d93d e06a ccbc 6199 613d
000002e0: e441 33be 2d90 873d d751 b63d 0787 fc3d
000002f0: db21 c83d 81a6 a23b 11a2 7f3d 6f65 943d
00000300: f5bc 38be f5e6 7dbc c0f7 3f3d ba8f a5bd
00000310: f710 343c 3f00 9abd bd4d 93b6 2fd5 92bc
00000320: 3708 d13c 5884 a13d 6ee5 423e 12b6 56be
00000330: ce3d 0dbe 23e6 91be 582b 34be 8a89 a63b
00000340: 2c50 0b3e be0b 723e dba9 d63d a572 8abc
00000350: 2d6f e9bc 3afc 2f3e 2341 35bd 0a48 4e3d
00000360: f6c3 92bd 7f25 6abc 64d7 4a3d 2925 513c
00000370: ac27 52bd 42d3 103e 7513 a1bd 502c 04be
00000380: d191 f73d 9422 253d fca3 cdbd c258 2c3d
00000390: 0013 b23c 04d1 7c3d c035 14be ff9d 1cbe
000003a0: 0c43 963d 0798 823d 7a20 9abd 76de a8bb
000003b0: e1f0 a9bd 925b 4b3c 216a e63c c081 103d
000003c0: 70ca 1e3e 5a34 15be 8514 d2bd 1445 0c3e
000003d0: ed7c e93d 2285 1abd e415 ca3d 6522 07be
000003e0: 22a8 59be 93eb 5e3d 5f8b 21bd 345b ea3d
000003f0: f751 edbd 1755 3cbe aba9 813c 8f78 203d
-0.026602311 -0.015617348 0.13613509 0.12155504 0.13759391 0.22948182 0.001929193 0.07978194
-0.0045389994 0.20949745 0.09906786 0.08514937 0.13206442 0.019984605 -0.03163618 -0.16465826
0.029817905 -0.00068076764 0.004147365 0.07405411 0.12686886 0.16119938 0.16344267 0.14131667
-0.006738613 0.07983157 -0.09724352 0.07054722 -0.101623595 -0.099888355 0.12831411 -0.047777906
-0.046598144 -0.15547867 -0.12073211 -0.14689164 -0.13882934 -0.24537225 -0.15273853 -0.14154159
-0.041540645 0.07955578 0.09846164 -0.03705495 -0.076585084 -0.1224759 -0.027314117 -0.1353164
-0.15446919 -0.10713849 0.0010463429 -0.027537784 0.014973398 0.042388506 -0.21364383 -0.008968869
-0.07247366 0.026426898 -0.17156264 0.09554959 0.08938722 -0.07089041 -0.22608064 0.073965415
0.0928855 -0.0118881585 -0.08458064 -0.017487982 -0.027342081 -0.06523959 -0.087243564 0.090137705
-0.077976085 0.05957713 -0.10133059 0.075163394 -0.1187411 0.10578775 -0.06413063 0.039180383
0.07477269 0.12633018 -0.004239936 0.031765305 -0.031637274 -0.019981224 -0.15235956 0.11012574
0.07850595 0.05267425 0.10601488 0.1604207 0.20504236 0.14480525 -0.085000984 0.17915414
-0.0131735895 -0.10921961 0.11313248 0.010452766 -0.058063604 -0.21102394 0.19102758 -0.13642915
-0.16236138 -0.003539478 0.17030124 -0.05745976 0.03386106 0.1892107 0.08605172 -0.1319588
-0.08507626 0.04445175 0.09740012 -0.07306459 -0.10072452 -0.11263793 0.12316439 -0.07807526
0.04723296 0.009433967 0.017766736 -0.087318376 0.017249959 0.1058985 -0.08465042 -0.042848747
0.03668374 -0.08424239 0.1095114 -0.01374189 -0.027774626 -0.0537889 0.050784145 -0.09437556
0.09322203 -0.016429262 -0.08925068 -0.098711744 0.1327732 0.029431988 0.0114261955 -0.007087323
0.05136674 -0.081194416 -0.044612676 -0.12065155 -0.01745793 0.010973048 -0.10108818 0.050662473
-0.12897927 -0.077570274 0.038184687 0.052432194 -0.06708196 0.07358851 0.05469712 -0.03297413
-0.15704815 0.08020727 0.1350485 0.174245 -0.2091237 -0.12707572 0.17042395 0.24803838
-0.18791005 -0.055870056 0.05486996 0.09508183 0.0052117184 0.0793476 -0.028311567 0.109949686
-0.18110079 0.104263954 -0.047460686 -0.10856896 -0.023143888 0.10626954 -0.024953306 0.055077914
-0.17505604 0.06619296 0.089023285 0.12330442 0.097720824 0.0049636965 0.062410418 0.072459094
-0.18040831 -0.015496959 0.046867132 -0.08084054 0.010990373 -0.07519578 -4.3899913e-06 -0.01792392
0.025516612 0.07886571 0.19032833 -0.20967892 -0.13793108 -0.28495893 -0.1759466 0.005082314
0.13604802 0.23637292 0.10481616 -0.01690037 -0.028495396 0.1718606 -0.044251572 0.05036167
-0.07166283 -0.014291166 0.04952182 0.012765207 -0.051307365 0.14143088 -0.07865039 -0.12907529
0.12088359 0.04031618 -0.10041043 0.042076834 0.021737576 0.06172277 -0.14473629 -0.15294646
0.07337007 0.06376653 -0.07525726 -0.0051534725 -0.08297897 0.012411969 0.028126778 0.03527999
0.15506911 -0.14570752 -0.1025782 0.13698226 0.11400781 -0.03772462 0.098674566 -0.13196714
-0.21255544 0.05442388 -0.039439555 0.11443177 -0.11587899 -0.18391834 0.015827974 0.039177474

net.0.bias f4 [256]
00000000: e1bc 343d 75c7 28bd 17f5 f53b 018b 43bd
00000010: 5560 bb3e cc07 d5bd 11eb a3bd 8a4e 38bd
00000020: 2efa 1b3e c154 923e 7d0f 7b3d 9e26 36b9
00000030: d072 923e cdda 983d dbbd 4fbd 0fde e33b
00000040: 859b 843e f05d 863e 3846 e4bd af92 393e
00000050: 73e8 923e fd9e ebbd a564 04be d4d1 4f3e
00000060: 9ff6 da3c b222 c83e c26d 543e a7d5 343e
00000070: e4a3 8cbd 5274 633e ae54 b53e 6f49 7bbd
00000080: 25d4 163d 09da 32bb d338 0cbd 11ec 79bc
00000090: 2b6b 45bd a0d0 ce3d e5a4 943e ab54 963e
000000a0: cbf2 a03e 2b67 44bd 98b5 b3bd 6dda c73c
000000b0: faf9 5c3d 0c63 46bb b03b bc3b 271d 953e
000000c0: badc 8bbc 3211 f8bb 6eff ef3d 8069 253c
000000d0: a361 40bd c4a2 b33e 9913 45bd 349f 25bd
000000e0: 1616 a53e 54a8 1c3e a320 2d3c a560 b83c
000000f0: 89be 50bd b0a4 bfbd d84b c2bd d9bc fdbd
00000100: 48c7 21be 4438 8c3e ba7f ed3c 9a91 08be
00000110: 1295 e03b 3e9f ba3e 983f f93d 0306 8b3e
00000120: a848 a53e 1981 ac3c 369d ed3a 2b12 1d3e
00000130: 3ffe a63d f2a2 ad3e bb3f 763e c2a6 d6bb
00000140: 790f c43c 66c0 0b3d b699 9b3e fbad 39be
00000150: b13f 383e 024a cd3c 0ce4 593e 2a92 4abd
00000160: 4cbf 01be de2c 923e a3e8 f53d 163e 65bd
00000170: ab92 ae3d f5e0 23be 9a08 cebd a121 f1bc
00000180: 21d9 c3bb 95ae 0f3e 68ab 043e bbab 3e3e
00000190: 9b3e af3d 042c 2f3e b8c8 c6bc e46e 18bd
000001a0: c3af b53d 72d5 7a3e eac6 a93e afac a03c
000001b0: 458a 2ebe 308e 303e 09fc 813d fb15 cabc
000001c0: 1439 9fbd d31e 04bd 835d bfbd f95e 4cbc
000001d0: 00d0 c7bc 7310 27bd 12cb a4bd 68e5 483e
000001e0: 91b1 073e da61 25bd 9d44 11be 2163 ce3d
000001f0: be86 833d e206 1abd df6e 573e ca01 bbbb
00000200: 1dc9 b93c dc3b db3d e751 053c 3dae 16be
00000210: 6b68 04bb 2cd2 8fbd fdea b4bd 54f8 413e
00000220: 78e9 133e 34ab 49bd bc75 653d 81cf b63c
00000230: 31ea 0abd 7e2a 8bbd 2953 c33d d14b 3b3d
00000240: 4d66 d9bd a4b3 a0bd d7b4 7cbd 5ab3 a03d
00000250: 6af0 24be 0c08 2f3e 6ac9 1b3e f85a b53e
00000260: 2f5c 473e 25df 973d 6395 ab3e 5bd9 58bd
00000270: 43e6 4f3e 72d5 ae3d a222 cb3d 880e dcbc
00000280: 466b 883e 1679 803e 9c65 2cbe 73c8 b03c
00000290: 9d30 743e 73c3 c4bd 2bdf 73bc 7001 55bd
000002a0: b685 0d3e 6db8 adbd e04f d03c ccb1 683d
000002b0: 149a 333d 267f 103e 92d2 a0bd c2c2 163d
000002c0: f02d edbc cadb 1ebe 68d8 ae3e 2471 773e
000002d0: 312b 06be b3da 99bd 6fae b9bc 322c 4abe
000002e0: 41ca b63e 7b43 0d3e 3ca5 ac3c 6e0b e7bc
000002f0: a250 b13d 19ca 4b3e 54fc c13d 6b37 b5b9
00000300: ef1f 643c 72e3 7d3e eefd fcbd 0107 f13d
00000310: 73d8 4b3e b229 833e d548 d5bc a929 27bd
00000320: a41f e63d 739e 05bb 9988 833e e03f e63d
00000330: 2126 b63c 5eb6 97bd dddd a33e 6ed0 d6b9
00000340: 8889 b0bd 6672 b23e dcbc 063e 2813 62bd
00000350: 90e5 383c 68b0 8e3b a639 823e 66f9 303d
00000360: 511b a2bd e437 183e ca60 36bb eb29 133e
00000370: 47fb a03e 0eed 993e 20e1 a83e f945 2e3e
00000380: 0c4c bfbd c959 5e3e 5385 81bd bb4e 903e
00000390: ea41 c8bd 40c7 7d3e 7489 1d3c 77b4 d1bd
000003a0: b71a 033e f671 e63d 1ed7 a23b 9337 913c
000003b0: e99a 943e 8dec 83bb 8e56 c33e bf33 053c
000003c0: b52c 473e ae28 1abd be91 8c3e 6157 02be
000003d0: ec14 08be dff0 993c a398 983e 6960 0b3e
000003e0: 92ff b23c 75a7 4d3d 945b 0bbe 7d00 5c3e
000003f0: cd02 443e 7a75 4e3e f73b a7bd bd59 c83d
0.04412544 -0.041205842 0.0075060236 -0.047739986 0.36596933 -0.10401878 -0.0800382 -0.044996776
0.15232155 0.28580287 0.061294068 -0.00017371259 0.2860322 0.07463608 -0.05071817 0.0069539617
0.25899902 0.26243544 -0.11146206 0.18122362 0.2869297 -0.11504934 -0.12929018 0.20294887
0.026728926 0.3908897 0.20744994 0.17659627 -0.06867197 0.22212341 0.35416168 -0.06134933
0.03682341 -0.0027290604 -0.03423388 -0.0152540365 -0.048197906 0.10098386 0.29032055 0.29361472
0.31435236 -0.04794995 -0.08774871 0.024396146 0.053949334 -0.003027144 0.00574442 0.29123804
-0.017073024 -0.007570409 0.11718641 0.010095954 -0.046968114 0.35085118 -0.048114393 -0.04043503
0.32243413 0.15298587 0.010566863 0.022507021 -0.05096296 -0.093575835 -0.09487122 -0.123895355
-0.15798676 0.27386677 0.028991569 -0.13336793 0.006853708 0.36449617 0.12170333 0.27153024
0.32281995 0.021057652 0.0018128518 0.15338962 0.08153962 0.3391338 0.24047749 -0.006550641
0.02393316 0.034119032 0.3039071 -0.18132775 0.17993046 0.025059704 0.21278399 -0.0494558
-0.1267063 0.28549856 0.120072626 -0.055967413 0.085240684 -0.16003783 -0.10060234 -0.02943498
-0.0059768115 0.14031442 0.12956011 0.18620197 0.08556863 0.17106634 -0.024265632 -0.03721513
0.088714145 0.24495485 0.33159572 0.019613592 -0.17044933 0.1724174 0.063469 -0.024668684
-0.07774559 -0.03225596 -0.09344008 -0.012473815 -0.024391174 -0.04078717 -0.08046545 0.19618762
0.1325133 -0.04037652 -0.1418633 0.10077501 0.064221844 -0.03760422 0.21038388 -0.0057070004
0.022678906 0.10704777 0.008137203 -0.14714904 -0.002020384 -0.07022509 -0.08833883 0.18942386
0.1444453 -0.049235538 0.056020483 0.022315742 -0.03391475 -0.06795214 0.09537346 0.0457266
-0.106152155 -0.07846764 -0.0616959 0.078467086 -0.16107336 0.17092913 0.15213552 0.35420966
0.19468759 0.07415608 0.3351241 -0.05294166 0.20302682 0.08536805 0.09918715 -0.026862398
0.26644343 0.2509238 -0.16835636 0.021579957 0.2384667 -0.096075915 -0.01488475 -0.052003324
0.13820538 -0.08482442 0.025428712 0.056810185 0.043848112 0.14111003 -0.07852663 0.03680683
-0.028952569 -0.1551353 0.3414948 0.24164253 -0.13102414 -0.07512417 -0.022666184 -0.19743422
0.35701182 0.13795273 0.021074884 -0.028203692 0.086579576 0.19901313 0.09471956 -0.000345643
0.013923629 0.24793795 -0.12353121 0.11768914 0.19906788 0.25617748 -0.026035706 -0.040811215
0.11236504 -0.0020388633 0.25690153 0.11242652 0.022234978 -0.07407831 0.32005206 -0.00040972553
-0.08619982 0.34852904 0.13157982 -0.05519405 0.011285201 0.0043545254 0.25434607 0.043206595
-0.079153664 0.1486507 -0.0027828687 0.14371459 0.3144171 0.3006367 0.32984257 0.1701888
-0.09340677 0.21713938 -0.06324258 0.28185067 -0.09778197 0.24783039 0.009615291 -0.10239499
0.1280316 0.11252205 0.0049694916 0.017726695 0.29024437 -0.004026002 0.38151973 0.008130013
0.19450648 -0.03763645 0.27454942 -0.12728645 -0.13289231 0.018791614 0.29803953 0.13610996
0.021850381 0.050208528 -0.13609153 0.21484561 0.19141693 0.20162001 -0.08165734 0.09782741

net.2.weight f4 [256, 256]
00000000: 79f2 a0bd a760 9abc da39 9c3d 6e96 053c
00000010: 58e3 b7bd 1205 383c d470 debc daa0 613d
00000020: d064 94bd 6e8a 5bbc 80e1 37bc 8b3d 483d
00000030: 479e fabc 7c24 623a d688 883b ad72 483d
00000040: 9b47 28bd c0d0 48bd 39cf c33d a476 d2bd
00000050: 102e 85bc 0018 733b 27c2 343d f603 2e3c
00000060: 1363 6b3d fe40 6c3c 3221 1fba 1fc7 743c
00000070: 30f3 a23c b98a 213d 16c5 eabd 3f13 44bc
00000080: f9e1 e6bd 9141 553d 8c24 6dbc 7282 b73c
00000090: 591c bb3c daec b7bd 41ed 1cbe 63b9 0ebd
000000a0: ba1f 09bd 3776 b73c d3e1 9c3d a285 143d
000000b0: af94 61bd 9883 af3d f4e2 95bd 586b 343c
000000c0: a696 d63a 16a3 39bd 0054 10bd c230 613d
000000d0: c287 913d 8960 07bd 32d1 013c 1247 683d
000000e0: 0aef 97bd 19ec 54bd 36b4 773d bc95 8abd
000000f0: c895 303c 897a 6fbb 240c 483c ef23 3c3d
00000100: ac5e 963d 6ded e63c 232e 8ebd bc0a ff3c
00000110: dd29 1e3d b57e 46bc 2d69 4cbd 177a b13c
00000120: ddf3 11be a328 983d 2d74 ca3c 5113 8cbd
00000130: cc78 5fbc ee3f e1bb ad36 03bd 98c5 d9bb
00000140: c45d ca3d ae48 cf3d 72b5 2a3c 5df8 6b3d
00000150: fa87 943d da6e a0bc cc51 91bd a51f 1f3c
00000160: 634e a23c 32c5 8bbd 5da7 853d 609b 76bc
00000170: e7f5 61bc 9a26 22bd b53f d53d fc4d 07bc
00000180: baa0 16bd 5adf 4cbd 0ea4 2fbc bb40 e9ba
00000190: e7f9 8c3d 82f4 eb3c 1219 933d 8a20 013e
000001a0: c317 fd3c 849f fcbc 866e 8dbd 2b5e 20bc
000001b0: 0f19 2ebb 6832 ae3b 706c 10bd ebba b03d
000001c0: a8c1 353c 2ed6 6a3d a2d9 803d e1a1 1a3a
000001d0: c171 de3d 0fea b1bb 6879 583d 331c 83bd
000001e0: 0cc1 e4bd 3d2a 88bd c9bf 03bd b28a f8b9
000001f0: cadd d33c bbe3 a53c 52d2 6b3b 43b7 693a
00000200: be93 313d ac87 78bc c106 d93c 0451 50bd
00000210: d74d d23c 251b a13b 33d3 bd3a 2d34 2abc
00000220: 640f 213d 6518 c8bc 2fa2 9abc b3a5 d6bc
00000230: e87a 823d 5e89 e73c eae7 13bb 8a03 013e
00000240: 9eee 3b3d 398b 9ebc 48fc 653c 715b e8bc
00000250: 2af9 983d f5e6 7a3c f6b4 95bc e37a a0bd
00000260: f681 ecbc c3c6 e33b e6ac e9bd b306 7a3c
00000270: b08c 4cbc 4d5c ffbc 3c8c e63c bb60 84bc
00000280: 66e9 31bd a7d5 853c 8913 de3c 0468 d13d
00000290: 9d57 78bc e141 be3d 285b 763c c266 053d
000002a0: c102 9bbd ea93 99ba f6c7 84bc 1b7a e8bc
000002b0: c7e0 8a3a 5c2c cdbb 25d7 033b 7b60 debc
000002c0: 7186 3cbd 2a03 883d 8abf 213d c1c4 fc3b
000002d0: 670e e2b9 f583 dfbd 4abd 6b3d 6977 963c
000002e0: cfdd ffbc d347 843d cf3d 093d 67cd 8dbb
000002f0: 3db0 93bc f89f 413d e59b 4a3d 7319 283d
00000300: a851 a4bc 15de 363d b88d af3d 5030 77bd
00000310: ea6e dfbb 754b 973d 8b5c 9dbc ced5 d73c
00000320: e9b1 38bc 8984 39bd a24f 1fbd 465e 40bb
00000330: cdd6 b7bd a90d bc3c d855 8fbd c69f e13d
00000340: f7b7 bd3d 3932 6b3c 6090 4ebc a77b 903d
00000350: 1690 b83d 7dfd d03c 7fb9 58bd 1be7 7b3d
00000360: 19e4 853d 62a6 533d 5ac7 513d 368d ebbd
00000370: a96b a6bd 6428 b23c 560f 23bd 1059 993c
00000380: 1437 853d c872 11bd 5398 d33c 90e3 42bd
00000390: d751 e7bd fb39 03be 040b 96bb cc8d b6bc
000003a0: be67 f83b 2eab 973d c2b3 9e39 1a07 51bd
000003b0: 4197 533d 8b06 943c a35f 0b3c 09b8 01be
000003c0: bf91 f5bc 2713 8ebc 7b66 f93c a2dd 103d
000003d0: dd80 13bd 8fd2 8c3d 4b5f a2bd 0ef0 9bbd
000003e0: e754 8a3c d16c 353d 522a febc 37e5 b23c
000003f0: c774 fdbd c17e cfbc 415e 4d3d e77c 3dbd
-0.07858748 -0.018844916 0.07628222 0.008153541 -0.08978909 0.011231678 -0.02715341 0.05508504
-0.07245791 -0.013399703 -0.011223197 0.048886817 -0.03059305 0.00086266524 0.0041667027 0.04893749
-0.041083913 -0.049027205 0.09561009 -0.10276535 -0.016257316 0.0037093163 0.04413047 0.010621062
0.05746753 0.014419792 -0.0006070315 0.014940052 0.019891351 0.039438937 -0.114633724 -0.011967479
-0.112735696 0.052064482 -0.0144740455 0.022401068 0.022840666 -0.08980723 -0.1532488 -0.034844767
-0.033477522 0.022395236 0.0766026 0.036260255 -0.055073436 0.085700214 -0.073186785 0.011011921
0.0016371801 -0.045321546 -0.03523636 0.05497814 0.07105972 -0.033051047 0.007923411 0.056708403
-0.0741864 -0.051982973 0.060474597 -0.06766841 0.010777898 -0.0036541543 0.012209926 0.045932706
0.07342276 0.028189385 -0.06942394 0.031133048 0.038614143 -0.01211517 -0.04990499 0.021664662
-0.14253183 0.07429626 0.0247136 -0.06839622 -0.01363964 -0.006874076 -0.032034565 -0.0066458695
0.098811656 0.101212844 0.0104192365 0.057609905 0.07252498 -0.019584108 -0.0709568 0.0097121345
0.019812768 -0.068247214 0.06526063 -0.015051693 -0.013791538 -0.039587595 0.10412542 -0.008258339
-0.036774375 -0.050017692 -0.010720266 -0.001779578 0.068836026 0.028803114 0.07182516 0.12610069
0.03089512 -0.030837782 -0.06905846 -0.009788076 -0.002656523 0.0053160675 -0.035259664 0.08629402
0.0110935345 0.057333164 0.0629151 0.00058987556 0.108615406 -0.0054295133 0.052850157 -0.06401863
-0.11169633 -0.06648681 -0.032165322 -0.00047405582 0.025862593 0.020250192 0.0035983515 0.0008915553
0.04335379 -0.015169065 0.026492478 -0.050858513 0.025671883 0.004916566 0.0014482498 -0.010388416
0.03932132 -0.024425695 -0.018876163 -0.026202058 0.06371099 0.028263744 -0.0022568651 0.12599006
0.04588186 -0.019353496 0.014037199 -0.028363915 0.07469399 0.0153138535 -0.018274765 -0.07835939
-0.028870564 0.0069511845 -0.11409931 0.015260386 -0.012484714 -0.031171942 0.02814304 -0.016159406
-0.043435477 0.016337229 0.027108924 0.102249175 -0.015157607 0.09289909 0.015036382 0.0325687
-0.07568885 -0.0011717055 -0.01620863 -0.028378537 0.0010595553 -0.0062613916 0.002011725 -0.027145615
-0.04602665 0.066412285 0.039489307 0.0077138846 -0.0004311681 -0.10913841 0.057553567 0.018367486
-0.031233696 0.06459012 0.03350621 -0.0043274644 -0.018028373 0.0472717 0.04946508 0.041039895
-0.020058468 0.044645388 0.085719526 -0.06034881 -0.006818642 0.07387439 -0.019209167 0.026347067
-0.011272886 -0.04529241 -0.038894303 -0.0029353066 -0.08976517 0.022955732 -0.06998795 0.110168025
0.09263604 0.014355236 -0.012607664 0.07054835 0.09011857 0.025511498 -0.052911278 0.061499696
0.06537647 0.051672347 0.051215507 -0.11501543 -0.08126003 0.021747775 -0.039809547 0.018719226
0.06504646 -0.035509855 0.02582947 -0.0475803 -0.112949066 -0.12815087 -0.00457895 -0.02228441
0.0075807264 0.07405697 0.00030270038 -0.051032163 0.05165792 0.018069526 0.008506688 -0.1266786
-0.029976724 -0.017343117 0.030444374 0.035367616 -0.036011565 0.06876098 -0.07928332 -0.07614146
0.016886188 0.04429323 -0.03102604 0.021837814 -0.12375789 -0.025328996 0.050138716 -0.046261694

net.2.bias f4 [256]
00000000: 5abd 123d 4e54 963e d457 9c3e b16c 81bd
00000010: c9c6 35bd 5009 f8bb afd3 86bd 98ec 3c3e
00000020: 9299 233a eb14 3f3a c427 52bc 56b2 9e3c
00000030: d54e 38bd d9bb 84bd 99d6 96bd 2063 44bd
00000040: 2770 ae3e a086 fbbc fb74 edbb b1f0 3bbd
00000050: 1707 623e d9f0 553e 7f8c 093d ae85 063c
00000060: ceb7 603d 8bc5 46bd cbb1 1ebd ff85 b2bd
00000070: cc04 8c3e 86f0 a4bd 4af6 b63a 8de7 383e
00000080: a9f1 643e 3b84 9fbc ac8e c13d b541 6dbd
00000090: 1dcf 3fbd 1fd8 7dbd 07a2 7b3e bedc 603e
000000a0: 16ee 62bd 012b e63b 8e55 b1bc b54e 263d
000000b0: 7c25 1fbd b7f6 a8bd fbdc d23d 5e70 763e
000000c0: e7bb f53c a6db a2bd 4d4d 36bc ea42 8b3e
000000d0: 5af8 973e 7ecf 643e 762d 943c a002 e5ba
000000e0: e26f a13c 53ab 87bd c501 07bd 265c 3d3e
000000f0: 8921 a63c adbd 9eb9 ce0b 903d c37c 3d3e
00000100: 6270 1d3e 3be5 2f3e 45bd 913e 49c9 393e
00000110: aeb0 373d c1dc a7bc c864 3c3e b3d7 763c
00000120: 8bdc f33d 1bf4 b1bb 1692 6a3d 5b0f 993e
00000130: 91c0 593c 7fb9 e9bc f157 32bd 5253 6cbc
00000140: 4a8e 87bd b8fd 6c3e 3288 8b3e 40cd 81bc
00000150: 5302 763e db77 3cbd 64f8 953c bc5a a3bd
00000160: 3122 0c3c 8a43 3bbd 10b0 cd3c 8d72 66bd
00000170: 626f 4c3e 9f83 253e 077f d23c 074b 2bbd
00000180: 200c 443b 997e 5d3e 2d8e 10bd f12a 6abc
00000190: 5cc4 ccbc ff93 433e 8e39 66bd 8633 febc
000001a0: 24f4 cdbd e7a9 e7bc 1eb8 903e 0859 afbd
000001b0: cd51 353d d3fb 21bd 34f6 7d3e 0d7a ad3c
000001c0: 795e 91bd 4118 3d3d 2418 723e 08a2 813e
000001d0: c291 28bd 97f9 883e 9efa 583c d727 84bd
000001e0: e4d7 3f3e 5f2f 95bc 9a80 883e 53a2 a1bd
000001f0: 7b8c d7bc e990 2fbd d444 02bc 85be 09bd
00000200: 37d4 263d 1ffe e6bc 1433 1c3e 5a0d 01bd
00000210: a38d 83bd 3dd3 663e a1e1 ac3c 676d cfbc
00000220: 1283 25bd 7ee7 a6bd b9d3 82bd d4dd 433c
00000230: c7c7 5bbd 2908 29bd f1bb a83e a600 953c
00000240: 2897 e4bd 53cf 153e 6bbb b73b c02c bbba
00000250: b44b 81bd 7e57 323d a409 8ebd 83de 293e
00000260: 003f 1ebd 7300 2abc e8cd 8ebc 5c19 533e
00000270: 83a4 c2bc 15d8 fabb 3cd3 313e 36af 3abd
00000280: d163 c0bc 2f29 9f3e 64c6 69bd 3ebb 8f3c
00000290: 095b 21bd e46d 543e 4984 edbc 86fc 43bc
000002a0: bcf6 bbbd 58c6 2c3e 22af 93bd 288e 4f3e
000002b0: e933 603e a45d 603d 8e63 74bd a26d 913e
000002c0: 0c2d a63a 6c7a 2fbd def5 2abd b2ba 77bd
000002d0: 4714 8abd 774e 553e e7cf 60bd c865 923b
000002e0: 7adb c8bd c99e 6f3e 66d1 983e f513 15bd
000002f0: 3f4a d1bc 5fc3 e83c eb36 553e 9bf8 503e
00000300: 0b27 633e 61b3 40bd 1f38 4fbd 63df 64bc
00000310: 80e3 e0bb dbaf a0bd a2c5 70bd 16c6 853e
00000320: c6a7 1c3d 929f 193c a300 f03c 1582 69bd
00000330: 2fde b23b 5c69 1dbd 0249 e5bc f43c 1a3d
00000340: 991a 743e 4bb9 093d feea 70bd a6a9 893e
00000350: 76c6 113c 4f3e d4bd f9f7 ef3c 3b31 01bd
00000360: c696 56bd 7ccc e2bc a456 653e b628 8cbd
00000370: eb6f 42bd f490 843e 52eb 8f3e 9836 fbbc
00000380: 85ca 97bd 4089 6d3e fc63 62bd ec96 c0bc
00000390: bdd9 4bbd 3048 5bbc d732 f63d 5830 bfbc
000003a0: c5a6 783e 6092 8fbd cf92 743c b3c7 c13d
000003b0: f209 933c be78 57bd 7c4a b63c 3d04 c53c
000003c0: cee3 8e3e d8e2 233e c19d 693e dd20 173d
000003d0: 4446 493e fa35 1b3d a89b 733e 6dae 863e
000003e0: be76 213d b172 a03d 77bb 7c3c 08a7 35bd
000003f0: 7685 c53d 5a70 c53c de35 a7bc 9fbc 2cbd
0.03582511 0.29361194 0.30535758 -0.06319559 -0.04437903 -0.0075694695 -0.06583344 0.18449628
0.00062408403 0.0007289189 -0.012826864 0.019372147 -0.044997055 -0.064811416 -0.0736515 -0.047946095
0.3406994 -0.030703843 -0.007246611 -0.045883838 0.22073017 0.20892657 0.033581253 0.008210583
0.05486279 -0.048528235 -0.038743775 -0.08716964 0.2734741 -0.08053689 0.0013958898 0.1805708
0.22357811 -0.019472232 0.094510406 -0.05792399 -0.046828378 -0.061973687 0.24573527 0.21959206
-0.055402838 0.0070241694 -0.021647241 0.040602405 -0.038854107 -0.08250182 0.10296055 0.24066302
0.029996825 -0.07952051 -0.011126828 0.2719949 0.29681665 0.22344777 0.018088084 -0.0017472096
0.01970667 -0.066244744 -0.032960672 0.18492183 0.020279663 -0.00030277428 0.070335016 0.18504624
0.15374902 0.17177288 0.28464714 0.1814319 0.04484623 -0.020491006 0.1839782 0.015066075
0.119072996 -0.005430711 0.057268225 0.29894528 0.01329054 -0.028530834 -0.0435409 -0.014424162
-0.06618936 0.23143661 0.27252346 -0.015844941 0.24024324 -0.04601274 0.018306918 -0.079762906
0.008553074 -0.045718707 0.025108367 -0.056261588 0.19964364 0.1616349 0.025695337 -0.0418196
0.0029914454 0.21630324 -0.03529184 -0.014292465 -0.024995975 0.19099425 -0.056207232 -0.031030428
-0.10056332 -0.028279258 0.2826547 -0.08561903 0.044267464 -0.0395468 0.2480095 0.021176362
-0.07098097 0.04616571 0.23642021 0.25318933 -0.04115463 0.26752922 0.013243346 -0.06452911
0.187347 -0.018211065 0.26660615 -0.07892289 -0.026312103 -0.042862806 -0.00795098 -0.03362896
0.040729728 -0.028197346 0.1525386 -0.031506874 -0.064234994 0.22541519 0.021103682 -0.025320722
-0.0404082 -0.081496224 -0.06388039 0.011954743 -0.05365732 -0.041267548 0.32955888 0.018188786
-0.11161643 0.14629869 0.0056070588 -0.0014280304 -0.06313267 0.04354047 -0.069354326 0.16588788
-0.0386343 -0.010376084 -0.017432168 0.20615143 -0.023760086 -0.0076551535 0.17365736 -0.04557725
-0.023485096 0.31086108 -0.057073966 0.017545339 -0.03939346 0.20745045 -0.028993743 -0.011962062
-0.0917792 0.16872537 -0.07211138 0.20269072 0.21894802 0.054776803 -0.059665255 0.28403956
0.001267822 -0.04284136 -0.041738383 -0.06048078 -0.06742149 0.20830713 -0.05488577 0.0044676997
-0.09807487 0.23400415 0.29847258 -0.036395986 -0.025548099 0.028413473 0.20821731 0.20407335
0.22182862 -0.04704607 -0.05059063 -0.013969275 -0.0068630576 -0.07846042 -0.058782227 0.2612769
0.03824594 0.009376423 0.029297179 -0.05700882 0.0054586153 -0.038430557 -0.027988914 0.037655786
0.23838271 0.033623975 -0.058817856 0.26887244 0.008897414 -0.10363447 0.029293047 -0.03154109
-0.052389883 -0.027685396 0.22396332 -0.068437025 -0.047470015 0.2589184 0.28109223 -0.03066568
-0.074116744 0.23196888 -0.055271134 -0.023509465 -0.0497682 -0.01338391 0.12021416 -0.023338482
0.24282368 -0.07010341 0.01492758 0.09461918 0.017949078 -0.052605383 0.022252314 0.024049873
0.27908176 0.16004503 0.22814085 0.036896575 0.1965571 0.037893273 0.23789847 0.2630495
0.039419882 0.07834376 0.0154255545 -0.044348747 0.09644596 0.024101425 -0.020411428 -0.04217207

net.4.weight f4 [1, 256]
00000000: b4e1 90bd 2648 5a3d 950b 963d 2d08 9b3c
00000010: ca71 87bd 2a99 bebd e3cb eebd 3a46 2e3e
00000020: 28f2 abbd 9618 7bbb af82 41bd 5ae2 5cbd
00000030: f192 583c c554 acbc 2acc 83bd 1f03 6bbd
00000040: 9105 e63d b25d fe3a edcc 9dbd f394 abbd
00000050: 60d5 773d f56c 823d 431c 8dbd 53a5 3d3d
00000060: 170c 8c3c 2317 88bd 8ece 34bd 2c01 42bd
00000070: 022a cf3d b4f9 3bbd ac11 4dbd 57cf 9f3d
00000080: 704c cc3d fa48 413d 96f2 a53c 1288 0ebd
00000090: ff40 b8bd 6a21 c9bd f44e d33d 7486 d43d
000000a0: c309 38bd 70d9 c3bd 2e10 9ebd 3acc 86bd
000000b0: 7036 16bd 49c0 88bd 9a0a 9f3c 0055 a53d
000000c0: fd89 60bd b0b7 3bbd 1fea 49bd 00d4 023e
000000d0: 7468 c23d d71b b93d 3da0 8dbd e1ab 50bd
000000e0: 4f55 81bc f207 b83c 02c5 eabc d5fb f93c
000000f0: fda6 95bd a15e 0dbd 80e5 573d 2630 fd3d
00000100: a7d5 9e3d 4d18 e93d a79f e13d 8d3e 2b3d
00000110: ac80 5cbd c10c 82bd ee8a 9c3d a690 80bd
00000120: 1490 bf3b 7ced 6cbc 352b 6bbd de77 b13d
00000130: 6812 2ebd 9531 57bd 50ac 87bd f3b4 92bd
00000140: b6c7 c43c 30c5 fb3d ab56 c43d 9f11 8abd
00000150: b655 953d d368 84bd 3f58 a5bd 6042 04bd
00000160: 984e ac3b 1342 7abd 8774 74bd 77d5 a6bd
00000170: 4175 a23d 2c49 c23d 653c 74bd 5468 003d
00000180: a2b5 e0bd 1a43 e33d b55a 75bd 5b95 d73c
00000190: 19c0 66bd f6f7 803d bfe7 2abd c1c9 05bd
000001a0: ec23 6abd 328f 91bd 447f b73d 0194 b83d
000001b0: 49b3 0fbd 1049 123d 9927 6c3d 2e81 8abd
000001c0: 6504 69bd a29e 90bd 09d2 e53d dc7b d33d
000001d0: 32d6 9fbd d2ed 2b3e 9773 5bbd 7d01 9a3d
000001e0: 9a57 9c3d ed39 61bd f70b d83d e782 c5bd
000001f0: 781c c5bd 8e62 a1bd 6212 40bd 2048 2abd
00000200: 95a8 a8bd dead 5fbd c271 963d e006 a2bd
00000210: 76fc 83bd da3b 8e3d 03d5 273d 0adf 4cbd
00000220: 7caf 713a 0f59 6ebd 928e a9bd e0bd 74bd
00000230: 0834 3dba 9e7f b3bd cc17 b93d 317a 17bd
00000240: 4c73 c8bc 461c 823d 9be4 83bd aadb a8bc
00000250: 5916 98bd ee42 97bd bcf1 97bd 9b72 ec3c
00000260: 557e 3abd 08e4 ffbc e8bd 2fbd b639 2d3d
00000270: c8eb adbd 129d 68bc 0a2e 813d 4f0c 59bd
00000280: 247f 123c c0c0 c53d 690b 9c3c 0520 82bd
00000290: 11c0 49bd 1194 ea3d 1870 9ebd 8e0a 8fbd
000002a0: f62e 08bd f869 833d 2fea 1a3d c593 173e
000002b0: 7c8f e13d beb2 85bb 9dc0 b1bd 1865 9b3d
000002c0: f5d1 243d c4cf c93c a994 80bd 6916 ca3c
000002d0: dbb8 b7bd 54e6 ce3d 6f3a 1abd 45ec 90bd
000002e0: df25 66bd e23f a33d f4e1 e83d eb78 193d
000002f0: 639b b83c 8015 4abd 6a69 353d 9296 b33d
00000300: e8bc a73d 724f 94bd a0c5 37bd 7dc0 733b
00000310: b333 c6bd b743 5fbd b4db 6abd 1d9b d03d
00000320: c153 4dbd b1ad 46bd 7dc1 d9bd e18d 013d
00000330: 9cf9 a7bc 8552 8fbd d8ed 38bd b821 b3bd
00000340: c1ef c13d 79c5 593c 1e23 d4bd 9b7c f83d
00000350: 943e 7dbd 8657 62bd edf3 97bd f20c bfbd
00000360: cdd8 eb3c 03fc 9dbd 65f9 643d 1dc6 82bd
00000370: e337 60bd 8e78 473d b0e7 d53d b817 62bd
00000380: 0f7b 4fbd 867c 7a3d 01f5 23bd 992a 3aba
00000390: 335c 5f3d f83a 24bd cd8a 833d 5a8f 39bd
000003a0: dc75 dc3d 6fdb 44bd 85a7 f8bc ede8 953c
000003b0: 400c 0abd b684 c9bd 949d eaba 6947 f63c
000003c0: 9e65 cf3d 5dde f93d a55b fc3d 4dd3 bdbd
000003d0: 5203 e43d 5465 54bd 690b 6b3e dcf6 cd3d
000003e0: f4cc 44bd 5947 fc3d c624 3ebd 7427 99bd
000003f0: 4596 123d f44b 43bd b7e2 28bd 8d12 d3bd
-0.070742995 0.053291462 0.07326428 0.018924797 -0.066135004 -0.093065575 -0.11659982 0.17018977
-0.08395797 -0.0038314215 -0.04724377 -0.053926803 0.013218627 -0.021036515 -0.064354256 -0.057376023
0.112315305 0.0019406585 -0.07705102 -0.08378019 0.060506225 0.06368438 -0.06890156 0.046300244
0.017095609 -0.06645038 -0.0441423 -0.0473644 0.10115434 -0.045892432 -0.05006568 0.07803219
0.09975517 0.047188736 0.020257276 -0.034797736 -0.08996772 -0.09820826 0.103177935 0.103772074
-0.044931185 -0.09562957 -0.0771793 -0.06581922 -0.03667301 -0.066773005 0.019414235 0.08072853
-0.054819096 -0.045829475 -0.04929554 0.12776184 0.09492579 0.09038513 -0.06915329 -0.050945166
-0.015787749 0.022464726 -0.028658394 0.03051559 -0.07307241 -0.034514073 0.052709103 0.12362699
0.07755595 0.11381588 0.110167794 0.0418077 -0.05383365 -0.06350089 0.07643686 -0.062775895
0.005846033 -0.014460918 -0.057414252 0.08665441 -0.042498022 -0.05253752 -0.06624663 -0.071634196
0.02402101 0.1229347 0.09586843 -0.06741642 0.07291739 -0.06465306 -0.08073472 -0.032289863
0.0052583925 -0.06109817 -0.05968144 -0.08146184 0.07932521 0.09486613 -0.05962791 0.031349495
-0.10972144 0.11096783 -0.059900958 0.026316335 -0.056335542 0.06297295 -0.041724917 -0.03266311
-0.057163164 -0.071073905 0.08959821 0.090126045 -0.03508309 0.03571421 0.05765495 -0.0676292
-0.056888957 -0.07061507 0.11221702 0.10326359 -0.078045264 0.1678994 -0.053577032 0.07519815
0.07633896 -0.054986883 0.10549157 -0.09644108 -0.096245706 -0.07880126 -0.04689253 -0.04157269
-0.082352795 -0.054609172 0.07345916 -0.079114676 -0.064446375 0.069450095 0.04097463 -0.050017394
0.00092195696 -0.0581904 -0.08279146 -0.05975139 -0.0007217531 -0.087645754 0.09037742 -0.036981765
-0.02446904 0.06353049 -0.064400874 -0.020612556 -0.074261375 -0.07385813 -0.07419154 0.028863242
-0.045530636 -0.031236663 -0.042905718 0.042291366 -0.08492237 -0.014197605 0.063076094 -0.052990254
0.0089414455 0.09655905 0.01904841 -0.063537635 -0.049255434 0.11454023 -0.07736224 -0.06984435
-0.03324791 0.06416696 0.03782099 0.14802463 0.110136956 -0.0040801456 -0.08679316 0.075876415
0.040239293 0.024635203 -0.06278355 0.02466889 -0.08970805 0.10102525 -0.037653383 -0.07076315
-0.05618846 0.07971169 0.11371222 0.037468832 0.022535032 -0.04933691 0.044289984 0.087689534
0.08190328 -0.072417155 -0.044866204 0.003719359 -0.096778296 -0.054507937 -0.05733843 0.101858355
-0.050128702 -0.04850549 -0.10632608 0.031629447 -0.020504765 -0.06998161 -0.0451487 -0.08746666
0.094695576 0.01329171 -0.103582606 0.121331416 -0.061827257 -0.05525925 -0.07419572 -0.09328641
0.028789902 -0.07714083 0.055901904 -0.06385443 -0.054740798 0.048698954 0.104445815 -0.0551984
-0.050654467 0.06115391 -0.040028576 -0.00071016845 0.054531287 -0.0400953 0.064229585 -0.045302726
0.107646674 -0.04806083 -0.030353317 0.018299544 -0.03370309 -0.09839766 -0.0017899745 0.030063348
0.10126804 0.122006156 0.12322167 -0.09268818 0.11133446 -0.051854447 0.22953571 0.1005685
-0.04804702 0.12318296 -0.04642179 -0.07478228 0.03578784 -0.047679856 -0.041231837 -0.10306273
