checkpoint/final/agent_2_policy.pth (torch, 331945 bytes, 6 tensors)

net.0.weight f4 [256, 49]
000000 90 11 a6 3d d3 09 53 3c 33 31 17 3e 55 ce 8b bd
       0.081088185 0.01288076 0.14764862 -0.06826464
000010 b9 83 f1 3c 75 08 85 b9 39 18 47 3d 83 6a 5c bd
       0.029481756 -0.00025374038 0.048607085 -0.053812515
000020 2b 53 30 3e 2f 79 ff bd 8b b2 e5 3d ad 31 4a 3d
       0.17219226 -0.12474286 0.11215695 0.04936378
000030 74 53 bc 3d 06 c9 c7 3d 64 b6 af 3d 27 d2 f4 bd
       0.09195605 0.09755139 0.0857971 -0.11954146
000040 9a 06 d4 3c 21 b7 dc bd 99 27 6e 3c 04 a9 c9 3a
       0.025882054 -0.107771166 0.014535808 0.0015385454
000050 05 c6 95 bd 47 05 4d bb 06 bb 66 bc 63 de 88 3b
       -0.0731316 -0.0031283663 -0.014082676 0.004176901
000060 d6 aa 3d bd 95 58 f6 3c 60 d9 20 bd 35 48 be ba
       -0.0463055 0.030071536 -0.039269805 -0.0014517369
000070 5a ed 30 be e5 5b 8f 3d 31 21 64 3d 5b f8 43 be
       -0.17278042 0.06999949 0.055695716 -0.19137709
000080 ee 69 af bd a6 64 5b bc f1 66 f1 bd eb 3d de bb
       -0.08565126 -0.013390696 -0.11787213 -0.0067822835
000090 7d f5 ae bc af 43 a2 bd 69 ac 8a bb 10 b4 b3 bb
       -0.021357292 -0.07923066 -0.0042319787 -0.0054841116
0000a0 03 be 9d 3d 9f 11 dc 3b 5b cf d8 3d 99 f9 e5 bd
       0.077022575 0.006715968 0.10586425 -0.112292476
0000b0 ea 18 50 be 74 36 85 bd ea d5 79 bd f3 19 49 3d
       -0.20322004 -0.06504527 -0.06099502 0.049097013
0000c0 9f 17 28 3e 3f 4c c1 bd 87 46 79 3c df f4 3a bd
       0.1641526 -0.09438371 0.015214569 -0.045643684
0000d0 3b 0a 0e 3e b4 ce 04 bc 5f c8 a6 3c 43 24 93 bc
       0.1387109 -0.0081059225 0.020359216 -0.017961627
0000e0 51 95 b3 bd 9b b3 cf 3d 81 93 9b 3c 8b ca 1b 3e
       -0.08768714 0.10141679 0.018991234 0.15213983
0000f0 34 b4 29 3c 92 df 57 bd 30 29 c6 3d 01 de 52 3e
       0.010357905 -0.052703448 0.09675825 0.205925
000100 41 31 8a bd e4 45 01 bd 8e 02 9b bc 14 c5 e3 bd
       -0.06747676 -0.031560794 -0.018922117 -0.11121574
000110 d8 7b 0c be a6 fc 91 bd eb d8 c0 bd 96 e6 e3 bd
       -0.13719118 -0.07128267 -0.09416374 -0.11127965
000120 3b ba 94 bd 39 c8 df 3d 93 48 98 bd 1a 84 aa 3d
       -0.07262083 0.10926861 -0.074357174 0.083259776
000130 c7 be 03 3e 14 e8 c8 3d 5f 0a 1e bd 3c d7 bf bd
       0.12865745 0.098098904 -0.03858411 -0.093672246
000140 8d 90 8a bd e9 8e 1b be 00 2c a2 bc 5d d3 df 3d
       -0.06765852 -0.15191235 -0.019796371 0.10928986
000150 6d 66 79 3b d7 65 d1 bd 05 7e 91 bc 8f 5f 30 bd
       0.0038055435 -0.102245025 -0.017760286 -0.04305988
000160 cc 12 20 be 94 90 af bd 54 23 bf bb 93 de 21 bd
       -0.1563217 -0.08572498 -0.005833069 -0.039518904
000170 d2 f4 0d 3e 60 d9 01 be bd a6 ee 3c c4 53 92 3d
       0.13862923 -0.12680578 0.029132241 0.07144883
000180 e1 94 17 3e 18 eb 23 3c d8 4a aa bd 03 ce 43 3e
       0.14802887 0.010004781 -0.083150566 0.19121556
000190 9a b6 b5 bd 00 97 93 3d 45 ca 2a bc b6 48 5e 3e
       -0.08872719 0.07206535 -0.010424201 0.21707425
0001a0 7f 9f 82 bd 5b f9 48 3e f8 9d 4a bc ef 25 3c 3d
       -0.06378078 0.19626372 -0.012366764 0.045934614
0001b0 ae 9e f6 bc be 23 64 bd fc 70 ac 3d 2a 93 0a 3e
       -0.030104961 -0.05569815 0.084199876 0.13532701
0001c0 44 33 98 bd ac 26 be 3d d5 4b bf 3d e7 90 a6 3d
       -0.07431653 0.0928472 0.09340636 0.08133107
0001d0 46 2f 02 be ab 3e 47 3c 7e bf f6 3d 7b 16 d6 bd
       -0.12713346 0.012160937 0.12048243 -0.104535066
0001e0 bf ef 22 3d 4a e8 b5 bd a2 1a 9f 3d fa cd e2 3b
       0.03977942 -0.08882196 0.07768752 0.006921527
0001f0 bc 6d 23 bd 26 53 8d 3d c5 92 17 3e 6b 22 1a 3e
       -0.039899573 0.06900625 0.14802082 0.15052192
000200 01 40 ac 3d 82 cf 2f 3e bd 7d 0a 3d ad 65 23 3e
       0.08410645 0.17169002 0.03381132 0.15956755
000210 49 b8 b9 bd 91 73 3a bd 76 91 98 3c df aa ba bd
       -0.09068353 -0.04552037 0.018624049 -0.09114622
000220 06 f7 d5 bd 1c ec 44 3d 21 9f 9a 3d 26 a5 09 3e
       -0.104475066 0.048076734 0.07549883 0.13441905
000230 3b 62 9c bd 8e 6f 88 3d 3d d0 35 bd 71 17 ca 3d
       -0.076359235 0.06661902 -0.044388045 0.09867752
000240 ae ad 81 3d 3d 18 54 3c 08 5f bc bd 5e b4 aa bc
       0.06331955 0.012945232 -0.09197813 -0.020837959
000250 63 79 48 be 9a c2 48 bd eb 81 7f 3d 9b b4 a9 bd
       -0.19577555 -0.04901371 0.06237976 -0.08286401
000260 27 1f b2 3d 15 4a 13 be cd cb bb 3d c3 19 e2 3d
       0.08697348 -0.14383729 0.09169731 0.1104007
000270 68 f6 5f bd 9f ed 0c be ce dd 0b bb 0d 87 07 bc
       -0.05467835 -0.1376252 -0.0021341923 -0.008271945
000280 da 1c 0e 3e c3 25 a8 3d 0f 9d a1 3c a2 a1 bb bd
       0.13878193 0.082103275 0.019728212 -0.091616884
000290 d0 46 68 bd e0 8f 8c 3d 05 f9 39 bd 5f 95 a4 3b
       -0.056708157 0.068633795 -0.0454035 0.0050226892
0002a0 ec f2 9f 3d d1 5f e6 bc 44 65 7e 3d 91 ef 81 bd
       0.078100055 -0.02812186 0.062108293 -0.06344522
0002b0 13 45 97 bb 9d 15 36 3d 82 5d 90 3d a6 41 72 bd
       -0.0046163886 0.044454206 0.07049085 -0.05914464
0002c0 e9 19 84 bd 97 23 de 3d 82 23 c0 3d 1a 36 ed 3d
       -0.064502545 0.10846632 0.093817726 0.11582585
0002d0 44 c3 11 3e 44 9e 6e bd 6e a5 62 bc 35 6a 90 3d
       0.14234644 -0.058256403 -0.013833387 0.070515074
0002e0 8d dd 27 bd 08 af 85 3d 3b 1d db bd 18 a1 20 be
       -0.04098277 0.06527525 -0.10698935 -0.15686452
0002f0 4f 61 a9 bd 56 63 f0 bd bf 5a fd bd f3 e5 b7 bc
       -0.08270513 -0.11737697 -0.12370824 -0.022448516
000300 e5 b2 80 bd 38 16 19 be 78 e2 b9 3a 83 48 67 bd
       -0.062841214 -0.14949882 0.0014181873 -0.056465637
000310 f2 d1 46 3d 94 bb 2c bd 5d 34 db bd de 2b 3b 3e
       0.048540063 -0.042171076 -0.10703347 0.18278453
000320 cb 0b 3d be 85 14 ae 3d b1 b6 77 3c 60 9c fb 3c
       -0.1846153 0.085000075 0.015119241 0.030714214
000330 55 fe 0f 3d bc 05 c3 3d d0 8f d2 3d 86 b5 80 be
       0.03515466 0.09522578 0.10281336 -0.2513849
000340 45 01 f3 3d 10 e5 00 be cb ef 55 3c 94 88 ef 3b
       0.118654765 -0.1258738 0.013057659 0.0073099826
000350 e7 ea 23 3d e0 bb fd 3c a8 b0 89 3d b8 4d b9 bd
       0.040018942 0.030973375 0.06723148 -0.09048027
000360 c0 42 2f bd 9e 5d 1d 3e 90 81 30 bd 51 6a d6 3d
       -0.042788267 0.15367743 -0.04309231 0.10469497
000370 54 20 e9 3d de 5f 18 3e e4 eb 1e 3e ad a9 08 be
       0.11383119 0.1488032 0.15519673 -0.13345976
000380 b3 0c 36 3e 31 05 36 3d 7b e7 93 b9 99 9c b4 bd
       0.17778282 0.044438545 -0.0002821049 -0.08818931
000390 89 f2 b1 bb 9d 01 af 3d 4c 53 c4 3d ea 6b 38 bd
       -0.005430524 0.085452296 0.095862 -0.04502479
0003a0 3a 41 f6 3d 42 a0 86 bd 32 53 09 3e 51 b9 a0 3d
       0.1202416 -0.065735355 0.13410643 0.07847846
0003b0 31 5c f4 bc a7 d2 0f bd 7b 6d 04 3d 47 68 a8 bd
       -0.029829117 -0.035113003 0.03233097 -0.08223014
0003c0 03 63 84 3d 62 50 a7 3b 91 b6 86 3d a7 a3 2e 3c
       0.064641975 0.005106018 0.065777905 0.010659135
0003d0 3e 11 49 3d df c6 94 3c 75 41 c3 bb 5a bc af bc
       0.04908871 0.018161235 -0.005958731 -0.021452118
0003e0 45 70 ce bd 76 b0 ed bd 56 1b 31 be 7e b5 ab 3c
       -0.100800075 -0.11605923 -0.17295584 0.020960566
0003f0 ed df 6a 3c ed 34 cf bd 0d a0 5e 3d 4b 5d 9e 3d
       0.014335615 -0.10117517 0.054351855 0.07732638

net.0.bias f4 [256]
000000 8e eb c7 3d 67 b7 0f 3e 43 15 8b bd 78 0e 88 3b
       0.09761725 0.14034806 -0.06791165 0.0041521154
000010 ea 58 2b 3c db 67 bf 3d 6d 5f 78 bd 92 65 0e 3e
       0.0104582105 0.09345981 -0.06063788 0.13905933
000020 17 3c 3c ba d5 cf ae bd 5d 6e c4 bd 3f 83 a1 bd
       -0.0007180585 -0.085357346 -0.095913626 -0.07886361
000030 a2 cb 5d bd dc 66 69 3d 1b 74 c7 bd 21 0c 52 3d
       -0.054149278 0.05698286 -0.09738942 0.0512811
000040 01 10 e2 bd 4e dc 98 3d 8e 1f 43 3e af 75 ab 3d
       -0.11038209 0.07463895 0.19055006 0.08372056
000050 d6 67 bd 3d d6 0e e2 3a 0f b8 2a be 3c a7 95 3d
       0.09248321 0.0017246853 -0.16671775 0.07307288
000060 8c c3 dc bb b8 87 00 bd b1 f0 41 bd 29 62 09 3e
       -0.006737178 -0.03137943 -0.04734868 0.13416351
000070 99 ce 89 bd cb e2 c5 bb ec cb 43 bc 74 28 7b bd
       -0.067288585 -0.0060389987 -0.011950474 -0.061317876
000080 a8 a2 6c 3d cb 30 44 3d 50 29 cf bc db 84 1d 3e
       0.05777231 0.047898095 -0.025288254 0.15382712
000090 7d bc 14 3d 8d 4f 8e 3d eb 2e d4 bd 2f cc 94 3d
       0.03631257 0.06948767 -0.103605114 0.072655074
0000a0 b3 e7 42 be 8a f3 39 bc 78 14 89 bd 3a e1 29 bc
       -0.19033699 -0.011349568 -0.06693357 -0.01036864
0000b0 80 40 c6 3d a3 e2 56 3d dd d0 fd bd 62 cd aa bd
       0.09680271 0.05246223 -0.12393353 -0.08339955
0000c0 2e 45 cf bd d1 3f e9 bc f7 95 89 bd 9d 77 88 3c
       -0.10120617 -0.028472813 -0.06718057 0.016658599
0000d0 10 ed 1b be 42 09 38 3d 84 cc 3f 3d f8 6a fa 3d
       -0.15227151 0.044930704 0.0468259 0.12227434
0000e0 44 8b c5 bd 1c 1d e6 bc 2e c3 9f bc d0 d4 22 3e
       -0.096457034 -0.028090052 -0.019502249 0.15901494
0000f0 eb 74 1d be 29 59 d9 bd 8f f6 4d bd 68 d3 a3 3c
       -0.15376632 -0.10612709 -0.050283965 0.019998267
000100 ef 21 d4 3d 22 09 e9 3a e8 33 1c bd 98 74 31 3d
       0.10358035 0.0017779211 -0.03813544 0.043324083
000110 87 75 9d 3d d0 12 2a 3c 2d 36 0b be 3a 1d f8 bc
       0.07688432 0.010380462 -0.13594885 -0.030287374
000120 94 69 08 3e a1 f5 25 3e 11 02 db 3d 99 1c b2 3b
       0.13321525 0.16206981 0.106937535 0.005435538
000130 9d ae a4 3c be 80 f6 bc 53 a9 a6 bd 09 23 0c 3d
       0.020102793 -0.030090686 -0.08137765 0.0342131
000140 f7 6a 91 bc 47 f0 ba bd 7f d6 d7 3d 4e 46 90 3d
       -0.0177512 -0.091278605 0.10538959 0.070446596
000150 9c e0 bd 3d cf 02 1e 3e c5 9f b2 3d 17 1c 05 bd
       0.092713565 0.15430759 0.0872188 -0.03249749
000160 24 b6 4d bd db 6e 2b bd 2a 41 f7 bb 18 51 b7 3d
       -0.05022253 -0.041853767 -0.00754561 0.08951014
000170 72 59 99 3d c8 a6 7c 3c f8 cf da 3c 0b d8 8c 3d
       0.074877635 0.015420623 0.026710495 0.068771444
000180 61 c6 23 bd 09 95 fe 3c ab a7 89 bd 3f dc 6a 3d
       -0.03998411 0.031076925 -0.06721433 0.05733895
000190 0b d7 6d bd ac fc 4b 3e 8d 12 11 3e 11 fd 9c bd
       -0.05806641 0.19920605 0.14167233 -0.07665456
0001a0 20 7a 83 3d b0 78 fd bd a8 8e 4b bd 0c a8 08 3e
       0.06419778 -0.12376535 -0.049696594 0.13345355
0001b0 65 ae d0 bc 71 7c a7 bd 33 b0 75 3d 48 b8 1a 3d
       -0.025473783 -0.08178032 0.05998249 0.0377734
0001c0 68 37 6c 3d 6c 67 96 bd 00 cf 9e 3d 4e d8 6d bd
       0.057670027 -0.07343945 0.07754326 -0.058067612
0001d0 f3 13 41 bd 82 fb e9 3b 28 bb f1 bb 1c ad 1c 3e
       -0.047138166 0.007140578 -0.007377047 0.15300411
0001e0 26 4e 09 3e 93 f0 35 3d f2 aa da 3b 48 cf 97 3b
       0.13408718 0.044418883 0.0066732103 0.004632864
0001f0 48 b2 83 bd 8e 94 cb 3d 30 43 ec 3d a5 69 a2 bd
       -0.06430489 0.09940444 0.115362525 -0.07930306
000200 1c 2f f3 bd 37 e1 a0 3d 8a d2 91 3d 44 52 6f bb
       -0.1187422 0.07855456 0.07120235 -0.003651754
000210 35 3c 8e bd 37 c1 ea bd eb 6e 23 be 9c 7a ec 3d
       -0.06945077 -0.11462634 -0.1596028 0.115468234
000220 99 4c ac bd 1f 5f 96 3d 38 92 13 bd 80 43 88 bd
       -0.08413047 0.07342362 -0.036028117 -0.066534996
000230 c9 3d 09 3d bb a4 f0 bc 59 2c 7c bc bd 33 0f bd
       0.03350619 -0.029375425 -0.015391433 -0.03496145
000240 e9 d9 6d 3d c9 57 b0 3d c6 23 87 bd 50 33 91 bd
       0.058069143 0.08610494 -0.0659862 -0.07089865
000250 9c 4b 13 bb db c9 1f 3d f0 e5 1d 3d 03 91 11 bd
       -0.0022475487 0.039010864 0.038549364 -0.035538685
000260 51 32 75 3d 69 18 b0 bb 70 37 8b 3d b5 d0 e1 ba
       0.05986244 -0.0053740037 0.06797683 -0.0017228337
000270 d9 a9 0e 3d 54 d0 80 bd 17 d7 83 bd c1 9e a1 3d
       0.034829948 -0.062897354 -0.064375095 0.07891608
000280 06 00 e4 3d 72 71 27 bc 34 9a 97 3d 97 27 8e 3d
       0.11132817 -0.010219919 0.07402459 0.06941145
000290 c9 46 ff bc b7 56 30 3d f1 41 09 be a5 a8 23 3d
       -0.031161683 0.043051448 -0.13404061 0.039955754
0002a0 b0 df 3f bd d5 88 49 bc 96 f3 30 3e 13 e0 a3 bc
       -0.046844184 -0.01230069 0.1728042 -0.020004308
0002b0 1f 1a be 3c 47 fc 4c be ee fe b0 bb aa 4d b4 bd
       0.023205815 -0.20018111 -0.0054014837 -0.08803876
0002c0 f5 bc a7 bd 9c dd b1 3d be b3 0f 3e 63 90 51 3c
       -0.081903376 0.08684847 0.1403341 0.012790772
0002d0 e4 13 81 bd fe 7f 24 3e 18 0c d1 3d 0a a6 6b 3b
       -0.06302622 0.1606445 0.10207385 0.0035957121
0002e0 b5 4e 0d 3e 4c 0d 92 bc ee 5e d9 bd c6 42 d1 bd
       0.13799556 -0.017828606 -0.106138095 -0.10217814
0002f0 88 9d e3 3d c7 6a 46 be c2 cd 11 bd 08 39 db bd
       0.11114031 -0.1937667 -0.035596617 -0.10704237
000300 cf 21 9a bc bb 51 58 be d9 88 8b 3d f1 d1 24 bd
       -0.01881495 -0.21124928 0.06813211 -0.04023928
000310 70 34 1d 3e 7f f4 8c bc 22 cc 23 be 9e 70 8f bc
       0.15352035 -0.017206429 -0.15995839 -0.017509755
000320 23 43 77 bd e9 1b ff bc a9 f6 be 3d 75 c5 71 bd
       -0.06036676 -0.031141238 0.093243904 -0.0590262
000330 df d0 90 3b 53 88 03 3c cd 69 fa bc 35 39 83 bd
       0.0044194306 0.008028108 -0.030568028 -0.06407396
000340 01 b4 0f 3e 0f cb 38 bd 1f 1b a1 3d 1a 22 85 3d
       0.1403351 -0.045115527 0.07866501 0.06500645
000350 98 f6 10 3e 53 01 3a 3d 67 2f d8 bd 77 b3 04 3e
       0.14156568 0.04541142 -0.10555916 0.12959085
000360 d9 7e 7a bd ec 40 da 3d 10 38 06 bd d6 19 c4 bc
       -0.061156128 0.10656914 -0.03276831 -0.0239381
000370 80 49 94 bd ef 93 db bd 07 05 58 3c fd 93 ee bc
       -0.072405815 -0.107215755 0.013184792 -0.0291233
000380 22 94 dd 3c ec 08 52 3d de 81 6a 3d 95 52 5d bd
       0.027048174 0.05127804 0.057252757 -0.054033834
000390 5b bb 0c be e5 6e 4b bd 6f 77 d8 bd d7 fb 16 3e
       -0.13743345 -0.049666304 -0.10569655 0.14744507
0003a0 1b 05 03 3e 89 7e c8 bc f6 70 02 3d cd 37 76 bd
       0.12794916 -0.0244744 0.03184601 -0.06011181
0003b0 9c 4d 74 bd 94 88 11 3d 91 d9 db 3d c6 cc 84 bb
       -0.059644327 0.03553064 0.10734857 -0.004052731
0003c0 ee ae c1 3d ea f3 31 be a0 6d 12 3d f4 2e 8f bd
       0.09457193 -0.17378202 0.035749078 -0.069913775
0003d0 13 41 68 3e 6d de af bc f0 8e c2 bd 47 81 09 3e
       0.22681074 -0.021468366 -0.094999194 0.13428222
0003e0 9d 43 0f be c0 c1 54 3d 24 28 cd 3b 0e 36 05 be
       -0.13990636 0.051942587 0.0062608887 -0.13008901
0003f0 22 06 93 bc cf 14 cb bd 74 71 87 bd ae 77 36 bd
       -0.01794726 -0.09916078 -0.06613436 -0.04454773

net.2.weight f4 [256, 256]
000000 bf 90 64 3d d1 a7 bf 3b 02 af 9f 3d d5 63 b9 3d
       0.055802103 0.0058488627 0.07797052 0.090522446
000010 c3 da 0b 3d db 8f 18 3d 67 7d 30 bd c6 3a 0e 3d
       0.034144174 0.037246566 -0.043088343 0.03472402
000020 5c 1b 10 3d 7d be e8 bc 0e f5 8e bd 4d f4 51 3c
       0.035182342 -0.028411144 -0.06980334 0.0128145935
000030 ad 44 3c bd b5 94 66 bd 92 18 62 3d a0 c3 80 bc
       -0.04596393 -0.05629416 0.055199213 -0.015718281
000040 e3 5a 3b bd 95 f1 ee bc 61 77 28 3b 5c 9e 19 bd
       -0.045740973 -0.02916793 0.002570592 -0.03750454
000050 b7 46 28 bd 39 56 c8 3c 9e c2 1a 3d b2 0c 9e 3c
       -0.041083064 0.024455177 0.037783258 0.019293163
000060 79 f9 c8 bc c8 de 9c bd ad 83 0c 3d 87 f6 99 3b
       -0.02453302 -0.0765968 0.034305263 0.004698578
000070 c8 1f 57 bd fb be 15 bd 4f be 25 3d 3d 12 77 3d
       -0.052520543 -0.036559086 0.040464696 0.060320128
000080 28 f1 34 bd 0f 14 2f 3c da ce 35 3d ca 64 17 bd
       -0.044175297 0.010685935 0.044386722 -0.036961354
000090 27 d0 aa bc 50 88 45 3c 2b 47 c8 3b a6 14 28 bc
       -0.020851208 0.012056425 0.0061119995 -0.010258829
0000a0 a1 f3 7b 3d 72 e3 b7 3d ba 00 77 3d ed 1e 40 bd
       0.06151164 0.089789286 0.060303427 -0.046904493
0000b0 6f f8 ae 3d ed c8 ba bc 68 75 d9 bc 2b b0 c4 bc
       0.08543479 -0.022800887 -0.026545241 -0.024009785
0000c0 18 89 79 3c 98 1b 0f 3d c7 4c 7a 3d dd 8c 9b 3c
       0.01523044 0.034938425 0.061108377 0.018988067
0000d0 b4 fd 18 bd 1b 2f 3e bd 1e f6 70 bd 08 f0 06 3d
       -0.037351325 -0.046431642 -0.058828466 0.032943755
0000e0 c1 51 cd bb d8 4d 22 3d df 76 ce 3d 75 ae b4 3d
       -0.0062658493 0.03962502 0.100812666 0.088223375
0000f0 98 62 ab 3d c7 c7 9e bd 29 70 e9 bb d5 6b f8 3c
       0.08368415 -0.07752948 -0.0071239662 0.030324856
000100 94 96 2c 3d 08 e9 05 bc 0a 96 8a 3d 0c 99 26 bc
       0.04213579 -0.008173235 0.06766899 -0.010168325
000110 93 fc a6 3c 01 17 21 bc d1 b1 9d 3d 3c 6e ea 3c
       0.020384109 -0.009832145 0.076999314 0.028617017
000120 0c c1 9c 3d 53 48 af bc 5a c6 8d 3c 88 5d d7 bb
       0.07654008 -0.021396792 0.017306495 -0.006572429
000130 20 e4 78 bc 22 00 7d 3c 33 75 d6 3b 09 62 0d 3d
       -0.015191108 0.015441926 0.006544733 0.03451732
000140 26 f8 11 bc 0f c6 1a 3c 2b 0a 13 3d 3a a1 14 3e
       -0.008909261 0.009446635 0.03589837 0.14514628
000150 db b5 a1 bc a1 bb 81 3c f6 24 80 3c 67 2a 81 3c
       -0.019740036 0.015836539 0.015642624 0.01576729
000160 88 c7 5f 3c 5c 0b 41 3d 07 55 2e 3b 83 48 16 bd
       0.013658412 0.047129974 0.0026600973 -0.036690246
000170 d1 b4 4c bc d1 5f b2 3c 5c 2b 75 3d 2e d2 97 bb
       -0.012494282 0.021774204 0.059855804 -0.0046332097
000180 df 75 fa bc 7b 35 66 3d 6b 2a 82 3c 56 2f a7 3d
       -0.030573783 0.056203347 0.015889367 0.081633255
000190 47 11 96 3d 19 fc 66 3d 76 3e 71 3d cc b7 b0 3b
       0.07327514 0.056392763 0.058897458 0.005393004
0001a0 ec bf 01 3d 2d df 1d 3d bd 1a d7 3c 50 49 91 bb
       0.03167717 0.038542915 0.026257867 -0.0044337884
0001b0 f6 35 05 3d df b4 91 3d a1 6b 4c 3a 94 f7 cb bc
       0.032522164 0.071145765 0.00077980204 -0.024898328
0001c0 10 47 71 3d a7 48 97 3d a6 9e 19 bd 81 84 32 bc
       0.05890566 0.07386904 -0.037504815 -0.010895849
0001d0 bb 88 9d bc 39 75 80 3d 0b 18 9a b9 80 7a 0a 3d
       -0.019230237 0.062723584 -0.00029391082 0.03380823
0001e0 38 4d 23 bc 3b fc 91 bb bb 60 aa 3c 23 59 84 3d
       -0.009967141 -0.004455117 0.020798078 0.06462314
0001f0 d3 f8 df 3c 5f 9c 31 bc 9e 21 21 3d 5b fb 1a 3a
       0.027340328 -0.010840504 0.0393387 0.00059120887
000200 b2 f3 bc bc 21 fa fe bc c3 20 c0 3c e5 eb c0 3d
       -0.023065422 -0.03112513 0.023453122 0.09419993
000210 49 da ab 3d e4 93 0b 3d cf e6 27 bc 72 d4 1f 3d
       0.08391244 0.034076586 -0.0102479 0.039020963
000220 cc af 4a 3d fc 18 48 3d 30 1d a3 3d 3f 46 86 3c
       0.04948406 0.048851952 0.079645514 0.016390918
000230 1e c8 f3 bc 2c 6b 4d 3d 89 4b 99 3c 9f 79 18 3d
       -0.02975851 0.050151035 0.018712776 0.037225362
000240 6c 86 75 3d ea 62 96 3d e8 b8 22 bc 57 95 a6 3d
       0.059942648 0.07343085 -0.00993178 0.08133953
000250 1d a9 80 3d cf 97 ad bc e5 05 da 3b 8b dc 78 bd
       0.06282256 -0.021190552 0.0066535347 -0.0607572
000260 a7 02 2f 3d 98 22 7d 3d f1 7d dd 3d 6f 6b c0 bc
       0.04272714 0.06180057 0.10815037 -0.023488728
000270 2d 28 a8 3c bb c0 f1 3c 5e a7 2b bd 5b 28 d2 3c
       0.02052697 0.029510846 -0.04190766 0.025654009
000280 b2 af 14 bd 20 14 72 3d 8c 82 c9 3b f0 24 8a bd
       -0.03630037 0.059101224 0.0061495956 -0.067453265
000290 3a 4c 12 bd 37 f6 64 3c ce cb 5f 3d bf d4 1c 3d
       -0.035717227 0.013974718 0.054637723 0.038288828
0002a0 03 5a 10 3d 29 ea d3 3c bc ea 8f bd 15 a2 01 3b
       0.035242092 0.025868492 -0.07027194 0.0019780446
0002b0 94 a6 0a 3d c5 ea 1d 3d 0b e6 66 3d 7f 24 4d 3d
       0.033850268 0.03855397 0.05637173 0.050083634
0002c0 9c fc 72 3b e6 84 95 bc 4d 7e f3 3d e5 5e 28 bd
       0.0037076836 -0.018251847 0.11889324 -0.041106123
0002d0 2c dd 1a ba 4b 01 e0 3b 34 86 46 3d be b0 84 bd
       -0.0005907591 0.0068360916 0.04846783 -0.064790234
0002e0 92 88 35 bc 60 fe 42 3d f6 24 0f bc 77 ce 00 3b
       -0.011079924 0.047605872 -0.0087368395 0.0019654313
0002f0 f8 bb 2e bd 5d df 96 bc 17 a1 da bc f6 fe 10 3c
       -0.04265973 -0.018417055 -0.026688142 0.00884985
000300 ac d8 f4 3a 48 e0 a1 3d 37 e8 a0 3c 31 d4 14 3d
       0.0018680296 0.079041064 0.019641979 0.036335174
000310 c2 3c 3b 3d 72 59 cc 3c 9a 21 92 3d 2b 82 ae bc
       0.04571224 0.024944995 0.07135315 -0.021302303
000320 3d ac d8 bc c6 27 21 3c 11 02 ff 3c 00 1b 62 bc
       -0.026449317 0.009836143 0.031128915 -0.013800383
000330 70 38 87 bd 11 5d 9b 3c 76 88 46 bd ac 65 88 3d
       -0.066025615 0.018965276 -0.048469983 0.06660017
000340 bd a3 a6 3d 15 dd 28 3d 28 82 93 bb 18 d0 08 3d
       0.08136699 0.041226465 -0.0045016 0.03340158
000350 e3 7a 4b 3d bb 21 f3 ba ad da de 3c 19 85 0c 3d
       0.04967774 -0.0018549481 0.027203882 0.03430662
000360 a3 63 2d bd 94 d4 f1 3c 6d 77 09 bd 09 8d 12 3d
       -0.04233135 0.02952031 -0.03356116 0.035779033
000370 6f 5d 74 bd 63 13 01 3d 87 23 87 3d 7e bc 69 3d
       -0.059659418 0.03151263 0.06598573 0.057064526
000380 f3 06 a7 bc 07 05 d3 bb ef 1c b0 3b f8 78 58 3a
       -0.020389056 -0.0064398083 0.005374543 0.0008257772
000390 bb b9 47 3d e9 99 08 bd cd 0e 96 3d 31 ac 25 3c
       0.04876111 -0.033349905 0.07327042 0.010111854
0003a0 db f8 1e 3d a7 3b 8d 3d 30 6a d0 3d a9 b5 72 bc
       0.038811546 0.068961434 0.10176504 -0.014813819
0003b0 96 d3 91 bd 53 90 e2 bc cf 39 a4 3c ee 31 44 3d
       -0.07120435 -0.02765671 0.020047097 0.04789918
0003c0 3c f6 78 3d b9 b6 36 3d 46 9d 36 3d 53 df 4b 3d
       0.060781702 0.04460785 0.04458358 0.049773525
0003d0 fb d9 9d bc de eb 70 3d b1 77 0c bc 6b 50 0f 3d
       -0.01926898 0.05881869 -0.0085734585 0.034988802
0003e0 fb e0 17 bd 53 e6 87 3b 77 39 5f 3d 13 2f 05 bd
       -0.037079792 0.00414733 0.054498162 -0.032515597
0003f0 aa 75 3e bd 76 00 4b 3d 22 86 ac ba 50 52 13 3c
       -0.046498932 0.049560986 -0.0013162533 0.008991793

net.2.bias f4 [256]
000000 a3 cf cd 3d 77 46 30 3d 0c c3 4b 39 40 da ee 3a
       0.10049369 0.04303595 0.00019432249 0.0018223003
000010 92 42 5a bd 0b c1 ea 3c 68 cb 27 3d b4 47 03 bd
       -0.053286143 0.028656503 0.040965468 -0.032050803
000020 cc 3f 77 3d 6c ac 56 3d 57 bc 0e bd 94 80 52 bd
       0.060363576 0.052410528 -0.034847584 -0.051392153
000030 0a 67 16 3d 44 3c da 3d b7 0a f6 ba 38 a6 cd 3c
       0.03671936 0.10656026 -0.0018771504 0.025103673
000040 73 e9 68 bd d2 e9 39 bc 65 97 67 3d 85 66 c1 bc
       -0.05686326 -0.011347251 0.056540865 -0.023608455
000050 a2 08 0d bd ae a0 84 3d e6 52 a9 bd eb 00 b4 bb
       -0.03443206 0.0647596 -0.08267765 -0.0054932735
000060 93 1b d9 bc 55 5a 47 bc 10 e8 04 bd 50 df 2b bc
       -0.026502406 -0.012167533 -0.032447875 -0.010490254
000070 99 43 3e 3d 03 f7 53 3d 0d f2 28 3d e0 71 94 bd
       0.046451185 0.05174924 0.041246463 -0.072482824
000080 1a ca 78 3d ba dc 80 3d 0d 97 9e 3d 84 e4 13 3d
       0.060739614 0.062921 0.077436544 0.0361066
000090 bd c7 df 3c f2 7b 09 3d 79 aa b6 bc 7d 2c 8a 3d
       0.027316922 0.03356547 -0.022298085 0.06746767
0000a0 5b ef 08 bd 76 3a 7f 3d 22 28 72 bd b6 d0 fa ba
       -0.033431392 0.062311612 -0.059120305 -0.0019135687
0000b0 48 5a 49 3d 4e 48 00 bd 31 35 96 3d 5c 8e 14 3d
       0.049158365 -0.031318955 0.07334364 0.036268577
0000c0 73 d8 95 bd 5d 51 23 3d 5f 33 43 3c 64 9c e5 bc
       -0.07316675 0.039872516 0.011914103 -0.028028674
0000d0 05 c4 fc bb 29 c2 5a bd 0f 78 ba bb f8 22 73 bd
       -0.007713797 -0.05340782 -0.0056905816 -0.05935952
0000e0 82 ac 71 3c 85 c2 18 bd e5 ea 00 bc 87 23 40 bd
       0.014750602 -0.037294883 -0.007868503 -0.04690888
0000f0 6d c0 8e 3d dc 3e 93 bc 03 6e 2d 3d d5 af e6 3c
       0.06970296 -0.01797431 0.042341243 0.028160015
000100 8a 36 2e bd 9f d0 82 3d e4 56 8b 3d 5f a6 c0 3d
       -0.04253248 0.063874476 0.068036824 0.09406733
000110 58 f5 e7 3c 3e 82 32 3d 88 2f 85 bd 72 9c a9 bc
       0.028315231 0.04358124 -0.065032065 -0.020704482
000120 4c 95 0e 3d 0b 94 0e 3d 14 ea 45 bd 9e c3 bb 3c
       0.03481035 0.034809154 -0.048318937 0.022920426
000130 62 33 ae bc c3 ad b6 ba 44 c8 ae 3c 04 f7 67 bd
       -0.021264736 -0.0013937283 0.021335728 -0.056632057
000140 10 d3 b2 3c 00 50 b3 3c 0e a9 10 3c 2e b2 48 3c
       0.021829158 0.021888733 0.008829368 0.012249513
000150 99 01 d2 3c 78 a7 80 3c 12 44 8d bc 92 ce 01 bc
       0.025635527 0.015704855 -0.017244373 -0.007922785
000160 e7 a9 00 3e d4 2c a9 3d d7 d1 36 3d 62 e9 76 bd
       0.12564813 0.082605034 0.044633713 -0.060281165
000170 a6 f6 98 bc b5 d0 06 bd 20 50 83 3d 6d e8 01 bc
       -0.018672299 -0.032913882 0.06411767 -0.00792895
000180 a2 9c c9 3a 7b d0 1c 3d 7a 04 bd 3c c6 ce 91 3c
       0.0015381763 0.03828476 0.023073424 0.017798793
000190 5f 10 87 3d 3a 20 0c bd 6f 2a c5 3c 0e 58 96 3d
       0.065949194 -0.03421042 0.024068085 0.07341014
0001a0 72 ac 42 bc c9 6e c8 3c 14 2d de bc 86 9b 25 3d
       -0.0118819345 0.024466889 -0.027121104 0.04043152
0001b0 68 c3 96 bd 7f f1 0b bd df f1 71 3d 9a 08 e8 bc
       -0.073614895 -0.034165855 0.059068557 -0.028324414
0001c0 1d db f3 3c 62 f8 2c 3c 59 86 19 bd fd 24 45 bd
       0.029767567 0.010557266 -0.03748164 -0.048130978
0001d0 22 43 14 bd 5b 85 2e bd 42 e9 1d 3d 30 e6 b2 bc
       -0.036196835 -0.042607646 0.03855253 -0.021838278
0001e0 e0 34 63 3d 27 a1 1f 3c 9e 47 20 3d b4 7e 2d bd
       0.055470347 0.009743012 0.0391308 -0.04235716
0001f0 96 a7 3e bd d1 63 27 bd 44 5e c1 3d 5b 82 cc bc
       -0.04654654 -0.040866677 0.09441808 -0.024964502
000200 ae f5 e7 bc ad 9d 23 bc 1f 5e ea 3a e5 89 11 bd
       -0.028315391 -0.009986323 0.0017880833 -0.035531897
000210 d8 81 c6 3d 03 86 4b 3d fc 1d 8f 3d 0e 06 4f bc
       0.096927345 0.04968835 0.06988141 -0.012635721
000220 e9 65 2d bc 94 e1 a8 3c c9 2a a7 3d 5d f7 e4 bb
       -0.010583379 0.020615377 0.081624575 -0.006987496
000230 b9 e7 b1 bd ae 1b 12 bd 64 a1 0c bd 8a 43 36 3d
       -0.08686776 -0.03567093 -0.0343336 0.044498004
000240 3f ec b6 3c 29 45 99 3b 80 d5 67 3d 56 4c 74 bd
       0.022329448 0.004677434 0.056600094 -0.059643112
000250 40 0e f9 3b 8a bf 9d bc b3 45 6d bd aa 4b 74 3c
       0.0076005757 -0.019256372 -0.0579278 0.014910618
000260 09 4a 1b bd 38 c7 5b 3d 4e 68 4c 3d 8e 37 04 3d
       -0.037912402 0.053656787 0.04990416 0.032279544
000270 68 6c 23 bc 7a d9 11 3d d3 7a 3f 3d 41 09 30 bc
       -0.0099745765 0.035607792 0.046747994 -0.010744394
000280 28 04 43 3d 09 3e 18 bd a4 4e db bc e6 93 ea bc
       0.047611386 -0.037168536 -0.026770897 -0.028634977
000290 b4 d0 6c 3d ce 81 ad 3d 50 70 88 bc c1 83 f7 3c
       0.057816222 0.08472024 -0.016655117 0.030214192
0002a0 60 26 45 3a 3e 1c 1a bd a5 f9 a3 3d 90 8b cc 3c
       0.0007520672 -0.03762459 0.080066 0.024968892
0002b0 5b a1 61 3c 9a c5 10 3d 12 d1 6f 3c b9 c5 ac bd
       0.01377138 0.035344698 0.014637249 -0.0843615
0002c0 61 1b c0 3d 3d 8f a9 bb 70 8f 61 bc ec f4 6a bc
       0.09380222 -0.005174546 -0.013767108 -0.0143406205
0002d0 9a 68 e6 3d 5a 12 6a 3d b5 aa fb 3c 1f 68 fb 3b
       0.1125042 0.057146408 0.030721048 0.0076723243
0002e0 5f 8a 23 bc 60 d5 d5 bc 7b 9f 7f 3d c0 64 5d bd
       -0.009981721 -0.026102722 0.06240795 -0.05405116
0002f0 88 95 ea bc 0a ac 31 3d b7 dd cb 3d 79 53 37 3d
       -0.028635755 0.04337696 0.09954398 0.04475734
000300 d1 a1 88 3d bb b8 2c 3c 7f d1 4c bd db 33 9a 3c
       0.06671489 0.01054209 -0.05000448 0.018823555
000310 88 c4 c1 3c 7a 6c 7b 3d 3c 54 c5 3c 25 95 43 bd
       0.023653284 0.06138275 0.024088018 -0.047749657
000320 95 8f 64 bc 2e 1d f2 3d f1 47 2a 3d 52 e8 63 3d
       -0.013950248 0.11821972 0.041572515 0.05564148
000330 d6 a3 ac 3c 82 46 24 bc 40 ca 87 bd 2e b1 b3 bb
       0.021074217 -0.010026576 -0.06630373 -0.005483768
000340 f0 a0 46 bd 77 d8 28 3c a4 e7 16 3d fd 6f aa bc
       -0.048493326 0.0103055155 0.036842003 -0.020805353
000350 80 5c 90 bd 59 9d 99 3d 93 cc 88 bc ae 18 3b 3d
       -0.07048893 0.07500715 -0.016699111 0.045677833
000360 24 72 1f bd 63 e9 36 bd b5 e5 0c bd d5 0d 82 3b
       -0.038927212 -0.04465617 -0.034398753 0.003968934
000370 ca ae 70 3c 15 da 90 bd 9d c8 c0 3d 8c 0d f6 bc
       0.01469011 -0.07072846 0.09413264 -0.030035757
000380 80 3e f3 bc f5 f1 ee 3b 12 00 00 3d 5b b8 a5 bd
       -0.029692888 0.007292027 0.031250067 -0.08091804
000390 4e 79 e7 bc d9 21 80 bc 98 9b b3 3d 12 16 09 3d
       -0.028256085 -0.01564114 0.087699115 0.033468314
0003a0 4e e7 53 3d ca 86 cb 3b 5c 7e 30 3c 4d bb 33 bd
       0.05173426 0.0062111365 0.010772314 -0.043879796
0003b0 fe 73 40 bd a3 af 20 bd 9b 68 af bb 99 db a2 3d
       -0.04698562 -0.03923 -0.005353046 0.07952041
0003c0 29 0c c7 3d eb b9 e6 bc 9d 89 1a 3d 5d 0f 89 3d
       0.09719116 -0.028164824 0.037728895 0.066923834
0003d0 a4 42 97 3c ef 9f 84 bd 5b ff 72 bc 79 55 8a bd
       0.018464394 -0.064758174 -0.014831389 -0.06754584
0003e0 d9 ab 28 3d 35 da 2d bd 9b 84 62 bd 83 50 5e bd
       0.04117951 -0.042444427 -0.055302244 -0.054276
0003f0 69 58 8e bd 9e df 10 bd d0 f9 e3 bb 0d 59 51 3d
       -0.06950457 -0.035369508 -0.00695727 0.051110316

net.4.weight f4 [14, 256]
000000 4c 46 03 3e cc d2 d6 3d 8c b8 94 bc 5b 10 a3 3b
       0.12819785 0.10489425 -0.018154405 0.004976315
000010 d6 96 a2 bb e4 f7 87 bd ec 3c 06 3e 50 2f 2c bd
       -0.0049618287 -0.06639078 0.13109177 -0.04203731
000020 fb 16 df 3c ca 1c 93 bd d3 fd 57 3c e5 32 8c bb
       0.027232638 -0.071832255 0.013183075 -0.004278528
000030 29 3d de 3d 65 84 be 3d a1 ea f0 3a 6f 83 b4 3a
       0.10851509 0.09302596 0.0018380472 0.001377208
000040 ca e5 62 bd 20 d4 2d 3c fe 57 3e bd b4 af 24 3d
       -0.055394925 0.010609657 -0.046470635 0.040206626
000050 b6 2d 64 bd 9b d8 26 3c c7 a5 52 bd b6 2c d9 3d
       -0.055707656 0.010183479 -0.05142763 0.10604231
000060 9f fe 13 3c 7a 1e 41 bd 78 ef 1c 3e 35 25 57 3c
       0.009032874 -0.047148205 0.15325725 0.013131429
000070 40 bd dc 3d 0a c4 7e 3d 16 c1 57 bc 47 c0 18 3d
       0.10778284 0.062198676 -0.013168594 0.037292745
000080 64 2c 71 3d 7e 84 e3 3d a5 43 f7 3d e4 34 1b 3d
       0.058880225 0.11109255 0.12073449 0.037892237
000090 b9 48 f9 3d 47 7b 1d bd ab bd dc 3d 54 af b1 bb
       0.12172074 -0.038447645 0.10778364 -0.005422512
0000a0 94 ca 8c 3c 17 08 74 3d 5f 68 04 bc 7c a9 17 bd
       0.01718644 0.059578028 -0.008081525 -0.037026867
0000b0 75 6e 9b bc 37 cb 36 bd 29 4b ca 3d 74 42 c2 3c
       -0.018973568 -0.044627395 0.09877617 0.023713328
0000c0 38 e2 dd bc 23 b6 25 3e 54 29 16 bc 93 d8 33 3d
       -0.027085409 0.16182761 -0.009165127 0.043907713
0000d0 4f ac 01 3d d4 4b 86 bb 2a c2 8c bb d9 4a 49 3d
       0.031658467 -0.004098395 -0.004295607 0.049143646
0000e0 0e a5 bc 3d 06 ed 21 3d 6f 0a 00 3d a9 7a 18 bd
       0.09211169 0.039532684 0.03125995 -0.037226353
0000f0 c4 7a db 3c 54 2d c4 bc 1c a8 3c 3d 03 c3 d1 bc
       0.026791938 -0.023947395 0.04605876 -0.025605684
000100 53 4f 15 b9 ac 86 0e bd a1 fb ea bc cb a0 18 3d
       -0.00014239298 -0.0347964 -0.02868444 0.03726272
000110 f4 df d2 bc fc 41 1d 3e 28 e9 55 3d 3e d0 fc 3d
       -0.025741555 0.15357202 0.05222431 0.123444065
000120 0e 86 bb 3c ae 64 47 3d b7 72 28 bd be 42 4b bd
       0.02289107 0.04868 -0.041125026 -0.049624197
000130 80 e3 66 bd 3f ad cb 3d f9 3f ec 3c 09 45 29 bd
       -0.056369305 0.099451534 0.028839098 -0.041325603
000140 55 ae be 3d 10 a3 b1 3d 29 d9 34 3d cb 60 8d 3d
       0.09310595 0.0867368 0.044152413 0.069032274
000150 92 c5 dd 3c 8f e3 4a bd 9d 2f b2 3d d0 38 f8 3b
       0.027071748 -0.049533423 0.08700488 0.007575132
000160 e0 46 ee 3d 2f 74 d3 3d ec 48 a3 bd d9 9e 14 bc
       0.11634612 0.10324895 -0.07972893 -0.009071075
000170 60 ce a1 ba 79 67 e6 bc 4e 8f 91 3d 00 71 46 3d
       -0.001234483 -0.028125511 0.07107411 0.04844761
000180 06 f4 07 3e 17 b3 e4 bc 7e 45 2e bd c7 e4 87 bd
       0.13276681 -0.027917428 -0.04254674 -0.06635433
000190 8c 9d a9 3b 74 ae 2a 3c 14 6f 3c bd be 7b cf bb
       0.0051762518 0.010417569 -0.04600437 -0.00633189
0001a0 3f d6 f9 3b c8 c6 bd 3d 20 e3 27 3d 0a 13 e2 3c
       0.007624417 0.0926643 0.040988088 0.02759697
0001b0 c6 83 2e 3d 87 c5 99 3d 41 8b ba 3d 7a 50 33 3c
       0.042606138 0.075083785 0.09108592 0.01094448
0001c0 2d f1 b9 3c 17 00 d0 3c b1 33 9a 3d 68 42 a1 bc
       0.02269801 0.025390668 0.075293906 -0.019684985
0001d0 69 96 08 3d 1d 8f bc bc 6c 56 03 3e 17 62 c9 3d
       0.033346567 -0.02301746 0.12825936 0.09833162
0001e0 0b 91 9e 3d 41 71 17 3c 9f eb 92 3d a1 f8 80 3d
       0.077425085 0.00924331 0.071738474 0.06297422
0001f0 be 27 14 3d c0 58 11 3c 81 2d e1 3d ef b7 e1 3c
       0.036170714 0.008871257 0.10995007 0.027553527
000200 fe f3 b1 3c 5d 42 5a 3d b5 c4 87 3d 29 01 25 bd
       0.02172279 0.053285945 0.06629316 -0.04028431
000210 7b ce e2 3d 92 2d 65 3c d8 1e c1 3b d3 2e 45 3d
       0.11074539 0.013987916 0.0058935694 0.04814036
000220 e4 b7 0a bd 50 89 79 3c a5 d2 5d 3d 07 6e 18 bd
       -0.033866778 0.015230492 0.054155964 -0.037214305
000230 ec a7 65 3d 85 cc a9 bc 44 c8 67 bc 81 f2 c8 3c
       0.056068346 -0.020727405 -0.014146868 0.024529697
000240 38 16 14 bd 5d 0d b4 3d 99 cc 6e ba ca de 57 bd
       -0.036154002 0.08791611 -0.0009109467 -0.052702703
000250 58 62 a1 3c fe 9d 2d bc 20 5f 48 bd 26 c0 3b 3d
       0.019700214 -0.01059675 -0.048918843 0.045837544
000260 5b c8 6f bc 32 cf 31 bc fb df b6 bc f0 7c c2 bc
       -0.014635171 -0.010852622 -0.0223236 -0.023741215
000270 74 94 13 3e 80 3d 02 bc 75 cf 21 ba 29 5f 2a 3d
       0.14412099 -0.007949233 -0.0006172576 0.041594658
000280 f4 69 18 bb 8a 4e 1d bd 48 25 4c bd 97 61 bf 3d
       -0.0023256512 -0.03840498 -0.04984024 0.09344786
000290 26 ce 4d bb 33 30 63 bc 95 de f6 3d 12 ba 08 3d
       -0.0031403392 -0.013866472 0.12054173 0.033380575
0002a0 25 fe 48 bd fe 95 0b 3d 82 87 0e 3e ed 0d 35 bd
       -0.049070496 0.03407859 0.1391888 -0.044202734
0002b0 3c 26 6f 3d a3 fe b0 3d 13 82 38 bd 0c a6 b1 3d
       0.058386073 0.08642318 -0.045045923 0.08674249
0002c0 b2 d9 8f bd a6 9e ef 3c da 45 87 3c 22 5f 1e bd
       -0.07023944 0.029250454 0.0165128 -0.038664944
0002d0 09 eb 66 3d cb ac ff 3c 4d a2 12 3d df ef 47 3d
       0.05637649 0.031210324 0.035799313 0.048812743
0002e0 9e 47 68 bd a8 f9 e0 3d dc 0b 4f bd 15 05 bd 3b
       -0.056708924 0.10985118 -0.05054842 0.005768428
0002f0 2a b3 c5 39 ea cb a4 bc a4 54 a3 3d f7 ec 55 bd
       0.00037708256 -0.020116765 0.07975128 -0.05222794
000300 30 08 88 bd f6 1d 75 bd a0 53 51 bd fa 04 87 3d
       -0.06642187 -0.059843026 -0.05110514 0.06592746
000310 0f a9 4e bd a9 00 0c 3e 92 d7 67 3c b2 d9 f8 bc
       -0.050454196 0.13672127 0.014150517 -0.030377243
000320 64 d7 e1 3d e0 18 d5 3d c7 d2 24 3c cf b7 e6 3b
       0.110274106 0.10405135 0.010060019 0.0070409547
000330 da e1 56 bd 73 dd 15 3c d8 3d 2f 3d e3 e6 67 bc
       -0.052461483 0.009147036 0.04278359 -0.014154169
000340 d3 31 57 3d b9 0c b8 3c 5b 23 46 bd 62 2c 99 3c
       0.05253775 0.022467004 -0.04837356 0.018697921
000350 d7 b3 4d bd 0f 5f 9c 3d bb 73 51 bd 32 5f 84 3d
       -0.050220337 0.076353185 -0.05113576 0.064634696
000360 bd 2c f6 3d bc b1 2f 3d 87 4a 80 bc 90 a5 03 3b
       0.12020252 0.04289411 -0.015660537 0.0020087697
000370 02 1c fa bc c0 e9 a2 3d 03 b3 dc 3d 02 e9 59 3d
       -0.030530933 0.079547405 0.10776331 0.05320073
000380 0e 96 1d bd 44 dc 6f 3b 27 fd 43 3c 9e 5c d9 bc
       -0.03847318 0.0036599794 0.011962212 -0.026533421
000390 01 ea 5f bd 52 18 f1 3d 17 9c 11 3e a7 70 78 3d
       -0.054666523 0.11772217 0.142197 0.06065431
0003a0 a9 80 ef 3d 6e 52 c8 3d 4a 45 ab bc d3 88 ea bc
       0.11694462 0.09781347 -0.020907063 -0.028629696
0003b0 aa fe 73 bd 1f 99 11 bd 46 83 78 bc f0 45 85 3d
       -0.05956904 -0.03554642 -0.015168017 0.0650748
0003c0 0d da b6 3d e5 4d 2c bd bf c0 da 3d fe 87 d9 3d
       0.08928309 -0.042066474 0.10681295 0.106216416
0003d0 28 7f 7f 3d 59 91 d8 3c f3 84 a4 3d 3c ee 79 3c
       0.062377125 0.026436495 0.080331706 0.015254553
0003e0 de e1 38 3d 69 72 38 3c 89 f7 c7 bc e9 91 ae 3d
       0.04513728 0.011257746 -0.024410026 0.08523924
0003f0 3b f8 e4 3a b0 5c a9 3c 03 ae ff 3c 02 34 cc 3d
       0.0017468998 0.02067408 0.031210905 0.09970857

net.4.bias f4 [14]
000000 dd 3a a2 3d 45 8a de bc 2a 31 0d bd 92 5c 61 bc
       0.079213835 -0.027165541 -0.034470715 -0.013754981
000010 61 fc 24 3c 9e 5b 7e 3b 7e 24 3a 3d fe 0c fe 3b
       0.010069937 0.0038811932 0.045444958 0.0077530136
000020 2d 56 61 bd af 85 91 bc 8e 35 66 3d 6c e0 b1 3c
       -0.055013824 -0.01776394 0.056203417 0.021713458
000030 5f 27 a7 3d c1 80 89 bd
       0.08161806 -0.06714011
