checkpoint/final/agent_0_value.pth (torch, 318621 bytes, 5 tensors)

net.0.weight f4 [256, 49]
00000000: 7cbe 23ba 4de3 c0bd c86b 01bc abbc d33d
00000010: 8ccf 653c b2d0 8a3d 00be 46be 98e9 ccbc
00000020: 48e3 443e b2dc 49be c9aa 4ebd d37f bebb
00000030: b1b0 513e e509 57be 4ed3 0dbe d50b d5bd
00000040: 39f2 1c3e 6207 7a3c 134d 00be 46be 9a3d
00000050: 580a 123e d508 61be dc7b d1bd 9a51 dabd
00000060: 571c 1ebd d3b8 cfbe 2e0f 82bc 372f 3bbe
00000070: 2f09 c0bd 26c8 8abe fafb 24be d58c 11be
00000080: 41d0 d0bc 5e5a 5dbe c2d0 3fbe f662 70bd
00000090: 894b 4b3d 7eba 10bc 35c4 bfbd b24a 6f3d
000000a0: b6ba ac3d 7a85 0e3d b41e 6b3d 9e4b 7b3c
000000b0: 9f0d 053e 57a9 78bd b0c6 13be 9985 763c
000000c0: 5ad5 2b3d 6a20 363e bf5a cfbb e363 48bd
000000d0: 642a 553d 982b ed3d 8049 653d de6b bbba
000000e0: f569 02be d257 433e 06d9 66bc 37fb 343d
000000f0: bce8 1b3c 9516 e1bc 898f 37be c074 463c
00000100: fd37 60bb 7da9 c73d 345b e3bd dfc3 883d
00000110: 0308 c93a 9ae4 b43d 4f5b 4dbe 8a89 3c3d
00000120: 3a1e c43d 1dee 05be 2385 733d 1add 59bb
00000130: 1af9 b93b f537 68bd dd6d 1dbd 28f9 083e
00000140: e243 2dbd 43d7 63bd ff1c f03c 2b53 bf3d
00000150: 7682 7ebd b52e 73bd 7923 3c3d 8091 d13d
00000160: 3c7c 853d 0604 9abd af75 d8bd b28f 463d
00000170: 06dc f83c 3e22 78bd 3981 3f3d 557e 553d
00000180: d119 23be a03d 86bd 8297 d13c 964a 58ba
00000190: 458c 3a3d f29e fa3d 8d68 813c c11d 85bd
000001a0: 3c93 73bd e7a4 e2bd 134f 1f3e e842 d4bd
000001b0: 0590 873d a813 993d 4c0a 063d ed41 51bd
000001c0: edb5 923b 4e95 e4bd 6f75 2a3e 59c0 05be
000001d0: b02e d6bc 6952 f03b a62d 5fbb 94dc 35be
000001e0: f665 893c 3a55 3fbc 26f9 93bd 3bd6 01bb
000001f0: ee4c 963d 9b40 69bd c61c 13bd bfb6 253d
00000200: 70a7 2cbd 4ba9 8c3c 0a10 01be 8afe c2bd
00000210: 77e4 d73d bbc8 99bd e8ab d63d 2f26 2dbe
00000220: 517c 0e3e 4300 f3bd 3d81 cbbd 7375 303d
00000230: e083 823d e1f4 52bb 74ea 123e 942c 36bc
00000240: 0ec1 02be 210c 18be 7e67 efbb b345 5c3e
00000250: 99e6 3a3d 9939 b3bc 891a bebc 705d aebd
00000260: 1d84 123e 5fed 9d3d 4721 553d 57a2 24be
00000270: 1ca8 563e 515d c13c 73f8 3bbe b929 18be
00000280: 8a89 0c3d f290 483e 7f54 8cbe fb39 473c
00000290: cd2a 15be ef4a 14bd d355 bebc 012f 49bd
000002a0: 1b8b a4bb 2c0a 1c3e 9628 693d 9642 d0bd
000002b0: 4eb1 a03d 5b76 c9bc d510 6cbc ca1d eabb
000002c0: 1614 0e3c 4eae c03c dbea e7bc 41e8 eb3c
000002d0: 2243 1f3c 98e6 b3bc 92d3 d3bc 7ed5 be3d
000002e0: 19af b53c eeb0 29be 1c4a 073e 1d67 1abb
000002f0: d406 16bd fe9e 9bbc 8ee5 87bd 3b3c cfbc
00000300: 3776 2fbd 565f ed3d 28e6 553d 639a a03c
00000310: af8d 503e 16b9 ddbd 17cf 4e3e 83fe ef3d
00000320: ac30 fb3d 3fc4 72bc ad06 6b3d 8ad3 dbbc
00000330: 4f62 6e3e cafe c73c ecaa 70bd 65de 1d3e
00000340: 27e7 293e b4fb 2c3d be09 8c3d 9e2a 073e
00000350: 1c49 013e d1a8 29be 2c4f 0a3e 49d4 c23d
00000360: 5cc1 0a3e d4ea d0b9 cbbe 343d 6c82 81bd
00000370: 7987 12bd 4c8b 26be 1b6c d93d be41 96bd
00000380: 5b28 a63a 595b a43d b8c7 ebbd b033 d1bd
00000390: 8528 0a3e 5ac1 89bd 31ea bebb f95b 9e3d
000003a0: 4dca e0bc 3b91 933d 070d 233c ab9f b1bd
000003b0: 569b 213d 5764 9ebd 1768 71bc 0fe3 abbd
000003c0: 87e1 febd 2df5 98bd 8b25 dcbd 98a6 46be
000003d0: 9096 d7bc b4f9 903d 3bbb b03d f648 5dbd
000003e0: 97f8 cb3d ec1e 9f3c eb0a 27bd 84a7 3ebe
000003f0: af07 033c 6ded 563e 00f0 80be 3a98 f33c
-0.0006246341 -0.09418354 -0.007899232 0.1033872 0.014026534 0.06778087 -0.19408417 -0.02501373
0.19227326 -0.19713095 -0.050455842 -0.0058135777 0.20477559 -0.20999868 -0.13850138 -0.104026474
0.15326776 0.015260549 -0.12529401 0.07555823 0.14261758 -0.21976025 -0.102287024 -0.106600955
-0.038601246 -0.40570697 -0.015876379 -0.1827973 -0.09376752 -0.27105826 -0.16111746 -0.1421388
-0.025489928 -0.21616504 -0.18731979 -0.058688127 0.049632583 -0.008833526 -0.093635954 0.058420844
0.0843405 0.034795262 0.057402328 0.015337853 0.12993477 -0.06070837 -0.14431262 0.015046501
0.041951515 0.17785802 -0.0063279564 -0.048923384 0.05204238 0.115805805 0.0559783 -0.0014299115
-0.12735732 0.1907647 -0.014089828 0.04418489 0.009515937 -0.027476588 -0.17925848 0.012112796
-0.003421306 0.09749124 -0.1110138 0.066779844 0.0015337471 0.08832665 -0.20054363 0.046029605
0.09576078 -0.13079114 0.05945314 -0.003324336 0.005675447 -0.05669399 -0.038434852 0.13376296
-0.042301066 -0.05562521 0.029310701 0.09342035 -0.062136136 -0.059370715 0.045932267 0.1023283
0.065178365 -0.07520299 -0.10569321 0.048476882 0.030378353 -0.06057953 0.046754096 0.052122433
-0.15927817 -0.06554723 0.02558494 -0.000825086 0.045543928 0.12237348 0.015796924 -0.06499816
-0.059466586 -0.11066609 0.15557508 -0.10364324 0.066192664 0.07474452 0.032724664 -0.051088262
0.0044772536 -0.1116129 0.1664636 -0.13061656 -0.02614531 0.007334043 -0.0034054308 -0.17759925
0.016772252 -0.011678034 -0.07225256 -0.001981153 0.07338892 -0.05694638 -0.035916112 0.040457483
-0.04215187 0.017170569 -0.12603775 -0.09521206 0.10541623 -0.075089894 0.10482007 -0.16909097
0.1391461 -0.11865284 -0.099367596 0.04308076 0.063728094 -0.0032189416 0.1434725 -0.011119027
-0.12768957 -0.14848377 -0.0073060384 0.21510963 0.04563007 -0.02187805 -0.023206012 -0.085139155
0.1430821 0.077112906 0.05203369 -0.16077553 0.20962566 0.023604067 -0.18356495 -0.14859666
0.034310855 0.19586542 -0.27408215 0.01215982 -0.14567108 -0.036204275 -0.023234284 -0.049117092
-0.0050214655 0.15238255 0.05692347 -0.1016895 0.07846318 -0.02459257 -0.01440831 -0.0071446644
0.008671781 0.023520615 -0.02831023 0.02879727 0.009720596 -0.021960542 -0.02585772 0.09318064
0.02217822 -0.165714 0.13211864 -0.0023559995 -0.036627606 -0.018996712 -0.06635581 -0.025297275
-0.042837348 0.115904495 0.052221447 0.019604867 0.20366548 -0.10826318 0.20196186 0.11718466
0.12265143 -0.0148172965 0.057379413 -0.026834268 0.23279689 0.024413485 -0.058756754 0.15416868
0.16592084 0.04223223 0.06837796 0.13199851 0.12625545 -0.16568305 0.13506764 0.095131464
0.13550323 -0.00039847812 0.044127267 -0.06323704 -0.035773728 -0.16264075 0.106163226 -0.07336758
0.0012676822 0.08025236 -0.11512703 -0.10214937 0.1349202 -0.06726332 -0.0058262576 0.07732386
-0.027440215 0.07205435 0.009951836 -0.086730324 0.03945478 -0.07733982 -0.01473429 -0.08392917
-0.1244536 -0.074686386 -0.10749348 -0.19399488 -0.026316911 0.07078877 0.086294614 -0.05402466
0.09959524 0.019423924 -0.040781897 -0.1861859 0.007997437 0.20989008 -0.25183105 0.029735673

net.0.bias f4 [256]
00000000: 1eb9 a1bc 0cc2 a43e e4ec 7b3e 762d 3b3e
00000010: c53a 443e b94e 0cbe bfdc 9a3e 6d9b 163d
00000020: 723a 87bd 5a48 ad3e e487 00bd ae6c cc3e
00000030: 70c2 9e3d c66e de3e 73a9 363c 546b ad3d
00000040: 61e3 9d3e a7eb 203e a8da 863d 6aa0 9b3e
00000050: 7b7e 38bd d6f2 7e3e 00c6 6e3d 9879 9bbd
00000060: cc9e d53d 2c3c 153c e68d 1c3d 8691 243e
00000070: df8e a03b e46b d73e ae0d c6bd 22aa f7bc
00000080: 9795 603e 037b 9a3d 2e31 c9bd 1621 4cbd
00000090: a817 b7bd 0e2e a53e cf19 603e dd86 b1bd
000000a0: 7786 32ba 0543 0a3e b35b e33d 8ca4 8d3e
000000b0: 026a 9f3e 8dff 423e c4cd a03e e0e5 a73e
000000c0: b75d c2bd e1e4 c6bd a2ec 883e 3294 2a3c
000000d0: ef52 4fbd da29 3d3e c8a3 233e cc25 10be
000000e0: cb9b b23e ce14 853e 90f1 323e 2d6b bbba
000000f0: da7d 2e3e 0921 1abd de54 89bd 8342 7bbd
00000100: 997c ef3e 7fc2 d73c 94d9 9abd f6ae 593e
00000110: eccf a43e 08b0 493c 7037 edbd cfb9 283d
00000120: 1c6e 203d ab5e 353e b78b 223e 43a6 c53e
00000130: a486 853e e933 52bd a480 893e 8b70 003e
00000140: 2997 993b 7a17 b23e 77a1 853e 9815 8a3e
00000150: c301 213e 323c af3c 4ea7 3dbd b904 823e
00000160: 54a0 cabd 9b25 9f3e d77c e0bd e1f3 893e
00000170: 4419 f7bd 3451 ad3e f80a 763d 2973 73bc
00000180: 45b5 6fbd 1905 fbbd b5be 7f3e abf4 1ebe
00000190: e279 513d 1809 863e 04c2 1c3d 41d6 c73d
000001a0: baf3 cb3e fdf4 173e 25d8 ca3e e3ad d0bd
000001b0: 14db f8bd 99c6 aa3e d74a 9d3e 7616 89bd
000001c0: 6636 cb3e e48f 0b3e 6885 c0bc a229 46bc
000001d0: cbb3 5c3e 530d 82bd 9b6b 14be 91c0 9b3e
000001e0: e815 6bbd f20b 0e3e 5a84 a3bc dcc2 953e
000001f0: 79ae f9bd 535e 0b3e 7c76 983e 4245 153e
00000200: c29c 3f3e b547 e3bc fa54 453d b6a7 1a3d
00000210: 4574 6e3e 4be7 cf3d cc7c 35bd ea3f ac3e
00000220: 2aff 543d 90ea 8ebd c7cf 743d 9c5b 453e
00000230: 5ae6 7a3e 9c5a 17be 8714 3fbd d0e3 d63d
00000240: d751 d93b bcfa 5c3e 0b86 113e f15a 853d
00000250: 24d3 a93e c8ae b93c e185 a73e cedd e73d
00000260: 6c23 6c3d 5dc9 28bd 63a4 31bc b3e1 8c3e
00000270: 9de6 8a3d 6886 1b3e 8ce9 203e 109d c83c
00000280: dabe 943e 0ad9 ab3e 1c9b bf3e e199 f0bc
00000290: b620 c23c 0379 af3e 2894 843e a9f7 a7bb
000002a0: c9dc ccbd 521d 1abd 5080 c3bd ada5 86bd
000002b0: 0ac6 1abe c739 6b3d 563a cfbd 7830 543e
000002c0: fd58 80bd 66a2 ad3d 419f bf3e 8a91 05be
000002d0: a68c 3abe e8ee 05be ae84 823d 0fe3 b6bc
000002e0: 1def ae3e 7c41 9e3e dfd4 f7bd 0e6c a6bc
000002f0: 98ef bc3d ea73 5539 bd06 35be 4cf8 813e
00000300: d67d 3abe 3b34 84bd 972d 8ebd d0a7 0f3e
00000310: 9da8 8ebd 3384 32be 7b5e 913e 6fb0 94bc
00000320: bba3 dabd 640c 513e 6a1b 873e eee0 95bd
00000330: 849a 853b 62ee 7abd 4431 88bd 2674 d73c
00000340: 6cd0 d73c f1e5 1cbc 3570 ac3e 739f 4ebd
00000350: c353 3b3e bc45 f0bd b536 273d 6bfd fb3c
00000360: 287d b73d 7402 c33c 8d12 863b aebb 16bd
00000370: d4ec c2bd 44ec 57bd c901 b03d b923 653e
00000380: df4d 2cbe f4d3 2dbc 9567 c03e 23b0 473e
00000390: cb12 d73e 2581 fdbc 2822 e73c 9f7e 3dbd
000003a0: 100d 9dbd e238 743c 743a 25bd 9cb4 853d
000003b0: f8db 4b3e 211c 8c3e a4ac 2a3e 3269 ab3e
000003c0: 6378 21bc 1003 06be 0fc6 b83c 2db6 bf3d
000003d0: c224 9abd ec09 5c3d 9535 3bbc 0de9 9a3e
000003e0: 89b0 a73e 77dd 9b3e dce0 ae3e 32e2 80bd
000003f0: 14e3 5c3d da44 553e 5990 fabd d2e5 14bd
-0.019741591 0.32179296 0.24602085 0.1827906 0.19163044 -0.13701905 0.3024654 0.03676932
-0.066029444 0.33844262 -0.031379595 0.39926666 0.0775193 0.43443888 0.011148798 0.08467737
0.3083754 0.15714894 0.06584674 0.30395824 -0.045042496 0.24897322 0.058294296 -0.075915515
0.10430679 0.009108584 0.038221262 0.16071138 0.004899844 0.42074502 -0.09670578 -0.030232493
0.21932064 0.07542994 -0.098238334 -0.04983624 -0.08940059 0.322617 0.21884845 -0.08668301
-0.0006810198 0.13502128 0.111014746 0.27664602 0.31135565 0.19042797 0.31406987 0.32792568
-0.09490531 -0.09711624 0.26743037 0.010411309 -0.0506162 0.18472996 0.15980446 -0.14076918
0.34884486 0.25992435 0.17474961 -0.0014298909 0.17040196 -0.03762916 -0.0670564 -0.061342727
0.46774748 0.02633786 -0.07561031 0.21258149 0.32189882 0.0123100355 -0.115828395 0.041192826
0.03916751 0.17711894 0.1587361 0.3860341 0.26079285 -0.051319037 0.26855958 0.12542932
0.004687209 0.34783536 0.2609975 0.269696 0.15723328 0.021391008 -0.046302132 0.25394228
-0.098938614 0.31083378 -0.10961311 0.26943877 -0.12065366 0.33851016 0.060069054 -0.014858999
-0.05852248 -0.12256832 0.24975093 -0.15523021 0.051141627 0.26178813 0.038270965 0.097576626
0.39834386 0.1483955 0.3961803 -0.10189416 -0.12151161 0.33354643 0.3072116 -0.06693737
0.3968994 0.13629109 -0.023501113 -0.012094887 0.2155296 -0.06350198 -0.14494173 0.30420354
-0.05739394 0.13871744 -0.019960571 0.29250228 -0.12191481 0.136102 0.29777896 0.14577201
0.18712142 -0.027744154 0.048176743 0.037757598 0.23286541 0.101515375 -0.04430847 0.33642513
0.052001156 -0.06978333 0.059768464 0.19273227 0.24501935 -0.14780658 -0.046650436 0.104926705
0.0066320705 0.21580023 0.1421129 0.06511486 0.331689 0.02266635 0.3271933 0.11321603
0.05765097 -0.04120766 -0.0108424155 0.27515945 0.06782267 0.1518799 0.15714091 0.024488956
0.29051858 0.33564025 0.37423027 -0.02937025 0.023697238 0.34272012 0.25894284 -0.005125959
-0.10003049 -0.03762562 -0.09545958 -0.06574569 -0.15114608 0.057428148 -0.101185486 0.20721614
-0.06266973 0.08478241 0.3742619 -0.130438 -0.18217716 -0.13079417 0.06372963 -0.022325067
0.34166804 0.30909336 -0.12101149 -0.020315196 0.092253864 0.00020356444 -0.17678352 0.25384748
-0.18212065 -0.06455275 -0.06942289 0.14028859 -0.06965754 -0.17433242 0.28392395 -0.018150536
-0.1067576 0.20414883 0.26388103 -0.073182926 0.0040772576 -0.061262496 -0.06650022 0.026300501
0.0263445 -0.009576307 0.33679357 -0.05044503 0.18293671 -0.11732051 0.040823657 0.030760488
0.089594185 0.02380488 0.004091567 -0.03680008 -0.09517828 -0.052715555 0.085940905 0.22376908
-0.1682658 -0.010609616 0.37579027 0.19500785 0.42006525 -0.03094537 0.02821453 -0.046263333
-0.07668507 0.01490614 -0.04033895 0.06528589 0.1990813 0.2736521 0.1666742 0.33478695
-0.009855363 -0.13087106 0.02255538 0.09360919 -0.07526542 0.0537204 -0.011426349 0.3025593
0.32751873 0.30442402 0.3415593 -0.06293143 0.053927496 0.20827046 -0.122345634 -0.036351986

net.2.weight f4 [256, 256]
00000000: 9db3 4b3d 5672 f03d 18cf fbbc 193c 06bb
00000010: 4933 92bd 35f2 883d f667 a13c 7715 693d
00000020: 7d26 8b3d 8c61 c9bc 8f88 57bd 2a0c 80bc
00000030: f46f b43d c96b 06bd ee99 473b 311a 173d
00000040: 0cfa 913c 6ce0 e43b 1aba 1abe 1c52 09be
00000050: 08b2 77bd 7202 63bb 9910 e0bd a4b6 963d
00000060: 97e5 aebd 523c 453d 0fb7 963c 45e1 5d3c
00000070: e2d2 43bb 62e9 53bc 85d3 fc3c a975 0d3d
00000080: 58cf f13c 00cd 98bd bf2d 073d 5128 c23d
00000090: 9c38 9dbc 775f d03b 618d aebc b215 f2bd
000000a0: 1f71 deb9 3d64 ca3d 08a8 933d 1672 b93d
000000b0: c72d 39bd a3a5 fdbd f179 bdbd 5ba7 c23d
000000c0: 29ab 803d fd09 8fbd b3af 4f3d 2b6a bb3d
000000d0: 1da3 403d 8783 48bd 67a3 e43c 5444 573d
000000e0: 2574 38bd a4c4 2abe bf99 48be 2d54 923d
000000f0: a56f 89bd f0c4 43be cbb2 a83c 96c0 bc3c
00000100: 8764 183c 2183 403b 2005 563d a01b 863c
00000110: 1e60 b6bd f7b2 bb3c a6d5 98bb cbf3 063e
00000120: c21f 22be bd4b 6ebc 4d8f a73c 6ea3 14bd
00000130: 727f 4a3d 0f4e 093e 0531 32bd 780f aebd
00000140: 6b16 e1bd 9905 4ebd b5ba 593d 3486 16bd
00000150: 423f 0dbd 9139 14bb 5320 12bc d698 03bd
00000160: 38bc 53bd 4bbb 0d3c 897e a3bd 6dcd 9dbd
00000170: 5829 7f3d b3e3 2a3d 6b97 0e3c 159d bdbc
00000180: f9be ac3d 180c f13d 29c7 623d df9b 12be
00000190: 1a3f 963d 8065 8dbd 2c08 483d e843 fbbc
000001a0: da4e 8b3c 66b2 dbbc ec04 5abd 1199 e93d
000001b0: 6344 a73d c44c fabb 61c5 36bd 6dc4 d03c
000001c0: c047 ae3d 13aa 853d f0ee babd a8e6 023d
000001d0: 2c4e 683c 7545 143c 6cb7 2abd 6069 c7bd
000001e0: 1cf6 543d 61b5 47bd d7ec cd3d 5b82 aa3b
000001f0: eadd dd3d 639f 73bd 9fe6 e3bd 3e5e 29be
00000200: 719d c1bb 4b74 b1bd c9b8 8dbc 9ec5 73bc
00000210: 6278 abbd 97c1 4fbd 892d 5d3d 319a 0fbd
00000220: 8158 a03d d3dd 113d ffc4 493d 4408 f8bc
00000230: 112c 2b3d 6a3c f53c 912e bf3d 40f5 4dbc
00000240: 927e 1d3d 83d3 013d 7359 12be d315 a43c
00000250: 25b1 dbbd 20f2 9b3c af75 06bc 091e 063d
00000260: 71a5 e83d 4426 2e3d 3d76 3a3e 4404 0dbe
00000270: 2f12 9cbd 4d53 03bd eceb 023e 371b 70bd
00000280: 30af 0bbe d8fe 003d 7556 f1bd 2a23 853d
00000290: b873 683c 2d44 773d c70a b0bd 910f 7e3d
000002a0: 4b9e 2ebe 575b 573d 25c0 293e 2c62 6ebd
000002b0: 0302 e5bb ac58 a93d 0988 a0bd 134b 833d
000002c0: 12a7 e6bd e59a a93d 397e d2bd 0642 143c
000002d0: f098 9139 4298 23bb e474 543d 0b81 6cbc
000002e0: 3389 51bd 254f 8cbd c76d a3bd d5a4 e9ba
000002f0: f915 f43c d8c7 8e3d 94e3 82bc 2f68 85be
00000300: 280b 0a3c cdfd 6f3d e84e 5cbd b275 3abd
00000310: adba 653d d1b1 95bd 51f4 a23d d1f1 323c
00000320: 28d2 cd3d b3d6 4b3d 6c21 8b3d 82c5 5d3d
00000330: f87d 4f3d 4bda 5abd b622 533d cf05 f03c
00000340: a87e 713d 0a9e 103c 1418 383d 3c88 7abc
00000350: e637 08be 17d8 9e3d 575a 913c cb4e 873d
00000360: a716 39be 8a10 cb3d 22a0 fa3d 7fb5 43bd
00000370: feb1 9e3c 8d61 823c 7251 ba3d dc93 1a3d
00000380: 8421 2ebc 6a65 d63c 4a31 edbd 56fb 2fbd
00000390: d35d 11be 4b50 353d f807 7dbd 0a3c 12be
000003a0: 5d78 733d 52b1 48be 89e1 dfbc 1550 53bd
000003b0: 5ebc 10bd 42e2 45bd 79b1 0fbe 9183 2fbe
000003c0: 357f a43d 92f3 983d 0444 763d c8d9 973d
000003d0: 6126 e3bd f859 143e 636f 353c eb75 ed3c
000003e0: 6976 26bd 3237 133d c278 743c 05f3 a93d
000003f0: ec02 9fbb b011 d7bd d346 193d dff2 5b3c
0.04973184 0.11740558 -0.030738398 -0.0020482598 -0.07138688 0.06686822 0.019702893 0.056905236
0.067944504 -0.024582647 -0.052620467 -0.0156308 0.08810416 -0.032817636 0.003045674 0.036890212
0.017819427 0.006984761 -0.15110055 -0.13410228 -0.06047252 -0.0034638909 -0.10940666 0.07359055
-0.085398845 0.04815323 0.018397836 0.013542478 -0.0029880335 -0.012934061 0.03086258 0.034536038
0.029517815 -0.07460976 0.03300261 0.09480346 -0.019192033 0.0063590365 -0.02130765 -0.11820544
-0.0004242742 0.098824 0.07209784 0.09054963 -0.045209672 -0.12385108 -0.09251774 0.09504577
0.06282646 -0.06984327 0.05070467 0.09151109 0.047030557 -0.04895356 0.027909948 0.052555397
-0.04503264 -0.16676575 -0.195899 0.071449615 -0.06710748 -0.19118094 0.020593068 0.02304105
0.009301311 0.0029375034 0.05225098 0.016370595 -0.08905052 0.022912486 -0.0046641408 0.13178937
-0.15832427 -0.014544425 0.020454073 -0.03628867 0.049437948 0.13408683 -0.04350378 -0.08499044
-0.10990604 -0.050298307 0.053156573 -0.03674908 -0.034484155 -0.002261732 -0.0089188395 -0.032128178
-0.05169317 0.008650611 -0.07983119 -0.077051975 0.062295288 0.041721057 0.008703093 -0.023146192
0.08434863 0.11769885 0.055365715 -0.14317273 0.073362544 -0.06904125 0.04883592 -0.030672029
0.017005373 -0.026818465 -0.05322735 0.11406148 0.081673406 -0.0076385457 -0.04462183 0.025484288
0.08509779 0.0652658 -0.09127605 0.031958252 0.014178794 0.009049763 -0.04167883 -0.097368956
0.05199252 -0.04875696 0.10054939 0.005203528 0.108333424 -0.059478175 -0.11127972 -0.16539857
-0.005908661 -0.08664759 -0.017300026 -0.014878659 -0.083725706 -0.05072173 0.053998504 -0.035059158
0.07829381 0.03561194 0.049260136 -0.030277379 0.041790072 0.029936034 0.09335054 -0.012570679
0.038450785 0.031695854 -0.14291935 0.020029938 -0.10727147 0.019036353 -0.008206769 0.032743488
0.113596804 0.04251696 0.18209167 -0.13771158 -0.07620656 -0.032061864 0.1278531 -0.058619704
-0.13641047 0.031493038 -0.117840685 0.06500848 0.014187746 0.060367752 -0.085958056 0.062026564
-0.17052571 0.052577343 0.16577204 -0.058199093 -0.006988765 0.08268866 -0.07838447 0.06410804
-0.11262335 0.08281497 -0.10277981 0.009048944 0.00027770502 -0.002496258 0.051869288 -0.014435063
-0.051156234 -0.06851033 -0.07979923 -0.0017825613 0.029795634 0.06971711 -0.015977658 -0.26056048
0.008425511 0.058591653 -0.05378619 -0.0455224 0.05608623 -0.073093064 0.07956756 0.010921911
0.1004985 0.0497653 0.06793484 0.054143436 0.050657243 -0.053430837 0.051546775 0.029299645
0.05895868 0.008826742 0.044944838 -0.01529127 -0.13302574 0.077560596 0.017743273 0.066068254
-0.18075047 0.09915264 0.12237574 -0.04778051 0.019371983 0.015915656 0.09097566 0.037738666
-0.010628108 0.026171405 -0.11581667 -0.042964302 -0.14195947 0.044266026 -0.061775178 -0.14280716
0.05944096 -0.19598892 -0.027329223 -0.051590044 -0.03533589 -0.04831148 -0.14032544 -0.17140032
0.08032075 0.07468332 0.06012346 0.07414585 -0.110913046 0.14487445 0.01107392 0.028986892
-0.04064027 0.03594131 0.014921369 0.082983054 -0.0048526432 -0.105014205 0.03742106 0.013424604

net.2.bias f4 [256]
00000000: 34a6 ecbb d42b 35bc fe16 913e 1d6d 863e
00000010: 0993 0a3d 17e1 513d 6a01 d93a a73b 97bc
00000020: 6b3c 88bd 24d6 563e f607 583d 3aec 28bd
00000030: 71a3 993e 483f c83b 90bc 8f3e de96 9d3e
00000040: 7e7a e1bd 7c4c 58bd 5298 dcbc a196 f2bc
00000050: 2e4e d6bb 74b9 98bc 8a94 9dbd b93a 443d
00000060: bcf4 8c3e c29a 17bd a25b 173c fcaa 353c
00000070: 7dcf 77bd fc7c 81bd 7fb1 a53e ed55 483d
00000080: 5801 99bc eac1 953e 22e4 3ebb 8598 713c
00000090: 3dc3 4e3e 20f2 a8bc 56a5 7bbd e99d 6dbd
000000a0: 37da 0bbe 89d5 7e3e 56cd 20bd ba82 813e
000000b0: ed98 ebbc b372 7b3c 5efe 8dbd ae17 7a3e
000000c0: 0194 e7bd a67e 8bbd 06f0 ad3e 2244 203d
000000d0: b980 77bd 86c6 813c 4efb 593e 3c18 10bc
000000e0: 5664 08bd 7beb 283d 7a70 0d3d 1a82 a03e
000000f0: 95df 3dbd 2f1a 783b 6c4a cabc 1bb1 653e
00000100: f9ab 41bd a7e6 a8bb a2c3 a03e b56d 9a3e
00000110: 61e5 a0bd ac6d 8c3e 9f6e fcbb 1d53 d3bb
00000120: f70e 07be bc54 8c3e 6240 4a3d e20e 633e
00000130: d859 873e 075b febd e1bf 1b3d 25db ecbc
00000140: 92e3 16be 027d 99bc 287e 3a3e 1407 28bd
00000150: 59f3 3dbc 34c7 51bd b0d1 a03e 6902 403d
00000160: 4933 a13e bfee 4c3d b8c3 a23e 32ba 6f3e
00000170: 5444 12be 5b75 ad3e bedb cbbd d534 0cbe
00000180: 8f08 843e 09db 413e 5a39 75bd 0f9e 9fbd
00000190: b6c8 053e e621 b73c a22b dbbc 0f3c 243e
000001a0: ff1c 17be 2164 2e3d 9e16 283e f0d3 203d
000001b0: 52cd 99bd 3b8b 42bd fcda 77bd 36b0 3a3d
000001c0: b22a 953e bf95 213e d3c5 b5bb eef5 7a3e
000001d0: 9829 f9bc 86a1 443e 51d4 39bd ae4a 833e
000001e0: 1719 92bd d283 70bb c82b bbbc 4047 77bd
000001f0: 575c 743e 27b7 e53c 1365 dcbc b52e eebc
00000200: 126c 46bd b035 d7bb ab0e fa3d 8861 10be
00000210: e140 a1bd a8d3 4e3e aea9 9a3e 6700 8dbd
00000220: 9161 86bd d8a1 853e f7be eabc 02b3 423b
00000230: 5e92 963b a271 613e 9e3f 8c3e fed6 7ebd
00000240: 8c8f e7bd cc43 87bc 02a4 89bc 446d db3d
00000250: aa2d e8bd 08f8 8d3e 5277 6b3d 7836 ddbd
00000260: 9ed4 b13c 9826 0dbd 68d0 0abd e0fe fabc
00000270: daf8 da3c 7a1e fb3c 5598 81bd 6133 14b9
00000280: 84c2 2d3d 9510 e1bd 180b 8e3e 9c33 863e
00000290: f77d 7ebc d028 ea3b bc33 973e fdab 6dbd
000002a0: 831b 7e3e 9c8c 823c cbef 453c a184 95bd
000002b0: 88d8 70bd 786c 993e 6c1e f63d 4323 1c3e
000002c0: b1b1 aa3c cbee 0a3d dc51 a4bd 0f42 06bd
000002d0: ff24 bfba fe1d 833e e87a 65bd 7f50 3f3e
000002e0: 3d1c c3ba f33b 3cbd 8bba 84bd 1817 1cbd
000002f0: 9cf7 a93e 11dd a3bd 4f4b 923c 8846 26bb
00000300: 167f 3a3e ace2 59bd 30d1 783e ee16 683e
00000310: ca75 803e e5ee 6ebd 14e9 2d3d 4c09 e1bc
00000320: 9a5c 363e 2d33 32bd 3855 6a3d 2808 f63a
00000330: 2385 0bbd c385 9f3e e5aa bcbc be86 2ebe
00000340: 7ada b93c 7759 1e3d 34f3 473d 6319 88bd
00000350: f04e 323d cb21 95bd 71d2 693e 7aab b2bc
00000360: e341 abbc 3648 963e bb9e 9fbc b7be 42bc
00000370: be33 ad3e ceb3 50bd 124a b2bc 0056 f2bd
00000380: d9bf 8d3e c876 f13c 6473 883e 4907 4c3c
00000390: cedc 993e dc2e 363e b747 043d e680 943e
000003a0: 81d1 a23e 3cfe 4dbd 5276 44bc 45e6 953d
000003b0: 189a 1d3e 4404 8a3e bd6a 9b3e 3b39 bfbd
000003c0: 8da6 8abc b368 d63c 597d 05be eecf 24bd
000003d0: 823d 2f3e 6b58 53bd 957e f1ba 152f 833e
000003e0: 2158 8f3e bf35 14bd f28a 993e 8e27 53bc
000003f0: f0af 94bc c6b3 babb 39dc 27bd cd30 89bd
-0.0072219614 -0.011057813 0.28337854 0.26255122 0.03383163 0.051240053 0.0016556208 -0.018461062
-0.06652149 0.20980126 0.052741967 -0.04124091 0.30007508 0.0061110593 0.2807355 0.30779165
-0.11009692 -0.052807316 -0.0269281 -0.029612841 -0.0065400815 -0.018643118 -0.07694347 0.047907565
0.27530468 -0.037012823 0.009238156 0.011088129 -0.06050061 -0.06322667 0.3236198 0.04891007
-0.018677399 0.29249507 -0.0029127677 0.014745836 0.20191665 -0.020623267 -0.061436974 -0.058011923
-0.13657461 0.24886145 -0.039258324 0.2529505 -0.028759444 0.015347171 -0.06933282 0.24423096
-0.113075264 -0.06811266 0.33972186 0.039127477 -0.060425494 0.015841734 0.21287271 -0.00879484
-0.033298813 0.041240197 0.034531094 0.3134926 -0.046355803 0.0037857404 -0.02469369 0.22430842
-0.047283147 -0.005154449 0.31399256 0.30161825 -0.078562506 0.27427423 -0.0077036167 -0.006449117
-0.13189302 0.27408397 0.049377806 0.22173646 0.26435733 -0.12419706 0.038024787 -0.02891309
-0.14735249 -0.018736366 0.18212187 -0.041022375 -0.011593663 -0.051215366 0.3140998 0.0468773
0.3148444 0.050032374 0.31789947 0.23410872 -0.14283878 0.33878598 -0.09954022 -0.13692029
0.2578778 0.18931212 -0.059869148 -0.07793819 0.13064846 0.022355031 -0.026754204 0.16038536
-0.14757155 0.04257596 0.16414878 0.03926462 -0.07509865 -0.04749606 -0.060511574 0.045578204
0.29134136 0.1577978 -0.005547264 0.24507877 -0.030415341 0.19202241 -0.045368496 0.25642914
-0.07133692 -0.0036699665 -0.022848025 -0.060370684 0.2386335 0.028041435 -0.026903665 -0.029075006
-0.048442908 -0.0065676793 0.12209829 -0.14099705 -0.07873703 0.20197928 0.3020758 -0.06884842
-0.06561578 0.2610004 -0.028655512 0.0029708748 0.004595085 0.22016004 0.27392286 -0.06221675
-0.11306676 -0.01651182 -0.016801838 0.107142 -0.11336835 0.27728295 0.05748684 -0.10801405
0.02170783 -0.034460634 -0.033890158 -0.030639112 0.02672999 0.03065418 -0.06327883 -0.0001413352
0.042421833 -0.10989491 0.2774284 0.2621125 -0.015532962 0.0071459785 0.29531658 -0.05802535
0.24815182 0.015936188 0.012081097 -0.073006876 -0.05880025 0.29965568 0.12017521 0.15247826
0.020836683 0.033919137 -0.08023426 -0.032777842 -0.0014583169 0.2560882 -0.056025416 0.1868305
-0.0014885735 -0.04595561 -0.06480893 -0.03810796 0.33196723 -0.080011494 0.017858176 -0.002537163
0.18212542 -0.053194687 0.24298549 0.22664997 0.25089866 -0.058333296 0.04245861 -0.027470253
0.17808762 -0.043505836 0.057210177 0.0018770741 -0.034062516 0.3115674 -0.023030708 -0.17043588
0.022687186 0.03865954 0.04881592 -0.06645467 0.043532312 -0.07281836 0.22834183 -0.021810282
-0.02090544 0.29351968 -0.019484868 -0.01188629 0.3382854 -0.050952725 -0.021763835 -0.118328094
0.2768543 0.029475585 0.26650536 0.012452909 0.30051273 0.17791313 0.032294955 0.29004592
0.31800464 -0.050291285 -0.0119911 0.07319311 0.15390813 0.2695638 0.30354872 -0.09337088
-0.01692512 0.026172971 -0.13036098 -0.04023736 0.17113307 -0.051597994 -0.0018424565 0.25621858
0.27996925 -0.03618407 0.2998882 -0.012887849 -0.0181503 -0.0056977 -0.040981505 -0.06698761

net.4.weight f4 [1, 256]
00000000: 3ab5 dabd 8659 e43c 0d0c 0e3e 431d 833d
00000010: 6d78 9ebd fc61 133d d298 f4bd db9d 3bbd
00000020: 1f57 4cbd 4b30 083d d560 623c dba6 8fbd
00000030: aae4 013e 8df5 7dbd d719 a03d aea8 b83d
00000040: ef8a 8abd 9bc5 a73a 8ef4 f2bd b368 a5bb
00000050: 7023 67bd 0db6 b0bd 985e 68bd 63ff afbd
00000060: b2fc f73d dfe7 b03b fbf3 5dbd 9764 b53c
00000070: b153 d8bc 1c6a abbd 15d9 3c3e 6185 90bd
00000080: 7626 fbbd 3393 d73d 23d8 96bd 8ac2 d83c
00000090: 783d 413e d2b0 5dbd 1222 87b8 a570 92bd
000000a0: aaf7 68bd 592a cf3d 67de 8dbd c03b ba3d
000000b0: 95a0 17bd 21ff 88bd 0dfd 123c aeaa cc3d
000000c0: dc25 91bd 3112 8cbd 2a8e 323e 551a d5bd
000000d0: 51ea 76bd 1f1b d6bd d6ef 2a3e 2dc2 dabd
000000e0: f4e1 cfbd 63dc 82bd 9d7c a1bd 608a eb3d
000000f0: 30a5 07bd df69 01be ed92 bebc d89a ed3d
00000100: 0421 6dbd 9771 92bd b432 ec3d 55ae c33d
00000110: 48c1 00bd 411d fc3d bd6c bbbd c009 e5bd
00000120: 4929 26bd b9c0 8d3d bb44 aebd e77a 6c3d
00000130: e887 f23d 5fc9 32bd 672d 263d 5fe3 70bd
00000140: d4e8 5cbd b800 7dbd 21aa b03c 7ac4 84bd
00000150: e410 433d 4bfc c9bd 0348 f43d efd3 b7bd
00000160: 9c9a b73d 76f8 f9bd 7f0b bd3d 9310 9b3d
00000170: d8d3 32bd b5b3 1e3e 97d7 18bd 0777 58bd
00000180: c8c9 1c3e b017 623d d4dc 23bd 80c2 bbbd
00000190: 1883 173d 07a6 c6bd 0bf0 fdbd 0470 8c3c
000001a0: f478 4bbd 27e4 053c eaaa 433e a63e 02be
000001b0: bf41 85bd 8e81 98bd 6e70 2a3d 911e d3bd
000001c0: a994 2a3e a5e0 653d a5ad 3a3d 1c71 c83d
000001d0: a8d2 c8bd b970 d73d f518 f8bd 5cfe c33d
000001e0: 9adc 073d b518 ddbd c3ec 323c cd63 9fbd
000001f0: abad 4d3d ede7 e1bd 978d e0bd 27da c7bd
00000200: 5a5a f03b 43ca ddbd 5e69 103d 56c0 1abd
00000210: b556 81bd 70da cc3d 1dc1 023e 15df 23bd
00000220: d46d 6e3c 058d d03d f652 2ebc dcc5 9fbd
00000230: 32a8 ecbd c143 a73d 6db2 863d 2d47 a4bd
00000240: a44a 6ebc f7e9 81bd 1e74 81bd d933 333d
00000250: da67 64bd 62ae 1d3d fe9c e13c c826 44bd
00000260: 4264 8abd 202e 98bd ee8c 9ebd fbe5 2fbb
00000270: ba96 c6bd ddf4 b2bd 65fd 50bd fb8d b1bd
00000280: 2e67 fabd 62b2 a3bd 6740 b53d 34c9 4a3d
00000290: 1a67 55bd 0572 81bd 76e6 e23d 55a4 86bd
000002a0: 9cbd e73d e28a d3bd a0d2 a5bd 344b 44bd
000002b0: 039d a5bd 4726 f73d 9e83 023e 89dc 2f3d
000002c0: 870d aabd e9c9 74bd 7400 fabc 9900 debd
000002d0: 1c1a afbd 4acc 143e 4175 d93c 68d2 5a3d
000002e0: a3ed 9dbd 8d94 80bd 2c8c 76bd be3d cfbd
000002f0: 1ad5 163e 7bdf 8bbd ff2d dcbd a1be a4bd
00000300: 0245 7b3d 7cb3 933c 16ed 993d 18a2 253e
00000310: ad25 0d3e f800 a7bd 9cdb 90bd 6927 c6bd
00000320: aa36 433d 6c4b 293d 89db d1bd 3572 a9bd
00000330: b995 a2bd 8239 063e d978 373c 2c1c 9cbd
00000340: 640f 9ebd 177c bfbd 1368 b53c ab89 92bd
00000350: 97ba 683d 4f76 b2bd b8e4 953d f6b2 f0bd
00000360: 8983 5b3d 41bc 0b3e 82db b9bd 3546 d5bd
00000370: 535d 1b3e 4eab e13c 147b a9bd 2e09 a0bd
00000380: 2b88 213e cf1a 0abe 0031 1d3e b154 d7bd
00000390: 1f0f 2e3e 8fd8 793d 857e 1b3b 535f cd3d
000003a0: 72c8 0e3e a009 00bc df34 2fbd 0148 f33c
000003b0: 9954 3e3d 0408 f93d 84e8 0a3e bb18 b4bd
000003c0: 7d96 10be 5c5c 74bd c6dc 80bd 226c 1bbd
000003d0: e93f b73c 41fe 813c 3f2a c0bd 25a6 193e
000003e0: fcdc 003e b75c 95bd a9dc 953d 8c5b 343d
000003f0: 5e18 213d b9c9 8b3a b7fb 6fbd 0303 bc3c
-0.106790975 0.02787472 0.13871785 0.064020656 -0.07737813 0.035982117 -0.11943211 -0.04580484
-0.049887773 0.03324918 0.013817032 -0.07014247 0.12684885 -0.062001754 0.078174286 0.09016548
-0.06764781 0.001279998 -0.11863051 -0.0050478815 -0.05643028 -0.086284734 -0.056730837 -0.08593633
0.12108745 0.005398735 -0.054187756 0.022142692 -0.026407095 -0.08369848 0.18442185 -0.0705669
-0.12263195 0.10526123 -0.073654436 0.026459951 0.18871105 -0.054123707 -6.443648e-05 -0.071503915
-0.056876816 0.10115499 -0.069271855 0.09093428 -0.037018377 -0.06689287 0.008971465 0.09993492
-0.07087299 -0.06839407 0.17437044 -0.10405413 -0.060282055 -0.10454392 0.16693053 -0.10681567
-0.10150519 -0.06389692 -0.07885096 0.11501002 -0.03311652 -0.12638043 -0.023263419 0.116018
-0.057892814 -0.07150572 0.11533108 0.095547356 -0.031434327 0.12310267 -0.091515996 -0.111835
-0.040566716 0.069215246 -0.08509203 0.057734396 0.11842328 -0.043649074 0.040570643 -0.058810588
-0.05393298 -0.061768264 0.021565499 -0.064827874 0.04762353 -0.09862574 0.11927798 -0.0897597
0.08965036 -0.12205593 0.09230708 0.07571521 -0.04365906 0.1549824 -0.037314977 -0.05284789
0.15311348 0.05519837 -0.04000552 -0.09167957 0.036990255 -0.09699636 -0.123993 0.017143257
-0.049675897 0.008172072 0.19108167 -0.12719211 -0.06506681 -0.074465856 0.041611128 -0.103085645
0.16658272 0.05612244 0.045575757 0.09787199 -0.098058045 0.10519547 -0.12114135 0.095699996
0.033169366 -0.10795728 0.010920706 -0.07782707 0.05021445 -0.110305645 -0.10964506 -0.09758406
0.0073349895 -0.10829594 0.035256736 -0.037781082 -0.06315366 0.10002601 0.1276898 -0.04000767
0.014552552 0.10183147 -0.010639897 -0.078014106 -0.11555518 0.0816722 0.06577001 -0.08021388
-0.014544163 -0.063434534 -0.06320976 0.043750618 -0.055763103 0.038496383 0.02754068 -0.047888547
-0.06757404 -0.07430673 -0.07741724 -0.002683996 -0.096967176 -0.0873811 -0.051022906 -0.08669659
-0.12226711 -0.07993008 0.088501744 0.04950829 -0.05210028 -0.063205756 0.11079113 -0.065743126
0.11315462 -0.10329224 -0.08096814 -0.04792328 -0.08086588 0.12067848 0.1274552 0.042934928
-0.083033614 -0.05976287 -0.030517794 -0.10839958 -0.08549902 0.14531055 0.026545169 0.053423315
-0.07711341 -0.06278334 -0.060192272 -0.10119198 0.1472973 -0.06829735 -0.107509606 -0.08044172
0.061345108 0.01802992 0.07515924 0.16175115 0.13783903 -0.08154482 -0.07073137 -0.09675486
0.047659554 0.041331694 -0.10246951 -0.082737364 -0.079387136 0.13107875 0.011198246 -0.07622561
-0.07717779 -0.0934984 0.022144353 -0.07155164 0.05681857 -0.08713972 0.07319015 -0.11752884
0.05359224 0.13646032 -0.09075071 -0.104137816 0.15172319 0.027547505 -0.082754284 -0.07814251
0.157746 -0.13486789 0.15350723 -0.105142005 0.16997956 0.060997542 0.0023726535 0.10027947
0.13943651 -0.007814795 -0.04277503 0.02969742 0.046467397 0.12159732 0.1356526 -0.087937795
-0.14119907 -0.059658393 -0.06292109 -0.03794492 0.022369342 0.015868308 -0.09383058 0.15004785
0.12584299 -0.072930746 0.07317478 0.04403262 0.03932988 0.0010664976 -0.058589663 0.022950655
