checkpoint/final/agent_1_policy.pth (torch, 331945 bytes, 6 tensors)

net.0.weight f4 [256, 49]
00000000: 33f1 a0ba bdd0 a0bc df6e 113e 74e1 3dbd
00000010: 374e de3d 5179 c4bb fcd4 d9bd 9e44 553d
00000020: f19d b3bd 266d 703d a3bb ddbd 65b9 21bd
00000030: 34b8 983d c825 7ebd b9ca aebd 238a 03be
00000040: d31d 9a3d d117 8d3d bc7d 8fbd abc6 833d
00000050: 5b44 6dbc 97b4 0dbd 8941 1e3d 011c e9bd
00000060: 3cbd 1f3e 5e49 e73c db46 ebbd 57f2 10be
00000070: 25fb 57bd 7e3d d83c d2c6 2fbe 23ad c0bc
00000080: 220a 30bc 0e4f cebc 0f47 043d a940 86bc
00000090: 29ef 23be e022 74be a2a8 a6bd 3138 6a3b
000000a0: a3a4 98bc cb10 e4bd 5401 57bb 67d9 00be
000000b0: 6580 c73d 6189 04be 6acb ed3d aac9 e6bd
000000c0: 9a98 af3c 6644 e03d fe06 a0bd 7a7f 203e
000000d0: dd4d 263e 87e8 b93d 9860 c23d febc 88bd
000000e0: 7246 15bc 8002 debd 9da4 1d3d 1d3e e7bd
000000f0: 8230 1bbd d794 70bd 7171 883d 52ba dc3d
00000100: fe42 eebd 066c ecbd b5a1 f93d d5ee a5bc
00000110: 9235 2a3d 02b5 a53b c860 f93d 9770 4a3d
00000120: aff3 de3c edc2 d2bd a084 363d 4ee6 b33b
00000130: 6ee0 d2bd 051d 083c 43ad 903c 0d1e e5bd
00000140: 0cff 5a3c 0cf9 863d 0b8c 3239 43e2 6ebd
00000150: d9c7 98bd 45fc adbc 6b5b 20bd 2028 b4bd
00000160: f94f 2fbc a50d 873c 0eca 78bd 9d86 0ebd
00000170: ea2c d73d ee4c 9ebc 6114 803d 4174 083d
00000180: c46a 233e 070a 23bd 4320 b4bd e6b5 673d
00000190: 8241 87bd c4d9 283e a104 033e 7ec3 ffbd
000001a0: fce0 e43d 432c 32bb 3494 b4bd 44b5 303e
000001b0: a9a9 543d 0ff7 d43c 87c3 e13d e0f0 973d
000001c0: ced7 99bd 66b3 04be ff89 42be 1463 413d
000001d0: 448e f9bd 0910 003d e351 a3bd f2cf 18bd
000001e0: f6fd 103e 3cd4 bb3d 16ce ff3d 6552 92bd
000001f0: 0edb 803d 4c22 03be 85d9 04bd 99d9 89bd
00000200: 5d93 3dbd faaf 8c3c 1fc2 b8bd 41d8 053d
00000210: b55a 083e 85ed afbd 5f6d 1abc a2e5 0e3e
00000220: 1d37 92bb 6a35 6e3c bc41 633d 153e f83d
00000230: 12e1 4c3e e27a 86bd 8949 133e adad e03d
00000240: 5cc1 8cbd 95b3 44be 2e58 3bbe 79a7 1fba
00000250: 40cc ef3b 50b0 8b3d ca06 20bd 437c f1bd
00000260: fc8e 4bbd 1eb9 c6bd 603c 44be b183 8ebc
00000270: b852 80bc 209b 723c e091 203d 4190 8cbd
00000280: 38ad 0e3e 8e12 093e c21a 8c3d 1447 dd3d
00000290: 8caf 693a 727a 00be 0cb4 52be 744d 803c
000002a0: 2bda e6bb 1f65 9a3d 2dc7 0bbe 3722 ed3c
000002b0: 754d 13bd bfff dbbd b56d 5ebb 7c4e 8abd
000002c0: 05ac 83bc 2447 243d 1d67 75bd 5c26 93bc
000002d0: 3190 f53d 4a95 8e3d dd08 043e cd0c 37bd
000002e0: cf0e f43c 15fd 223e 49a0 173e acff bb3d
000002f0: d6dd 863d 0e27 0d3c 08cb 20be fb65 7dbd
00000300: 9f04 5e3d e435 0dbe 1eff 1c3d 486e c1bd
00000310: 6ccf 00bc 016a d73b 9b96 aebd 1c62 243c
00000320: 4705 ea3c ca9d fd3d 2835 333d 234f 4abd
00000330: 44cb 82bd 9397 b03d 1853 9ebd 8e6b 8fbd
00000340: 3bdc 3b3e 6449 2e3e 3d7e 8b3d 9a6b e1bd
00000350: 55cf 0d3d b0db 1d3d 876f 3d3d feaa 143e
00000360: 9476 91bd 653a f2ba a8a4 873d b42b a7bd
00000370: 2c63 f8bd da8c 183d f3df 37be cc7a f23c
00000380: e063 78bd 5a1b da3d 7c84 9bbd f1f5 dd3d
00000390: 4085 e43d 18a4 0f3e c9c3 d3bd 20fa eb3d
000003a0: 8ae1 bc3c a441 2cbd 1b2a 0dbd 9116 903d
000003b0: 3161 06be 4802 fc3d 6baa 673c f482 583d
000003c0: e814 8dbd 22f0 483d e05f 0b3c f109 a93d
000003d0: 10bd 17be 9bc6 d33d 5d67 993d 8248 773d
000003e0: e423 573c 1bee 9d3d f58c d3bd 208a 16be
000003f0: 644d 85bd 4dd5 d53d 6fb7 ffbd 9353 f4bd
-0.0012278914 -0.019630784 0.1420245 -0.046357587 0.10854762 -0.0059959074 -0.10636327 0.05206739
-0.08770359 0.058697842 -0.108268045 -0.039483447 0.07457009 -0.06204775 -0.0853476 -0.12845664
0.0752522 0.06889308 -0.07006404 0.06434377 -0.014481629 -0.034596052 0.038636718 -0.113822944
0.15599531 0.028233226 -0.11488124 -0.14154945 -0.052729744 0.02639651 -0.17165688 -0.023520058
-0.010744603 -0.02518418 0.03229433 -0.016388254 -0.16009201 -0.23841429 -0.08137633 0.003573906
-0.018633192 -0.111360155 -0.0032807188 -0.12582932 0.09741286 -0.12943031 0.11611064 -0.11268933
0.02143507 0.10950546 -0.07813834 0.15673628 0.1624064 0.09077554 0.0949108 -0.066766724
-0.009111034 -0.108403206 0.038487066 -0.11291144 -0.037888058 -0.058735695 0.06662262 0.10777725
-0.116338715 -0.11544041 0.12189046 -0.020255486 0.041554995 0.005056978 0.12176663 0.04942378
0.027215807 -0.102910854 0.044560075 0.005490101 -0.10296713 0.0083077 0.017660743 -0.11187372
0.013366472 0.06590471 0.00017027573 -0.05832125 -0.07459993 -0.021238456 -0.039149683 -0.08796716
-0.010700219 0.016485998 -0.06073957 -0.034796346 0.105066136 -0.019323792 0.06253887 0.033313993
0.15958697 -0.039804485 -0.08795216 0.056569956 -0.066042915 0.16489321 0.12794735 -0.12488459
0.11175725 -0.0027187027 -0.0881733 0.17256647 0.051919613 0.025996713 0.11023622 0.0741899
-0.075118646 -0.1295906 -0.18997954 0.04721363 -0.12185338 0.031265292 -0.07974603 -0.037307687
0.14159378 0.0917134 0.1249048 -0.07144622 0.06291781 -0.12806052 -0.032434005 -0.067309566
-0.046283115 0.017173756 -0.09021401 0.03267694 0.13315852 -0.08590225 -0.00942549 0.13954785
-0.0044621364 0.014539102 0.05548261 0.12121216 0.20007733 -0.06566407 0.1438352 0.10970626
-0.06872818 -0.1920913 -0.18295357 -0.0006090324 0.0073180497 0.06820738 -0.039068975 -0.11791279
-0.049696907 -0.09703277 -0.19163656 -0.01739678 -0.015664443 0.0148074925 0.039201617 -0.06863452
0.13933265 0.13385984 0.06841041 0.10804573 0.0008914403 -0.12546709 -0.20576495 0.015661933
-0.0070450506 0.075388186 -0.13650198 0.028946979 -0.03596254 -0.10742139 -0.0033939902 -0.06753251
-0.016073236 0.040106907 -0.05991279 -0.017962627 0.11990393 0.069620684 0.12894006 -0.044689942
0.029792218 0.15916856 0.14807238 0.09179625 0.065852806 0.008615268 -0.1570245 -0.061864834
0.054203626 -0.13790089 0.038329236 -0.094448626 -0.007861953 0.006573916 -0.085248195 0.010033157
0.02856697 0.123836115 0.043751866 -0.049391877 -0.06386426 0.086226605 -0.077306926 -0.07002936
0.1834573 0.17020184 0.068111874 -0.110068515 0.034621555 0.03853959 0.04624894 0.14518353
-0.07102695 -0.0018480538 0.066232026 -0.081626326 -0.121282905 0.0372437 -0.17956524 0.02959957
-0.060642123 0.10649748 -0.07593629 0.10837925 0.11158228 0.1402744 -0.103400774 0.11522317
0.023056764 -0.042054787 -0.034463983 0.07035554 -0.13123013 0.123051226 0.014139752 0.05285926
-0.06888753 0.049057133 0.008506745 0.08253849 -0.14818215 0.10340615 0.07490418 0.060371883
0.013131116 0.07711431 -0.1032962 -0.14701128 -0.06508902 0.104410745 -0.12486159 -0.11930003

net.0.bias f4 [256]
00000000: 8092 3c3d 3e2e 453e 0f36 893d b3b9 e53d
00000010: 9c27 153e eb67 d23d 5f65 873c 8331 65bd
00000020: 993d 87bc c97e 4c3e 09bf 20bd 3166 c93d
00000030: 54a0 cebd d804 51bc d701 b93b 85c9 463e
00000040: 93b4 f33d fa08 c6bd 1b34 743c 7e14 123e
00000050: a54c 3a3e 29cb cb3c c9c4 2fbd fce6 493d
00000060: 3626 513d 149e b8bd bd88 9f3c c34e 72bd
00000070: 2eff 163e 7b2a b2bd cf18 53bd badc acbd
00000080: 2635 1abd c9c3 fb3d 3bc5 b3bd 34be 8dbd
00000090: 8059 ecbd 0f0d 0c3e f0f5 1d3e 25d7 b63c
000000a0: 3630 dcbc 562c 373d 25de 7c3d 1895 943c
000000b0: 0ae1 e4bd 4c7d 1d39 400b 043e 54db df3d
000000c0: 32f3 afbc 54fe 993d 7822 0c3e c1e6 843d
000000d0: bca5 0fbe 9a95 ac3d 9af4 a53c 91bd a7bb
000000e0: 8485 11bc c0c8 c7bd eca7 2d3e b0d1 0e3e
000000f0: f0b9 8bbc 64f9 08bd 30c7 2a3e fc9a d4bd
00000100: 47af ccbd f168 903d 313e a63d bdad 3a3e
00000110: 8efa eb3b 440b 8d3d e86d a1bd 351e 3cbd
00000120: e870 57bd 8bb9 123c e79b b73d 42ab babd
00000130: 6ae6 4e3e 78c5 d73d 98db c5bc bc73 22be
00000140: 69be fa3d ec01 bebd 68c1 4fbd d3a0 20bc
00000150: 68ff d5ba 75f5 e73d 061b d43d 6efe 6a3d
00000160: 901c ee3d 25bb 02bd 73cf ed3c 04c9 b9bd
00000170: cec2 50bb 00f2 e53d ad69 543d 8d74 43bd
00000180: 5f75 133e 42c4 0c3c 6726 9dbd 16b4 9d3c
00000190: 7235 7dbd eace 87bd 342f 973c bdda 7cbd
000001a0: 8e2f cebd 6b92 e53d afc5 01be 7c18 95bc
000001b0: 8e62 40bd 2fa0 81bc de28 b33d cfdf dcbd
000001c0: 37b4 ae3c b360 3d3c 8364 82bb 4f79 523b
000001d0: 730e cb3d cb73 473d 1af0 443d 579c 503d
000001e0: 78c5 89bd b91c 35be b629 803d e1c9 82bd
000001f0: a5db 893d 7a35 d43d aab5 f23d 6a1c 06bc
00000200: ceab 0c3e 8931 e6bc 3a7f 953d 1656 29bd
00000210: 61d8 eb3d e322 4fbd 704a 86b9 b8e3 f53d
00000220: 61cd d13c d26c 0dbb 0961 2fbe 152a 503c
00000230: e8e8 60bb 4635 413e f79b da3d 20a7 c3bc
00000240: 1514 b73d f90d 83bd 5664 2abe dd21 273c
00000250: 0005 65bd f226 88bd 23f6 a3bd 5af5 83bc
00000260: aaba 143e ae6b f0bd 99f4 92bd 5938 293e
00000270: 9558 a83a 1ead ea3d 3ec8 bf3d 3db9 1c3d
00000280: b968 c4bd c4eb cf3c 2c7c bcbd bb77 3a3d
00000290: 2e4b 50bd 3fe9 e1bc 6025 53bc 6f5a 0bbe
000002a0: d153 d93d 47f8 adbd 54de 303d cd6a 0d3e
000002b0: fe17 bbbd 44a2 273d ab16 903d e8dc 5a3d
000002c0: 4eaa 603c 1936 9f3d c6ec 363c 744f 12bc
000002d0: feb4 bebd c82c c0bd 6e49 cb3d de96 ae3c
000002e0: bd60 e8bd 0901 af3d fed2 003d 0329 123e
000002f0: 9cea 17be c83f bc3c 7bc0 99bd 96e2 be3a
00000300: f9c2 d53d fdd5 083e 8057 e23d f464 d7bb
00000310: f675 85bd d29e df3d de9f 433c 79c5 eabd
00000320: ceda d93d 9e9f 993d 4f46 dc3d 4a4e f03d
00000330: e772 acbd b85d d33d bc23 cd3d aaec abbd
00000340: fdc6 b83d 0cb2 e23b 2423 12bd f994 803c
00000350: 2e22 ea3d 54a8 c73c 6cc4 71bd 702c 00be
00000360: 3e50 c73d 003e df3d 5a26 9dbd 9c09 e03d
00000370: 302a 7cbd cfae e5bc 9796 27be b5ea 043e
00000380: dbd2 adbb 1f25 69bc a424 9a3d 8496 ec3d
00000390: abba 83bd e2d3 a13d 64ad a7bd 7dc9 d33d
000003a0: 9ac3 033e 488c 0e3c 5120 2c3e 3622 81bd
000003b0: 2bca 3e3d f6f1 52bc 15c1 4e3d 7798 bb3d
000003c0: 3b61 ac3d a252 893d 53d9 ce3d f07c 813d
000003d0: f615 bebd 8181 debd dcc6 253e 94f9 55bd
000003e0: f3d1 e5bd 5b59 1abe aabb fe3d e5dd 2cba
000003f0: a94c cb3d a683 fe3d 6044 403c ae3a a83c
0.04603815 0.19255921 0.06699764 0.1121706 0.14565891 0.10273727 0.01652783 -0.05595542
-0.016508864 0.1997024 -0.039244685 0.098339446 -0.10089174 -0.0127575025 0.0056459713 0.19412811
0.11899676 -0.09669681 0.014905001 0.1426563 0.181933 0.024877148 -0.04291228 0.04929255
0.05106183 -0.09014526 0.019474382 -0.059157144 0.14745781 -0.08699509 -0.05153733 -0.08440538
-0.037648343 0.122932024 -0.08777853 -0.06921044 -0.11540508 0.13676856 0.15425849 0.022319386
-0.026878458 0.044720016 0.06173529 0.0181375 -0.11175735 0.00015019363 0.12894917 0.109305054
-0.02147827 0.07519212 0.13685024 0.06489325 -0.14028066 0.08426972 0.020258237 -0.0051190336
-0.00888193 -0.09755087 0.16958588 0.13947177 -0.017056435 -0.033440962 0.16677547 -0.103811234
-0.09994369 0.07051266 0.08117331 0.18230338 0.0072014993 0.06886914 -0.07882291 -0.045927245
-0.05259791 0.00895537 0.08965283 -0.09114696 0.20205083 0.10535711 -0.024152562 -0.15864462
0.12243349 -0.0927771 -0.050721556 -0.0098039685 -0.0016326727 0.11326114 0.10356717 0.05737155
0.116265416 -0.031916756 0.029029584 -0.09071544 -0.0031854394 0.112277985 0.051858593 -0.047718573
0.14400242 0.008591713 -0.0767334 0.01925091 -0.061818548 -0.066312626 0.018455125 -0.061732043
-0.10067664 0.11209568 -0.12673067 -0.018200152 -0.04696899 -0.015823452 0.08748029 -0.107848756
0.021326168 0.011558699 -0.003979267 0.0032115763 0.09914865 0.048694413 0.04808054 0.050930347
-0.06727117 -0.17686738 0.06257956 -0.063861616 0.06731347 0.10361762 0.11851056 -0.008185485
0.13737413 -0.028099792 0.07299657 -0.041341864 0.115158804 -0.05057038 -0.00025613932 0.120063245
0.025610628 -0.0021579755 -0.1712686 0.012705346 -0.003431851 0.18867978 0.10674279 -0.023883402
0.08939377 -0.063991494 -0.16639838 0.010200945 -0.05591297 -0.06648053 -0.08005931 -0.016108204
0.14524332 -0.11739288 -0.071755596 0.16525401 0.0012843782 0.11458801 0.09364365 0.038262594
-0.09590287 0.025380976 -0.092033714 0.04552434 -0.050852947 -0.02757704 -0.012887329 -0.13608716
0.1061169 -0.08494621 0.04318078 0.13810273 -0.091354355 0.040926233 0.070355736 0.05343333
0.013712479 0.0777399 0.01116485 -0.008930076 -0.09311865 -0.09383541 0.09926115 0.021312173
-0.11346576 0.08545119 0.031451218 0.14273457 -0.1483559 0.022979632 -0.07507416 0.0014563377
0.10437579 0.1336288 0.110518456 -0.006573314 -0.0651664 0.109189644 0.011939971 -0.11463446
0.10637437 0.07501148 0.10755598 0.117336825 -0.084203534 0.1032061 0.100165814 -0.083947495
0.09022329 0.0069181975 -0.035678044 0.015696036 0.114323005 0.024372257 -0.059025213 -0.12516952
0.09732102 0.109004974 -0.076733306 0.10939333 -0.06156367 -0.028037457 -0.16366039 0.12980159
-0.005304677 -0.014230042 0.0752652 0.11552146 -0.064320885 0.079017416 -0.081873685 0.10341165
0.12867585 0.008700438 0.16809203 -0.06305353 0.04657952 -0.012875071 0.050477106 0.0915994
0.08416983 0.06705214 0.10100045 0.06322658 -0.092815325 -0.10864545 0.1618914 -0.05223997
-0.11221685 -0.15073149 0.12438138 -0.0006594344 0.09926731 0.12427454 0.011735052 0.020535793

net.2.weight f4 [256, 256]
00000000: cc9d 973c 3275 083c 294c acbd dca4 84bc
00000010: a86e b2bb a3d9 c7bc 8aed 7d3c 64a5 343c
00000020: 34b3 4abd f0fe 21ba 5f25 06bd eea2 59bd
00000030: 73b6 1f3d 88f8 a0bd 7bd8 94bc 4de6 1e3d
00000040: 5cf2 353d 1447 5e3d c0ce b4bc 4465 703d
00000050: 73fb e63c 5168 b4bc 2cac 94bd 29a8 ca3d
00000060: d3cd 9abc 2759 b63d 6b50 89bb 50af d4bc
00000070: 4be1 a4bc f604 103d 3e71 10bd 094a b4bd
00000080: 6871 7f3b 1e9b 22bd 9e72 ebba b9a6 70bc
00000090: 4a6b c93c 1a0d f33c c341 8bbc 4ff1 b53c
000000a0: c7d6 96bd fa02 da3c a2fe d5b9 c6d1 50bd
000000b0: 387a 073d d068 3f3c bf4d 10bd f8cd c93d
000000c0: c745 ddbd 7a1a 01bd 98e0 4bbd d6fe f5bc
000000d0: 5336 9ebd 2511 553d 9fed 64bc 5109 11bd
000000e0: 5d27 d03c 80f9 20bd 5149 3cbd bbc5 c13c
000000f0: c398 30bc 08a1 8fbd 4989 aebc 6be9 e0bc
00000100: b3bd 6e3d 2e56 393d a165 4e3c 2d19 2e3d
00000110: 43cb f7bc 2042 8ebb 4583 8a3c 3751 2b3c
00000120: 0577 0f3c 11d5 c9bc f0ed 41bd 2d15 9b3c
00000130: 75f8 883d 5310 aa3d bb5e c33c a138 463c
00000140: 039a 0ebd 290e 6f3d 823b 1cbd 5a69 0e3d
00000150: 525a 003e d217 7fbc 1198 0ebd b1d2 b03d
00000160: 6be5 cb3d 0146 3dbd 6e6c 0abd 27d5 03bc
00000170: d2d6 53bd 4a56 94bc f925 83bd 8bd9 9bbd
00000180: b946 6abc fd06 62bd b9eb 23bc f094 e0bc
00000190: ddad 41bd f6bc 7e3d 98fd 673d 9e13 2dbd
000001a0: f6af e73b 8c21 10bd 77b4 9d3c 2ddb 28bc
000001b0: bf5a c8bc 1ce0 8e3d 741a 2e3d bd2f 743d
000001c0: b124 963c 5bed 04bc 74c2 61bd 9ebe 133d
000001d0: 5ff6 0b3d eaad 043d 827b 4dbd 3bbb 0f3d
000001e0: 0bf6 8b3c 24d5 f83b f195 493d cf40 52bd
000001f0: 02d1 8dbd ef00 293d cae5 073a d685 2f3c
00000200: 7582 18bd 9e5d fdbc 41b3 3e3d 7239 813d
00000210: 179c 85bc 32c5 353d b501 563d 6261 7f3d
00000220: 5c97 db3c ba58 48bd dfc0 73bd 8e8f 09bd
00000230: 67ad 453c a965 9bbd fc2b 543d 9009 8bbc
00000240: 3c25 273d ceff fc3c 9dc3 113d c795 b2bd
00000250: 5312 aabd 6d40 7bbc e2ba 803d 5776 883d
00000260: 5d2b 653c 7269 453d 2465 6fbd 5b04 493d
00000270: c295 f0bc 091b 80bd a67a 99bc 9a48 813d
00000280: c06f 083d 94c7 4fbd 2956 7c3d e50c 0f3d
00000290: 1826 543d ad44 633d fdbf 89b9 d7a1 ad3a
000002a0: a770 50bd b7f1 293d b248 93bc 9ae5 5cbd
000002b0: 0208 19bd d5cc b83c eefa 843d a9c6 f2bc
000002c0: fa26 1cbb 151b c73c 84e2 823d db58 d83a
000002d0: 3697 88bc 9228 553d b16b 2c3d cee6 c7bc
000002e0: aa42 513c 5d52 ae3c 31da db3c a508 46bd
000002f0: c796 2ebd bd01 303d ddb0 d0bb f32e 763d
00000300: 56ff f03c 8962 523b e45a a33c cb1e 483d
00000310: 3965 95bc 8480 2fbc baa5 4d3d cc0a 13bb
00000320: e322 debc 8647 97bd 4123 883d bbe5 0e3d
00000330: 5f58 083d 8a1e aa3d 9d2e b43c fd05 c03c
00000340: 8fb2 363d a44d a1bd f69f 873d ef56 f9bb
00000350: bfe9 37bd ae43 56bd e4a7 9b3c dfd7 45b9
00000360: 377f fbbb 8240 78bd 6093 8bbd 9594 043d
00000370: 84d5 2abd 5b43 12bc b804 49bd f327 52bd
00000380: 66bb 4fbd 7a4f 01bd 212e f7bb cbef 5cbd
00000390: 8ad1 733c 87e6 c5bd 9da6 48bd 9745 f73c
000003a0: 5cb8 17bd da86 d5bc e1b3 0b3d 444d d8bd
000003b0: 0350 263d c6c0 2d3b 647b 26bd ef4c e0ba
000003c0: 355b b73d c60e 95bd e72f ad3d 5b0a 34bd
000003d0: 74cc 273a a69d 7bbd ceac bcbd d9b8 ec3a
000003e0: a01e 223c 24a5 5b3b 39dd b0bb 6425 51bd
000003f0: 8f5a e7bb 3821 bcbc 26c3 743c 42bb 8a3c
0.01850786 0.008328723 -0.08412964 -0.016191892 -0.00544532 -0.02439577 0.015498528 0.01102576
-0.049487308 -0.0006179651 -0.032750484 -0.053133897 0.038992357 -0.078599036 -0.018169632 0.03879385
0.044420585 0.054267004 -0.022071242 0.058690324 0.028196072 -0.022022398 -0.07259402 0.09895355
-0.018896973 0.08903723 -0.004190495 -0.025962502 -0.02012696 0.03516098 -0.035264246 -0.088031836
0.0038977508 -0.039698713 -0.0017963236 -0.014688187 0.024587292 0.029669333 -0.016999131 0.022209791
-0.07365184 0.026612747 -0.00040816242 -0.050981306 0.03307554 0.011682704 -0.035230394 0.098537385
-0.108043246 -0.03151939 -0.049774736 -0.030028742 -0.07725205 0.052018303 -0.013972669 -0.035409275
0.025409395 -0.03930044 -0.045968357 0.023653856 -0.010778609 -0.07013136 -0.021305697 -0.027455052
0.05828638 0.045248203 0.012597472 0.04250448 -0.03024829 -0.004341379 0.016908297 0.010456375
0.008756404 -0.02463773 -0.047346056 0.018930996 0.066880144 0.08303895 0.023848882 0.012098462
-0.034814846 0.058363114 -0.03814269 0.03476844 0.12534454 -0.015569644 -0.03481299 0.08633936
0.099558674 -0.04620934 -0.033794813 -0.008046425 -0.05171854 -0.018107552 -0.06403727 -0.076098524
-0.014299088 -0.055182446 -0.010004931 -0.027414769 -0.04728495 0.062191926 0.05663833 -0.042255037
0.0070705367 -0.035188243 0.019251091 -0.010306162 -0.024457334 0.06976339 0.042505696 0.05961584
0.018328043 -0.008113231 -0.055117086 0.03607046 0.034170505 0.03239242 -0.050166614 0.035090666
0.017085096 0.0075937677 0.04921526 -0.051331338 -0.06924631 0.041260656 0.00051840825 0.010713061
-0.03723379 -0.03092843 0.04655767 0.06309785 -0.016309781 0.044377513 0.05224772 0.06234873
0.026805572 -0.04891274 -0.059510108 -0.03358417 0.012065268 -0.075877495 0.05179976 -0.016972333
0.040806994 0.030883696 0.035586942 -0.08719974 -0.08304276 -0.0153351845 0.06285645 0.066631965
0.013987389 0.048196264 -0.058446065 0.04907642 -0.029368285 -0.062551565 -0.018735241 0.06312676
0.033309698 -0.050727442 0.061605606 0.034924407 0.05179414 0.055485416 -0.0002627372 0.0013247085
-0.050888684 0.041490283 -0.017979 -0.053929903 -0.037361152 0.022558609 0.064931735 -0.029635744
-0.0023826943 0.024304906 0.06390861 0.0016505973 -0.016673665 0.052040644 0.04209489 -0.024402048
0.012772242 0.021279508 0.02683744 -0.048348088 -0.04262426 0.042970408 -0.00636874 0.060103368
0.029418629 0.0032102189 0.019940801 0.04885749 -0.018236743 -0.010711793 0.050206877 -0.0022436855
-0.027116245 -0.07386689 0.06647349 0.034887057 0.033287402 0.08306606 0.021994883 0.023440355
0.04460388 -0.07876137 0.06622307 -0.0076092402 -0.044900652 -0.052310638 0.019000955 -0.00018867802
-0.0076750773 -0.060608394 -0.06815219 0.03236826 -0.04170753 -0.008927192 -0.049076766 -0.05130763
-0.050715826 -0.031569935 -0.007543341 -0.053939622 0.014881501 -0.0966311 -0.04898702 0.03018455
-0.037041053 -0.026065279 0.034107093 -0.10561612 0.04060365 0.0026512607 -0.04064502 -0.0017112772
0.08952943 -0.072782084 0.08456402 -0.04395519 0.00064010103 -0.061429642 -0.092126474 0.001806046
0.009894997 0.003351518 -0.0053974655 -0.05106105 -0.007060356 -0.022965059 0.014939105 0.016934995

net.2.bias f4 [256]
00000000: a31a 893c 4543 613c fe54 2d3c 2610 b43c
00000010: 5ec1 6dbc 8043 953d 0004 253d f3e1 84bc
00000020: 67a6 01bd e3cb 543c 14cb 62bd 00fe 61bc
00000030: c1f6 9e3b b1b3 883d 2f15 42bc 898f 883c
00000040: c5c6 34bd 5f8f 8abc 8ff6 aa3c 6fa7 77bd
00000050: c0b0 e03c 47ba 45bd 10a3 29bd 8b22 92bc
00000060: a151 82bc ad31 163b fb55 4b3d ef9c 933c
00000070: 0c41 1a3c 0125 873d b606 0c3d aa1a 233d
00000080: 05b9 ba3d 6f63 c33c f544 a6bc d643 9abc
00000090: 049f 573d dc53 4e3d 9493 483c 806d b53d
000000a0: bc86 5d3d ece5 52bd 5f25 8e3c 1435 3fbd
000000b0: 7cc9 893d 2f27 243d ab51 753d 37b9 14bd
000000c0: 18e2 a63c 38e9 b8bc 1442 0dbc 9669 003c
000000d0: dcb7 b03d 5d98 623c ce77 313c 9dab 55bc
000000e0: b07d e63d a5ed 193d 6895 4a3d eedf a93d
000000f0: 3c6c 273d 46fd 14bc f5ae 90bd 6b63 163c
00000100: d381 4fbc 46c4 55bd c739 57bd 0020 a73d
00000110: 82f6 46bd 43af 293d 0b08 11bd 8bcd 003d
00000120: cac1 6fbd 3d6f a1bd 389e b73d 26f5 a7bd
00000130: d995 a33c 8b2c 6e3d 8a4e 793d 0f2f 2abd
00000140: b482 613d a598 043c d730 f43c 0055 ee3c
00000150: d2b5 1d3d c5ee 9ebd 9f60 243b b28a a0bd
00000160: 8e8f 2fbd 188f 71bd 83c0 633c 816e 223c
00000170: b2f5 89bd e071 11bd e140 d5ba 41ac 58bd
00000180: 3852 263d 1415 f83c 0542 79bd 59e3 b03d
00000190: 6eb7 ab3c 832f 5f3d 84bf 8abd 080a 58bd
000001a0: 8f74 563d 71f2 0f3d 2eb8 aa3d 25b9 a4bd
000001b0: 1c52 843d 758f f2bc d905 98bd baef 02bc
000001c0: 3bc6 183c d71d 6fbd 5dda 7c3d 1367 ec3c
000001d0: 747c 353c 6138 be3a 0d42 913d 3361 103d
000001e0: 3d95 833d f448 79bd 2b95 88bd 8036 9dbd
000001f0: 103c 893c 8162 c63d cde1 8abd 1826 21bd
00000200: 59d0 953c 0e1a 24bd b2f3 22bc 07d1 7dbc
00000210: 24b7 b93d a7cf b93c 2163 3c3d aff6 803d
00000220: 21d5 26bd a603 29bd d822 763d c13f f43c
00000230: d8cf 783d 464a 05bd 05f5 19bd 05d9 4ebd
00000240: f548 cd3c 5139 31ba 1b1a b43d 91c2 b93d
00000250: fe0f 9dbc 473e 8cbc 4b29 303d 8d4a e63d
00000260: 6499 d93c 185e 8b3d 8034 e2bb 2e31 b53d
00000270: 2aef 823d a7c6 14bc 20e8 3c3d 6650 30ba
00000280: ea81 ac3d e946 833c da83 6f3c c959 8c3b
00000290: 159a 7cbd 716a a43d 4637 01bd 01c4 ac3b
000002a0: bfcf a93d b5b9 563d 109a 693d 4165 dc3b
000002b0: c2f5 78bd 03c9 99bd 8b7f b2bb 54ec 7e3c
000002c0: d793 ec3d 3bc9 1e3d 5948 8abd 7363 703d
000002d0: cdd2 bd3c 7466 54bd 20ed bdbd 3ca5 f63d
000002e0: 2ce2 473d 2d12 923c d8ca 3c3c d8f6 743d
000002f0: 7e44 333c d456 923d 0cda 133c 02c2 47bd
00000300: 21a9 19bd cf45 45bc aaf8 ef3c 8e6f 2cbd
00000310: bb14 1bbd 781f ba3d 208e 3d3d 9342 273d
00000320: c5ca 2b3d d190 5b3d be8c 173d b7a6 e43c
00000330: 0aea 84bc ed2d e33d 0e0d 65bc 18a6 353c
00000340: 81f7 1d3c e2f1 633c 2fba 213d a813 8dbd
00000350: ab2e 573b 5d7d ddbc d398 34bd 24fc 213d
00000360: eea7 063d 4a10 8a3c b316 a8bc d25a a1b9
00000370: dbfb 903d 544a 63bc c4dd 573c c674 6bbd
00000380: 3c42 d2bb abcb acbd d472 373c f246 3ebd
00000390: 6c9b 34bd 6773 a3bd d5ae ba3d d60f eb3a
000003a0: 93c2 653d fdfe a43d e896 18bd d806 caba
000003b0: 26ce 46bc cad0 60bc 9ee0 61bd 388f 4cba
000003c0: fbff ee3c 22e9 33bc 3b1b cd3c aad2 2c3c
000003d0: 10fa 83bd a9e5 493d 8145 0d3b ff3b 853b
000003e0: e31c 19bc a9da 26bc a215 bd3b 6b92 4c3d
000003f0: c1c6 333c 9c79 9cbd 732a 72bb 963b 353c
0.016736334 0.013748948 0.010579346 0.021980356 -0.014511434 0.07288265 0.040287018 -0.016221022
-0.031652834 0.0129880635 -0.05536945 -0.0137934685 0.0048511927 0.066748984 -0.011845871 0.016670005
-0.044134874 -0.016914068 0.020869521 -0.06046241 0.027428031 -0.04827335 -0.041415274 -0.017838737
-0.015908064 0.0022917793 0.049642544 0.018019168 0.009414922 0.06598855 0.034186088 0.03982035
0.09117321 0.023851125 -0.020296553 -0.018831175 0.052641883 0.050372943 0.012242217 0.08858776
0.05408357 -0.0514888 0.017351804 -0.04668148 0.06727883 0.04007643 0.059892338 -0.036309447
0.020371482 -0.022572145 -0.008621711 0.007837674 0.086288184 0.013830272 0.010831786 -0.013041404
0.11254442 0.03758015 0.04945889 0.08294664 0.040874705 -0.009093588 -0.070646204 0.0091789765
-0.01266523 -0.052189134 -0.052545335 0.081604004 -0.048574932 0.04142691 -0.03540806 0.03144602
-0.05853442 -0.07882545 0.08965725 -0.08201055 0.019968914 0.05814795 0.060865916 -0.041548785
0.05505629 0.008093034 0.029808445 0.029093266 0.038503475 -0.077603854 0.0025082005 -0.07838954
-0.042861514 -0.058974355 0.013900879 0.0099140415 -0.06736316 -0.03550899 -0.0016269946 -0.05289865
0.040605754 0.030283488 -0.060853977 0.08637113 0.02096149 0.05448867 -0.0677481 -0.05274394
0.052357253 0.03514332 0.08335911 -0.08043126 0.064609736 -0.029609421 -0.0742299 -0.007991726
0.009324606 -0.058378067 0.061731685 0.028857743 0.011077035 0.0014512652 0.07092676 0.035248946
0.06424949 -0.06086059 -0.066690765 -0.07676411 0.016752273 0.09686757 -0.06781349 -0.03934297
0.018287824 -0.04006391 -0.009945797 -0.0154917305 0.090681344 0.022682024 0.045992974 0.06297051
-0.0407306 -0.041263245 0.060091823 0.029815556 0.06074509 -0.032541536 -0.037587184 -0.050499935
0.025059203 -0.0006760555 0.08794042 0.09070314 -0.019172665 -0.01711954 0.04300813 0.11244688
0.0265624 0.06805056 -0.006903231 0.08847271 0.06393273 -0.009080566 0.04611981 -0.00067258475
0.08423217 0.016025024 0.014618838 0.004283164 -0.06167038 0.080281146 -0.031546853 0.005272389
0.082915775 0.052423198 0.05703169 0.0067259376 -0.060781248 -0.07509043 -0.005447333 0.015559275
0.11551636 0.038766127 -0.067520805 0.058688592 0.023171807 -0.05185552 -0.09273744 0.12043235
0.04879968 0.017830933 0.011522971 0.05980572 0.010941623 0.071454674 0.009024154 -0.048769005
-0.03751481 -0.012040569 0.029293377 -0.042098574 -0.037861567 0.090880334 0.04627812 0.040834974
0.041941423 0.053604905 0.036999457 0.027911527 -0.01622488 0.11092744 -0.013980163 0.011086963
0.009641529 0.01391265 0.0394842 -0.06888515 0.0032834213 -0.027037317 -0.044091057 0.0395471
0.032874994 0.01685347 -0.020518636 -0.0003077598 0.070792876 -0.013872702 0.013175432 -0.05748441
-0.006416587 -0.08437284 0.011196811 -0.046454377 -0.044093534 -0.079809956 0.09115378 0.0017933797
0.056093764 0.08056448 -0.03725329 -0.0015413417 -0.012134111 -0.013721654 -0.055145852 -0.00078033237
0.029174795 -0.010980876 0.025037399 0.010548273 -0.0644418 0.049291287 0.002155632 0.00406599
-0.009345266 -0.010183969 0.005770401 0.049944323 0.01097268 -0.07640383 -0.0036951571 0.01106157

net.4.weight f4 [14, 256]
00000000: 4ec4 523c dc9d 003c fd3b 6fbb c168 dbbc
00000010: 27b0 1abd dd26 413d d790 08bc 652d 87bb
00000020: 7829 73bd fff6 2cbd 272d 9bbc 3c02 7f3d
00000030: 3e96 b2bc db30 5c3d f329 783c a6af c53d
00000040: f01e 1cbd c0c8 b93d 5357 8ebd 4675 223d
00000050: fcc8 d63c 42b7 70bc 1d82 21bc 2938 c9bc
00000060: f6fa 983d d3b1 a83d 01bf 433b 7a57 ba3d
00000070: 9f0b 843c e54c 17bd 04b8 9e3d c841 423d
00000080: edb7 a13d a0fc 953c c6dd 12bd c5ce 643d
00000090: 5048 f5bc 5059 e7bc bd90 3f3c ffb4 e63c
000000a0: 889c 493d 4196 88bd a408 bc3d e5fa 7f3d
000000b0: 6b7a f2bc ee4b a03d 102f 0c3c 940a 1bbc
000000c0: 7511 65bd 3940 813d 685d 433d 0d01 903d
000000d0: dcaa 403d 5bc6 96bd 1210 ec3c ace2 c43d
000000e0: 0304 cc3d 32e9 723d 2699 4cbd 6ccb 283d
000000f0: a041 cdbc 2edd a2bc 73c4 2fbd faae a03c
00000100: 8232 9c3d b848 7c3c 139b 543d fbf5 eb3c
00000110: 575b ff3b 868e a83d a877 febc dc0b 333d
00000120: 65ca 333d b9fd fcbc 8312 c33c 8a4a 27bd
00000130: 38dc 933c 52f3 94ba 7eb8 eb3c 76a5 9a3d
00000140: 058e cb3d bfb3 6bbd e348 e63a 2d54 a33d
00000150: cc38 763d f339 c63c cf60 843d 70e6 96bd
00000160: 6af9 d73c 5746 b2bc 8b8f 1c3e 5542 dd3c
00000170: 11d5 7c3d 5cd6 d2bb 46c0 823c 9805 3b3d
00000180: 9cd6 db3d 4c3c 83bc 03ad 02bd 4943 483c
00000190: 3f60 993d 070e 513d 3a58 73bd 73ea b83c
000001a0: e846 243d e9c9 7d3d 405f e53d 27f8 133d
000001b0: 74f6 3c3d d2fd 953d 08bf 333d 820d cbbc
000001c0: f040 aa3c 0681 a43c 8895 fd3d 0f05 1abc
000001d0: 1ab1 52bd 27cb aabc 348b 503d 3911 bfba
000001e0: 099a 973b eba7 14bc 58f4 72bc 47a1 04bd
000001f0: 28a4 373d 0390 993d fecf 3f3d 0030 073d
00000200: e81f 0b3d fd6e b33c ed33 053e 8094 303d
00000210: 3d88 ca3d 98dd 443d 2f08 01bd d350 2e3d
00000220: 7edf 9b3b 90e2 a13c b40e 87bc ad50 863d
00000230: cedb c23a c0a1 863b 4740 5fbd 68cb 8839
00000240: 4b9d 59bd af44 763d cf95 323d f159 bd3d
00000250: bd73 863d 3a81 2cbb 16b7 a6ba daad 953c
00000260: 6130 c23b 681d 11bc b1ce a7bc cf7a f13c
00000270: e538 e33d 9dee 6dbd 9cef b03d be8a 813b
00000280: 1345 4d3d dd9b 5cbc 7a1b 14bd 19e8 623d
00000290: 2dca 78bd 46e1 943d ab0f b4bc e9e0 ba3c
000002a0: fad0 8e3d 034b dc3d b4b8 72bc 5754 81bd
000002b0: 5b6d c0bc 2860 c6bd 993c f63d 22bb 523d
000002c0: 4879 6c3d f8f5 62bb dec3 3abd d7a0 d33d
000002d0: 944b 523d fe0a 7bbd 78e4 85bd 054e c23d
000002e0: c097 7e3d 8171 7b3b 3948 933b fbb9 1a3c
000002f0: 55a4 0a3e 74fb f23d 20b7 adbc 9291 0f3d
00000300: 248a 3abd 2136 743c 3f49 023d f274 1abd
00000310: 7f45 7b3d af72 d83d 0888 c23d 1a82 793d
00000320: e88f 4abd 9e59 1e3d 75d2 003e 8abf c03d
00000330: 31ff 973d 3010 923d 4bda 63bc 28aa 24bd
00000340: d515 4c3d 5ae8 31bd 20b7 6f3c 791b e7bc
00000350: 7016 4e3c 2693 98bd 0414 3c3d 695d 713d
00000360: ce7a a53d c131 9b3b ff13 abbc 9e95 943d
00000370: 8cbd 9c3d 9051 923b 7703 8e3c 0287 043d
00000380: 853d 67bd d01e 07bd c520 7a3d 0e81 183d
00000390: e73c 60bd 3715 efbc 441f 8b3c b2cd bbbc
000003a0: de1d 9a3d 5697 d73d f9a1 4fbd 4fc0 ba3d
000003b0: b1af 993d 9158 1dbd c230 483d dd8f 92bd
000003c0: 6803 16bd ba2d 1cbd a3f8 03bd 2899 f93c
000003d0: a5bb 50bd fc94 443c 0a9a 06bc fba0 8c3d
000003e0: db94 1f3c 1f25 bcbb 5f96 e53d 4c83 963d
000003f0: e9ec 4d3c 4db7 3e3c 425c d03d 8674 743d
0.0128641855 0.007850137 -0.0036504262 -0.026783349 -0.03776565 0.047156204 -0.008335314 -0.0041252845
-0.05936572 -0.04222774 -0.018942429 0.06225799 -0.021800157 0.05375753 0.01514672 0.09652643
-0.03811544 0.09071493 -0.069502495 0.039662622 0.026218884 -0.01469213 -0.009857682 -0.024562912
0.07469742 0.08237042 0.0029868486 0.09098716 0.016118823 -0.036938567 0.07749942 0.047426015
0.07896409 0.018308938 -0.03585603 0.055861253 -0.029941708 -0.02824083 0.011692223 0.028162478
0.049221545 -0.06669284 0.091813356 0.06249513 -0.029599389 0.078269824 0.008556142 -0.009462971
-0.05592485 0.063110776 0.0476965 0.070314504 0.047037944 -0.07362052 0.028816257 0.09613547
0.09961703 0.059304424 -0.04995074 0.041209623 -0.025055707 -0.019880857 -0.042911958 0.019614685
0.07626821 0.015398197 0.051905703 0.028803816 0.007792871 0.08230309 -0.031062916 0.04371248
0.04389419 -0.030882703 0.023812538 -0.04084257 0.018049344 -0.0011364019 0.028774496 0.075510904
0.099391975 -0.057544466 0.0017569329 0.0797504 0.06011276 0.024197554 0.06463777 -0.07368171
0.026364047 -0.021762056 0.15289132 0.027009169 0.061726633 -0.006434245 0.015960824 0.04565963
0.10734293 -0.016019963 -0.031903278 0.012223073 0.074890606 0.05103877 -0.05941031 0.022572732
0.040106684 0.061960135 0.11199808 0.03612533 0.046133474 0.07323803 0.043883353 -0.024786714
0.020782918 0.020081054 0.123820364 -0.00940062 -0.05143843 -0.020848824 0.050914004 -0.0014577276
0.0046265167 -0.009073238 -0.014828764 -0.03238037 0.044834286 0.07498171 0.046829216 0.03300476
0.033965975 0.02190351 0.1300809 0.04311037 0.09889267 0.04806289 -0.031501945 0.04255755
0.004756867 0.019761354 -0.016486503 0.065583564 0.0014866532 0.0041086376 -0.05450466 0.0002609149
-0.053128522 0.060124096 0.0435999 0.092456706 0.06565044 -0.0026322142 -0.0012719359 0.018271375
0.0059261774 -0.008857109 -0.0204843 0.029477505 0.11094836 -0.058088887 0.08639452 0.003953307
0.050114702 -0.013464895 -0.036159016 0.055397127 -0.060739685 0.0726953 -0.021980127 0.022812324
0.06973453 0.10756495 -0.0148145445 -0.06314915 -0.023489645 -0.09686309 0.12023277 0.051447995
0.05773285 -0.0034631472 -0.04559695 0.10333412 0.05134161 -0.06128978 -0.065377176 0.09487537
0.06215644 0.0038367214 0.0044946936 0.009443755 0.1353925 0.11864367 -0.021205485 0.035050936
-0.045541897 0.014905483 0.031808134 -0.037709184 0.061345574 0.10568749 0.09498602 0.06091509
-0.049453646 0.038659684 0.12580283 0.09411533 0.07421721 0.07131994 -0.013907026 -0.040201336
0.04982551 -0.04343448 0.014631063 -0.028211342 0.012578592 -0.07449941 0.045917526 0.058926973
0.08080064 0.0047361557 -0.020883558 0.072551 0.07653341 0.0044652894 0.017335637 0.032355316
-0.056455154 -0.03298837 0.061066408 0.03723245 -0.05474558 -0.02918492 0.016982682 -0.022925232
0.07525228 0.10526912 -0.05069158 0.09118711 0.075042136 -0.03841454 0.048874624 -0.07156346
-0.036624342 -0.038129546 -0.03221954 0.030468538 -0.0509602 0.011998411 -0.008215437 0.06866642
0.00974008 -0.00574173 0.11210322 0.07349262 0.012568691 0.011640382 0.10173847 0.059681438

net.4.bias f4 [14]
00000000: c18b bb3d 1f0e b3bd 4b5a 17ba 54e1 53bc
00000010: 5415 9f3c f438 b53d 7d5c 7e3c a1c8 23bc
00000020: 6bde d63b 4080 d23a 21b8 883d 17a8 61bd
00000030: 0b91 723d 060c edba
0.09157515 -0.08742928 -0.00057736476 -0.01293214 0.01941935 0.088487536 0.015524981 -0.009996564
0.006557276 0.001605995 0.06675745 -0.055091944 0.059220355 -0.0018085248
