checkpoint/final/agent_1/policy.pth (torch, 331529 bytes, 6 tensors)

net.0.weight f4 [256, 49]
0	0xbcd04981	-0.025425674
1	0x3c347b3d	0.01101571
2	0x3d46698b	0.048440497
3	0xbc998270	-0.018738955
4	0x3e19038b	0.14942758
5	0x3c7cb1c0	0.015423238
6	0xbe228c5a	-0.15873852
7	0x3dc2f829	0.09519989
8	0xbdd890c7	-0.10574489
9	0x3d3851ed	0.045000006
10	0xbdb5fda3	-0.08886268
11	0xba442dc3	-0.00074836257
12	0x3ddccf22	0.10781695
13	0xbcb5744d	-0.022150183
14	0xbd97a915	-0.07405297
15	0xbde95182	-0.113924995
16	0x3dc33518	0.09531611
17	0x3dbd17d9	0.09233064
18	0xbcae9e57	-0.021315737
19	0x3dbda43d	0.092598416
20	0x3cfee390	0.03111437
21	0xb80784c7	-3.2310167e-05
22	0x3d711acb	0.058863442
23	0xbdb4a285	-0.08820061
24	0x3e454c11	0.19267298
25	0x3d6a252a	0.05716435
26	0xbdc59b03	-0.09648707
27	0xbdfb0497	-0.12256735
28	0xbd1e789a	-0.038689233
29	0x3d27b9fe	0.04094886
30	0xbe26b75e	-0.16280887
31	0xbbe075ab	-0.0068499646
32	0x3c68acab	0.0142013235
33	0xbb500593	-0.0031741604
34	0x3d5ba3a5	0.05362286
35	0x3d4e840a	0.05041889
36	0xbdc123fb	-0.09430691
37	0xbe2e174d	-0.17001076
38	0xbc85388f	-0.01626232
39	0xbd0387ea	-0.03211204
40	0xbd4f79be	-0.05065321
41	0xbe04fd95	-0.12987359
42	0xbd0f3036	-0.034958087
43	0xbe180938	-0.14847267
44	0x3d9bc75f	0.076063864
45	0xbe1018fd	-0.14072032
46	0x3dc1d27a	0.09463973
47	0xbd70d580	-0.05879736
48	0x3c16efd1	0.00921245
49	0x3deff0a1	0.11715818
50	0xbd94651b	-0.07245847
51	0x3e07462f	0.13210367
52	0x3e1b9ce0	0.15196562
53	0x3d964edb	0.07339259
54	0x3db641a8	0.08899242
55	0xbdf6a68a	-0.120434836
56	0x3c662d12	0.014048832
57	0xbe046be5	-0.12931783
58	0x3c8f3bda	0.017484594
59	0xbddd3f7d	-0.10803125
60	0xbd66056b	-0.05615751
61	0xbdaacfaa	-0.0834039
62	0x3d3298b1	0.04360265
63	0x3da21bda	0.079154685
64	0xbdc09e8e	-0.09405242
65	0xbdbd219e	-0.092349276
66	0x3e11d630	0.14241862
67	0xbb91fb0e	-0.004454977
68	0x3d9bcfe1	0.07608009
69	0x3cc54398	0.024080083
70	0x3e074492	0.13209751
71	0x3d94b1c3	0.07260468
72	0x3d043e91	0.03228623
73	0xbda3402d	-0.07971225
74	0x3d96d862	0.073654905
75	0x3c649262	0.013950916
76	0xbdf80a70	-0.12111366
77	0xbcf0695a	-0.02934711
78	0xbbe1e369	-0.0068935645
79	0xbe0b7fb3	-0.13622932
80	0xbcac4126	-0.021027159
81	0x3d24094e	0.040047936
82	0xbce18666	-0.027529906
83	0xbda7702f	-0.08175694
84	0xbd6d21a2	-0.057893403
85	0xbb8f8066	-0.00437932
86	0xbc050c97	-0.008120677
87	0xbd8e4c8b	-0.06948193
88	0xbd71c542	-0.05902601
89	0xbca2ded3	-0.019881641
90	0xbdc106b0	-0.09425104
91	0xbd99cfed	-0.07510362
92	0x3dc77734	0.09739533
93	0xbc1e4965	-0.009661053
94	0x3d943712	0.07237066
95	0x3d24c9d6	0.04023155
96	0x3e09bfd5	0.13452084
97	0xbd0e5bb5	-0.034755427
98	0xbda7234e	-0.08161031
99	0x3d1eef2e	0.03880232
100	0xbbe49063	-0.00697522
101	0x3e0c534c	0.1370365
102	0x3e013686	0.12618455
103	0xbe150fba	-0.1455678
104	0x3de3a37d	0.11115167
105	0xbc2a19b8	-0.010382108
106	0xbdbd2cde	-0.09237073
107	0x3e1d35e2	0.15352586
108	0x3d1d5383	0.03840972
109	0x3d33d804	0.04390718
110	0x3de9b31d	0.11411116
111	0x3d9ac4d8	0.07557076
112	0xbcdcf9ef	-0.026974646
113	0xbe1324c6	-0.14369497
114	0xbe520d72	-0.20512941
115	0x3cddf1c8	0.02709283
116	0xbe0d7462	-0.13813928
117	0x3cc08b74	0.023503996
118	0xbdb7d61d	-0.08976386
119	0xbd3a8315	-0.045535166
120	0x3e1863f3	0.14881878
121	0x3d80ce2f	0.062893264
122	0x3dc2d120	0.09512544
123	0xbdc3a641	-0.09553195
124	0x3d02d2e8	0.031939417
125	0xbdf8d59a	-0.12150116
126	0xbca1c502	-0.019747261
127	0xbd730540	-0.05933118
128	0xbd02045b	-0.031742435
129	0x3cb0d263	0.021584695
130	0xbd9f7803	-0.07786562
131	0x3d2e3fd3	0.042541336
132	0x3e15d1a2	0.1463075
133	0xbde724cf	-0.112863176
134	0xbd364f9a	-0.044509508
135	0x3ddc9715	0.10771004
136	0xbd26fc1c	-0.040767774
137	0xbbcec4d5	-0.0063100853
138	0x3ce9d0cd	0.028541947
139	0x3dc5dc06	0.09661107
140	0x3e2f9821	0.17147876
141	0xbdbc0c9d	-0.09182093
142	0x3df6837e	0.12036799
143	0x3db0595b	0.08610793
144	0xbdb760ba	-0.08953996
145	0xbe6868c0	-0.22696209
146	0xbe4bc8a4	-0.19900757
147	0xbd1623b0	-0.036655128
148	0x3d9b78aa	0.07591374
149	0xbd35382d	-0.044243027
150	0xbc1c8c06	-0.009554869
151	0xbd9afbe8	-0.075675786
152	0x3cf80b91	0.030278953
153	0xbe20880d	-0.15676899
154	0xbe0e14f7	-0.13875185
155	0x3cc40179	0.023926483
156	0x3d04e211	0.032442156
157	0x3d54b010	0.05192572
158	0x3c92bfa1	0.017913641
159	0xbd9eefb8	-0.077605665
160	0x3e1050ae	0.14093277
161	0x3df0409b	0.117310725
162	0x3de9703b	0.113983594
163	0x3e2fe909	0.1717874
164	0x3d8f085c	0.06984016
165	0xbd928786	-0.07154755
166	0xbe0b05bf	-0.1357641
167	0x3d7463f7	0.059665646
168	0x3d2e975e	0.042624824
169	0x3dedd08d	0.116120435
170	0xbde4328f	-0.11142456
171	0x3d28f2b5	0.04124709
172	0xbce22ba5	-0.027608702
173	0xbdc1b5b4	-0.09458485
174	0xbbc20d4f	-0.0059219967
175	0xbd76f85e	-0.060295455
176	0x3acaec1a	0.0015481741
177	0x3d577b8d	0.05260806
178	0xbd2151b3	-0.039384555
179	0xbbe9f83f	-0.007140189
180	0x3e0b66ae	0.13613388
181	0x3db7c07a	0.08972259
182	0x3dfe9d8d	0.12432394
183	0xbd57e188	-0.052705318
184	0x3cca63e5	0.024705837
185	0x3e15f31a	0.14643517
186	0x3e1cc7f8	0.15310657
187	0x3dfe801b	0.12426778
188	0x3dbce9bb	0.09224268
189	0x3d221be1	0.03957737
190	0xbe29b192	-0.16571644
191	0xbd4694ee	-0.048481874
192	0x3d7a8781	0.061164383
193	0xbe01a2cc	-0.12659758
194	0x3dca6e45	0.098843135
195	0xbd8113bc	-0.06302592
196	0x3c15abb9	0.00913518
197	0x3d325816	0.043541037
198	0xbe056aa0	-0.13028955
199	0x3b129b8e	0.002237055
200	0x3abf176e	0.0014579126
201	0x3e08d354	0.13361865
202	0x3d61f678	0.05516669
203	0xbc49cc73	-0.012316811
204	0xbd804fe1	-0.06265236
205	0x3db9ad9c	0.090663165
206	0xbd53e768	-0.051734358
207	0xbd9f012d	-0.07763896
208	0x3e382ae5	0.17985113
209	0x3e30d55b	0.17268889
210	0x3d0e8a8d	0.0348001
211	0xbd964580	-0.07337475
212	0x3d89df08	0.06731993
213	0x3da9e45f	0.082955115
214	0x3d613657	0.054983463
215	0x3e1f70c0	0.15570354
216	0xbd95e8ca	-0.073197916
217	0xbc8ab7b8	-0.016933307
218	0x3da5562a	0.08073075
219	0xbdafd1b9	-0.08584923
220	0xbe04220f	-0.12903617
221	0x3d482b03	0.048869144
222	0xbe3a4a52	-0.18192413
223	0x3af2c382	0.0018521401
224	0xbdb6c5ab	-0.08924421
225	0x3d8783f9	0.06616969
226	0xbde9db89	-0.11418826
227	0x3d5aea6b	0.053446215
228	0x3da4f3af	0.080542915
229	0x3ddbb13b	0.107271634
230	0xbe078d92	-0.13237599
231	0x3dcb0b13	0.099142216
232	0xbb1a2809	-0.0023522398
233	0xbd2ebaab	-0.04265849
234	0xbd41de6d	-0.047331262
235	0x3d732004	0.059356704
236	0xbe0fe3d2	-0.1405175
237	0x3de5f662	0.112286344
238	0x3b952e81	0.004552663
239	0x3d1b9d03	0.037991535
240	0xbda9d256	-0.082920715
241	0x3cfb5194	0.030678548
242	0xbc08d727	-0.008352078
243	0x3e18849f	0.14894341
244	0xbdbb1f3e	-0.09136818
245	0x3dbc00c5	0.09179834
246	0x3daa0eb0	0.08303583
247	0x3cc3fe04	0.023924835
248	0x3c932d14	0.01796583
249	0x3d8a471f	0.067518465
250	0xbe105778	-0.14095867
251	0xbde17f1e	-0.11010574
252	0xbd062dfe	-0.032758705
253	0x3de4af36	0.11166231
254	0xbe03095e	-0.12796542
255	0xbdf3e402	-0.119087234

net.0.bias f4 [256]
0	0xbc4166d3	-0.0118043
1	0x3e342595	0.17592461
2	0x3dbbed77	0.09176152
3	0x3d2e1122	0.042496808
4	0x3e08228f	0.13294433
5	0x3d8aaa53	0.06770768
6	0x3d3e4ed6	0.046461903
7	0xbd8342a3	-0.06409194
8	0xbcef1e2d	-0.029189194
9	0x3e177f27	0.14794599
10	0xbd329538	-0.043599337
11	0x3e283024	0.16424614
12	0xbd5e6ce0	-0.05430305
13	0x3b45e742	0.0030197655
14	0xb9d7f43b	-0.00041189961
15	0x3e33dd75	0.17564948
16	0x3e0ffe76	0.14061913
17	0xbdda22e3	-0.10651185
18	0x3c4da34c	0.01255114
19	0x3df70772	0.12061967
20	0x3e2460ca	0.16052547
21	0x3d8f5b5b	0.069998465
22	0xbc0c489d	-0.008562234
23	0x3d43b520	0.047780156
24	0x3d9aebb8	0.07564491
25	0xbddb2c08	-0.10701758
26	0x3d6211f4	0.055192903
27	0xbd49fa75	-0.04931112
28	0x3e10150c	0.14070529
29	0xbd807326	-0.06271963
30	0xbd32812a	-0.04358021
31	0xbdaf661a	-0.08564396
32	0xbd229e13	-0.039701533
33	0x3e169a57	0.14707313
34	0xbd7e7a47	-0.06212833
35	0xbd745e85	-0.059660453
36	0xbdfec658	-0.12440175
37	0x3e21afee	0.15789768
38	0x3e2885bf	0.1645727
39	0xbb9b84d0	-0.004746057
40	0xbce3f727	-0.027827812
41	0x3dbd80e1	0.09253097
42	0x3c2a9f0c	0.010413896
43	0x3c0c7e14	0.008574981
44	0xbe17b912	-0.14816692
45	0xbd4f8d4e	-0.050671868
46	0x3dfb7f89	0.12280185
47	0x3d2970d5	0.04136737
48	0xbc2052fb	-0.009785409
49	0x3cd71d11	0.026258977
50	0x3dfe9545	0.12430815
51	0x3d4815b5	0.048848826
52	0xbe01e550	-0.12685132
53	0x3d807d5f	0.06273913
54	0x3c7d46e5	0.015458797
55	0x3cd6cf35	0.02622185
56	0x3ab47b39	0.0013769633
57	0xbdd0392a	-0.10167153
58	0x3e2f889c	0.17141956
59	0x3e0bae96	0.13640818
60	0xbce3ce03	-0.027808195
61	0xbd5591b0	-0.05214089
62	0x3e2ce0e2	0.16882661
63	0xbdea7280	-0.114476204
64	0xbd9d1a60	-0.07671046
65	0x3db3074c	0.08741626
66	0x3da53ce9	0.08068258
67	0x3e263e71	0.16234757
68	0x3abcdeeb	0.0014409696
69	0x3d2b0736	0.041754924
70	0xbd80d26f	-0.06290137
71	0xbd3052f8	-0.043047875
72	0xbcccf739	-0.025020229
73	0x3d17a335	0.03702088
74	0x3d978113	0.07397666
75	0xbde9faec	-0.11424813
76	0x3e41f730	0.18941951
77	0x3ddebfe1	0.10876442
78	0xbd0dda6d	-0.034632135
79	0xbe1d589e	-0.15365836
80	0x3dfd031a	0.12354107
81	0xbd9837b3	-0.07432499
82	0xbc7386a7	-0.014863647
83	0xba93e52b	-0.0011283507
84	0xbd5779aa	-0.052606262
85	0x3db1c7f9	0.0868072
86	0x3d8cc981	0.06874371
87	0x3c083e66	0.008315658
88	0x3db93767	0.0904377
89	0xbcb80279	-0.022462117
90	0x3d4840ed	0.048890043
91	0xbd89419c	-0.06701967
92	0x3ce036b6	0.027369838
93	0x3dd5f279	0.104466386
94	0x3d7836e6	0.06059923
95	0xbd31f407	-0.043445613
96	0x3e056b16	0.13029131
97	0x3c9c06e6	0.019046258
98	0xbd6be85b	-0.05759464
99	0xbc7d30d7	-0.015453539
100	0xbd6cb6a1	-0.057791356
101	0xbd92c30a	-0.07166107
102	0xbccb0983	-0.024784809
103	0xbcc40423	-0.023927754
104	0xbde6f91a	-0.11277981
105	0x3e0bc60d	0.13649769
106	0xbddce3bc	-0.107856244
107	0xbd05d3fd	-0.03267287
108	0xbd890961	-0.06691242
109	0xbd7ca410	-0.0616799
110	0x3d682aa0	0.056681275
111	0xbe072483	-0.13197522
112	0xbafb51ed	-0.0019174196
113	0x3bcd3094	0.0062618945
114	0x3c801366	0.01563425
115	0x3bd0e4b5	0.0063749203
116	0x3debed19	0.11519832
117	0x3d360752	0.044440575
118	0x3d2ece99	0.042677496
119	0x3d818e12	0.06325926
120	0xbcdb8c24	-0.026800223
121	0xbe2a5d76	-0.16637215
122	0x3df5f63e	0.120098576
123	0x3b766f25	0.0037602868
124	0x3d1d6f02	0.038435943
125	0x3e0bd11a	0.13653985
126	0x3e0cceca	0.13750759
127	0xbc24bdd9	-0.010055029
128	0x3e043ad7	0.1291307
129	0xbd528200	-0.05139351
130	0x3d480d47	0.048840787
131	0xbd961f27	-0.073301606
132	0x3dcc964e	0.09989606
133	0xbd3bd54c	-0.045857713
134	0xbd099e24	-0.03359808
135	0x3de6f80d	0.11277781
136	0x3d490629	0.04907814
137	0x3cd08519	0.02545409
138	0xbdf809d2	-0.12111248
139	0xbc490c56	-0.0122710075
140	0x3b1a94f6	0.0023587323
141	0x3e603960	0.21896887
142	0x3dcde964	0.10054281
143	0xbc1169e9	-0.008875349
144	0x3dfd1bd8	0.123588264
145	0xbca0d91e	-0.01963478
146	0xbe00f0b8	-0.12591827
147	0x3d5ffbac	0.054683372
148	0xbd1e9b8a	-0.038722552
149	0xbd87f4a9	-0.06638462
150	0xbd96f699	-0.073712535
151	0xbcc4f70d	-0.024043584
152	0x3e021ce1	0.12706329
153	0xbdd4ef4f	-0.10397207
154	0xbd346b0b	-0.044047397
155	0x3e3814cc	0.17976683
156	0x3a6ca345	0.00090270146
157	0x3de130d9	0.10995645
158	0x3de1eb74	0.11031237
159	0x3cf675c8	0.03008546
160	0xbd9f0605	-0.0776482
161	0x3d4be8a9	0.04978243
162	0xbd969836	-0.07353251
163	0x3d7c589d	0.061607946
164	0xbd35a8fc	-0.04435061
165	0xbd1cdb20	-0.03829491
166	0xba8bec29	-0.001067524
167	0xbdfc3fa1	-0.12316824
168	0x3dda8bd2	0.106712
169	0xbd7704b4	-0.06030722
170	0xbb17dd78	-0.0023172777
171	0x3de64198	0.1124298
172	0xbda8961a	-0.082317546
173	0x3d2dbf97	0.042419042
174	0x3db00404	0.08594516
175	0x3d070e82	0.03297282
176	0x3d3a5deb	0.045499723
177	0x3d81c30a	0.06336029
178	0x3d039f5a	0.03213439
179	0x3b016217	0.0019742304
180	0xbdb4df5c	-0.08831665
181	0xbe1a163e	-0.15047547
182	0x3dcbdc5b	0.09954139
183	0x3c3df02a	0.011592904
184	0xbe078d83	-0.13237576
185	0x3db96b3c	0.090536565
186	0x3be30ebe	0.0069292476
187	0x3e04a9da	0.12955418
188	0xbdd2c921	-0.102922685
189	0x3d0f3c44	0.034969583
190	0xbde4f664	-0.11179808
191	0x3c970e7a	0.01843952
192	0x3dacf027	0.08444243
193	0x3e049446	0.12947187
194	0x3de4a83b	0.111649
195	0xbc7a1c75	-0.015265574
196	0xbd9276ce	-0.071515664
197	0x3db8b4df	0.090188734
198	0xbc52ba30	-0.012861773
199	0xbdc0456a	-0.0938824
200	0x3df35ebf	0.11883306
201	0x3da75a11	0.08171476
202	0x3dc7c9a6	0.09755258
203	0x3dcce219	0.10004062
204	0xbd986fd7	-0.07443207
205	0x3d8ca460	0.068672895
206	0x3de8bc7f	0.11364078
207	0xbd94d58d	-0.07267294
208	0x3db4cc46	0.088280246
209	0x3d317649	0.043325696
210	0xbd0e4aa6	-0.03473916
211	0x3c8d17b3	0.017223215
212	0x3dd35ece	0.10320817
213	0xbbd8f0d4	-0.006620506
214	0xbc7b3005	-0.015331273
215	0xbded7938	-0.11595386
216	0x3dc4bc15	0.09606186
217	0x3d1f5c8b	0.038906615
218	0xbdbd5b3a	-0.09245916
219	0x3ddaa19c	0.10675356
220	0xbdc0d911	-0.09416402
221	0xbd0051ff	-0.031328198
222	0xbe2d295e	-0.16910312
223	0x3dfbe44e	0.12299405
224	0xbc729e61	-0.014808268
225	0xbc298362	-0.0103462655
226	0x3d831adf	0.0640161
227	0x3de678fd	0.112535454
228	0xbc8371cb	-0.016045472
229	0x3df74a2c	0.12074694
230	0xbdc20f9f	-0.09475636
231	0x3dc8a2d7	0.09796684
232	0x3df20ed7	0.11819237
233	0x3c8e9d79	0.017409073
234	0x3e1ddea5	0.15416963
235	0xbd030d70	-0.031995237
236	0x3d53adf7	0.051679578
237	0xbd157823	-0.036491524
238	0x3cf6c651	0.030123862
239	0x3dc4fcd3	0.09618535
240	0x3da1f6ce	0.079084024
241	0x3dd1fdcf	0.10253488
242	0x3dde2538	0.10846943
243	0x3caaa455	0.020830313
244	0xbe0baf0d	-0.13640995
245	0xbdc951c7	-0.09830051
246	0x3e23cf04	0.15996939
247	0xbd2df8d5	-0.042473633
248	0xbdae5e7c	-0.08514115
249	0xbde888fa	-0.11354251
250	0x3df344c6	0.11878352
251	0xbbec9ade	-0.00722061
252	0x3df06b42	0.11739208
253	0x3e271a1d	0.16318555
254	0xbbfe47ec	-0.0077600386
255	0x3c21b7a9	0.009870448

net.2.weight f4 [256, 256]
0	0x3bdb5ec4	0.0066946466
1	0xbbdf128d	-0.0068076313
2	0xbd5b01f9	-0.05346868
3	0xbd192122	-0.037385114
4	0xbc96a98a	-0.01839139
5	0xbd4ecf84	-0.05049087
6	0xbbab298f	-0.00522346
7	0xbb73b0ce	-0.0037184241
8	0xbd8bd995	-0.0682861
9	0xbc3c51da	-0.011494124
10	0xbbb057c7	-0.0053815576
11	0xbd38bcf6	-0.045102082
12	0x3d652266	0.055941008
13	0xbd8b7251	-0.068089135
14	0xbd540225	-0.051759858
15	0x3be5ad73	0.007009202
16	0x3d2866f2	0.0411138
17	0x3d1e2ee2	0.03861893
18	0xbcc97e51	-0.024596365
19	0x3d5b1150	0.053483307
20	0x3cb55209	0.022133844
21	0xbc43572a	-0.011922637
22	0xbd905fea	-0.07049544
23	0x3da3ba8a	0.07994564
24	0xbd36c46e	-0.044620924
25	0x3d866359	0.06561918
26	0xbca5e0cf	-0.020248799
27	0xbd1c0b77	-0.03809687
28	0xbcad0219	-0.021119164
29	0x3d1af982	0.037835605
30	0xbca87e5d	-0.020568067
31	0xbd2cab57	-0.04215559
32	0x3b3f1b40	0.002916053
33	0xbd2c8917	-0.042122927
34	0xbc8c74c1	-0.017145516
35	0xbbde865e	-0.00679092
36	0x3d1cdf52	0.038298912
37	0x3d0b3c0b	0.03399281
38	0xbd11c3e6	-0.035587214
39	0x3d1bf425	0.03807463
40	0xbd8e31b2	-0.069430724
41	0x3d157ff8	0.036498994
42	0xbbda4470	-0.0066609904
43	0xbd4ef345	-0.05052497
44	0xb9e3906e	-0.00043404422
45	0x3cc98c25	0.024602959
46	0xbcb3620d	-0.02189734
47	0x3d98e336	0.07465212
48	0xbdd9e042	-0.10638477
49	0xbd2e7942	-0.04259611
50	0xbd855d1d	-0.065119006
51	0xbd1f88ae	-0.038948707
52	0xbd847e8a	-0.06469448
53	0x3c3c02bc	0.011475261
54	0xbc493948	-0.012281723
55	0xbcc54dec	-0.024085008
56	0x3b52734f	0.0032112186
57	0xbd06100e	-0.032730155
58	0xbd0f3cb2	-0.034969993
59	0x3cbfb050	0.023399502
60	0xbcc9dc40	-0.024641156
61	0xbd9b0c93	-0.07570758
62	0xbd4d2e3d	-0.050092924
63	0xbc68f3da	-0.014218295
64	0x3d824da8	0.06362468
65	0x3d2b1399	0.041766737
66	0x3b3ab0b6	0.0028486676
67	0x3d34bf0a	0.0441275
68	0xbd0d4d4d	-0.034497548
69	0xbcb60b4b	-0.022222182
70	0xbaa96a3e	-0.0012925339
71	0xbcdff224	-0.027337141
72	0xbb830425	-0.003998297
73	0xbcb26fc0	-0.021781802
74	0xbd40fe68	-0.04711762
75	0xbc89e8ab	-0.016834578
76	0x3d529985	0.05141594
77	0x3d9659fe	0.073413834
78	0x3d1b929c	0.037981614
79	0x3c594974	0.0132621415
80	0xbd398045	-0.045288343
81	0x3cfeb599	0.031092452
82	0xbd853da8	-0.065059006
83	0x3c9f2a39	0.019429313
84	0x3dc38b06	0.09548001
85	0xbcf4dc60	-0.02989024
86	0xbcd2a919	-0.025715398
87	0x3d9d0139	0.07666249
88	0x3d8813b7	0.06644385
89	0xbd2f8dde	-0.042859904
90	0xbd1dbb3e	-0.038508646
91	0xbbdf8f8c	-0.006822532
92	0xbd72f6bc	-0.059317335
93	0xbb156247	-0.0022794174
94	0xbd6ec7c1	-0.05829597
95	0xbda77a7f	-0.08177661
96	0xbd215aa0	-0.039393067
97	0xbd3be411	-0.045871798
98	0xbcbbe933	-0.022938346
99	0xbd04733a	-0.03233645
100	0xbd885d9f	-0.06658482
101	0x3d048b86	0.032359622
102	0x3cc9f0aa	0.02465089
103	0xbd39ad79	-0.045331452
104	0xbb8a56fe	-0.004221796
105	0xbd0e9242	-0.03480745
106	0x3cdb6488	0.026781335
107	0x3cac4729	0.021030026
108	0xbcf012fb	-0.029305926
109	0x3d92529d	0.071446635
110	0x3c993d9d	0.018706137
111	0x3da0b3e1	0.07846809
112	0xb9198bd3	-0.00014643306
113	0xbc9e95b1	-0.019358488
114	0xbd4c9a3c	-0.049951777
115	0x3c9fcf3d	0.019507999
116	0x3c9568c2	0.018238429
117	0x3c82e66c	0.015979014
118	0xbd593f1e	-0.05303871
119	0x3d408fb1	0.047012035
120	0xbd1d62e7	-0.0384244
121	0xbc5552f6	-0.013020268
122	0x3c9cc1e1	0.019135417
123	0xbd8198c0	-0.06327963
124	0xbd860a21	-0.06544901
125	0x3ccfb173	0.02535317
126	0xba97d6fe	-0.0011584458
127	0xbaefb45d	-0.0018288005
128	0xbd6c0aa4	-0.057627335
129	0xbd870122	-0.06592013
130	0x3d17c03d	0.037048567
131	0x3b366eb2	0.0027836976
132	0xbcd1cb08	-0.025609508
133	0x3c102274	0.008797277
134	0x3d73cdbf	0.059522387
135	0x3d339c2b	0.043850105
136	0x3d304202	0.0430317
137	0xbd615765	-0.055014987
138	0xbd340581	-0.04395056
139	0xbdb860d6	-0.09002845
140	0xbc867c33	-0.016416645
141	0xbd98aca3	-0.07454803
142	0x3cbe2115	0.023209134
143	0xbcb7618b	-0.02238538
144	0x3c5a1b01	0.013312102
145	0x3d07ee1a	0.033186056
146	0x3d23761c	0.03990756
147	0xbdaebaab	-0.08531698
148	0xbd8d6f84	-0.069060355
149	0xbcc50d74	-0.024054267
150	0x3d28dff3	0.0412292
151	0x3d52ac1b	0.051433664
152	0xbc75e64e	-0.015008522
153	0x3d294be5	0.041332144
154	0xbd4546c3	-0.048163187
155	0x3d4010ba	0.04689095
156	0xbce3f2a3	-0.02782566
157	0xbda151ab	-0.07876905
158	0xbd08c708	-0.033392936
159	0x3d616210	0.05502516
160	0x3cd648b8	0.026157722
161	0xbd4fa41d	-0.05069362
162	0x3d259965	0.04042949
163	0x3c9f6d2c	0.019461237
164	0x3d72b568	0.059255034
165	0x3d212f82	0.039351948
166	0x3b214eff	0.0024613736
167	0xbc513094	-0.01276793
168	0xbd9c5caa	-0.07634862
169	0x3d3acd78	0.045606107
170	0xbcf41069	-0.029792981
171	0xbda02caa	-0.07821019
172	0xbd301394	-0.04298742
173	0x3c8895d4	0.016673006
174	0x3d8e3134	0.069429785
175	0xbcfc8c67	-0.030828668
176	0xbd3582cb	-0.044314187
177	0x3d05b9df	0.032647964
178	0x3d625747	0.055259015
179	0x3b8f215c	0.0043679904
180	0xbc54e3fb	-0.012993808
181	0x3cdc556c	0.026896201
182	0x3cf352e0	0.029702604
183	0xbd3bf4e0	-0.045887828
184	0xbca766c9	-0.020434754
185	0x3ce43911	0.027859243
186	0xbc75010e	-0.014953865
187	0xbd8b3f5e	-0.06799196
188	0xbd70348a	-0.058643855
189	0x3d092c23	0.033489358
190	0x3beaddf6	0.007167573
191	0x3d650e53	0.055921864
192	0x3ce1193a	0.02747785
193	0x3cbeefad	0.023307646
194	0x3b8fa0dc	0.0043831896
195	0x3d5272a7	0.051378872
196	0xbcf56852	-0.02995697
197	0xbd30f947	-0.04320648
198	0x3d267d94	0.040647104
199	0x398a52fb	0.00026383236
200	0xbd45063b	-0.048101645
201	0xbdb187e8	-0.086685
202	0x3d0c614c	0.034272477
203	0x3cb467b4	0.022022106
204	0x3d4a6d4a	0.049420632
205	0x3d8f29aa	0.06990369
206	0x3cd66b56	0.026174229
207	0x3c47d797	0.012197397
208	0x3d3df5ee	0.046377115
209	0xbda4aa6c	-0.08040318
210	0x3d9e6412	0.07733931
211	0xbca20ef7	-0.019782526
212	0xbd6b4757	-0.05744108
213	0xbd407ea3	-0.04699577
214	0x3ba1a4be	0.004932969
215	0xbced1a04	-0.02894307
216	0x3b75918c	0.0037470786
217	0xbd961725	-0.07328633
218	0xbd597735	-0.0530922
219	0x3d150b86	0.036387943
220	0xbd430fbe	-0.047622435
221	0xbd14919b	-0.036271673
222	0xbd74fca1	-0.05981124
223	0xbd4dd99d	-0.05025636
224	0xbd432963	-0.04764689
225	0xbcfaec0a	-0.03063013
226	0xbc9df412	-0.01928142
227	0xbd841032	-0.064484015
228	0x3baa9aff	0.0052064653
229	0xbdb7b30e	-0.08969699
230	0xbd6bf96d	-0.057610918
231	0x3c927823	0.017879551
232	0xbb84e8ff	-0.0040560956
233	0xbcf3f09c	-0.029777817
234	0x3c1add38	0.009452157
235	0xbde4e189	-0.1117583
236	0x3bd5799b	0.0065147406
237	0x3b243fa7	0.0025062354
238	0xbd3d35a5	-0.046193738
239	0xbab9082e	-0.0014116818
240	0x3d8ec657	0.06971424
241	0xbd8fe7c6	-0.07026629
242	0x3d65685e	0.056007735
243	0xbd3b4541	-0.045720343
244	0xbbfcd3de	-0.007715686
245	0xbd83090c	-0.0639821
246	0xbda8856f	-0.082285754
247	0x3bc08154	0.005874792
248	0x3bb01c23	0.005374448
249	0xbc9d1749	-0.019176142
250	0x3c3f137e	0.011662362
251	0xbd7b6404	-0.06137468
252	0xbbcc9f9f	-0.0062446143
253	0xbc2229ec	-0.00989769
254	0xbc998b6c	-0.01874324
255	0x3c018a8b	0.007906566

net.2.bias f4 [256]
0	0x3b0f08be	0.002182528
1	0x3cd031f2	0.02541444
2	0xbc8328f2	-0.016010735
3	0xbc08435b	-0.00831684
4	0x3d18a79a	0.037269212
5	0x3d82ffd0	0.063964486
6	0x3d8423c2	0.06452133
7	0xbcd86dcd	-0.026419545
8	0xbd285640	-0.04109788
9	0xbbb311b4	-0.005464757
10	0xbd62cb14	-0.05536945
11	0x3bbaba9d	0.0056985156
12	0x3b905196	0.004404257
13	0x3d518c48	0.051159173
14	0xbcb7a684	-0.022418268
15	0x3b458ea9	0.0030144847
16	0x3b14685c	0.002264521
17	0x3cb2268a	0.021746892
18	0x3c4830f9	0.012218707
19	0xbd77a76f	-0.06046241
20	0x3d422f0e	0.047408156
21	0xbd45ba47	-0.04827335
22	0xbc75e52f	-0.015008255
23	0xbc92228b	-0.017838737
24	0x3a11726b	0.00055483606
25	0x3c49e2d9	0.012322151
26	0x3d80aac3	0.0628257
27	0x3bc90803	0.0061349883
28	0x3caeca4f	0.021336703
29	0x3d284b54	0.041087463
30	0x3d6535f1	0.055959646
31	0x3d3cef43	0.046126615
32	0x3dc5ad0d	0.096521474
33	0x3ca869b2	0.020558212
34	0xbcd35dce	-0.025801565
35	0xbc237bc3	-0.009978238
36	0x3d86912d	0.06570659
37	0x3c9a4c6e	0.018835273
38	0x3c95da30	0.018292516
39	0x3d84b770	0.064803004
40	0x3d3f6782	0.046729572
41	0xbd2d2911	-0.042275492
42	0x3b12cb47	0.0022398995
43	0xbdb66c03	-0.0890732
44	0x3d5642b3	0.052309703
45	0x3d02aad3	0.031901192
46	0x3ce1fb0f	0.027585534
47	0xbcfb31c1	-0.030663373
48	0x3cb2a4ec	0.021807157
49	0xbcb8e938	-0.022572145
50	0xbc834f44	-0.016029008
51	0x3c3a6349	0.0113762105
52	0x3d85c2bd	0.06531284
53	0x3c9d5602	0.01920605
54	0x3c311f07	0.01081062
55	0x3bc52f7e	0.0060176244
56	0x3dd52d73	0.104090594
57	0x3d5b3c0a	0.053524055
58	0x3d2c54bd	0.042073
59	0x3d7ab72f	0.061209854
60	0x3b311aba	0.0027023987
61	0xbc9cdc3b	-0.019147983
62	0xbda148c1	-0.07875205
63	0x3c346659	0.01101073
64	0x3ca22246	0.019791733
65	0xbd617406	-0.05504229
66	0xbd16f4a6	-0.03685441
67	0x3d8abf99	0.067748256
68	0xbd46f682	-0.048574932
69	0x3d95da40	0.073170185
70	0xbd283821	-0.041069154
71	0x3cfe31b5	0.031029562
72	0xbd11ba1d	-0.035577882
73	0xbd9021cc	-0.07037696
74	0x3d81e992	0.06343378
75	0xbdc97e01	-0.098384865
76	0x3cab29a7	0.020893885
77	0x3cda57b9	0.026653158
78	0x3d31dde0	0.043424487
79	0xbc2b696f	-0.010462149
80	0x3d8ca41f	0.06867241
81	0x3c0809e8	0.008303143
82	0x3cf39a46	0.02973665
83	0x3d6eb8d1	0.058281723
84	0x3ccc9022	0.024971072
85	0xbda276df	-0.07932829
86	0x3b895c47	0.0041919085
87	0xbd97435d	-0.073858954
88	0xbd4a45be	-0.049382918
89	0xbd6da07d	-0.05801438
90	0x3ceebf2d	0.029143894
91	0x3c993d7b	0.018706074
92	0xbd392a6b	-0.04520647
93	0xbd117164	-0.03550853
94	0xbbfaf80d	-0.0076589645
95	0xbd4e06b1	-0.05029935
96	0x3cdb5f2f	0.026778786
97	0x3cf33258	0.029687092
98	0xbd78af7b	-0.060714226
99	0x3d553390	0.052051127
100	0x3ce8548c	0.028360628
101	0x3cbac8f9	0.02280091
102	0xbd8da8ca	-0.069169596
103	0xbd33b5cf	-0.043874558
104	0x3d59c1d5	0.05316337
105	0x3c593303	0.013256791
106	0x3d949851	0.072556145
107	0xbd841fe4	-0.06451395
108	0x3d88ea42	0.06685306
109	0xbd0ed949	-0.034875188
110	0xbd9805d9	-0.0742299
111	0xbc0cbfc5	-0.008590643
112	0x3b7392bf	0.0037166325
113	0xbd69e990	-0.05710751
114	0x3dabf994	0.083972126
115	0x3d2bbe32	0.04192943
116	0x3d36a1af	0.044587787
117	0xbc68c72c	-0.0142076425
118	0x3d814aad	0.063130714
119	0x3c5600c0	0.013061702
120	0x3d52cc31	0.051464263
121	0xbd839aaf	-0.06425988
122	0xbd88952b	-0.066690765
123	0xbd9d3680	-0.07676411
124	0xbc1ad51b	-0.009450222
125	0x3de57688	0.11204249
126	0xbd9115e5	-0.07084254
127	0xbd1fa164	-0.038972273
128	0xbb813c7a	-0.003943977
129	0xbd0c6424	-0.03427519
130	0xbcd80c2f	-0.026372997
131	0xbc4b1d13	-0.012397069
132	0x3da34382	0.079718605
133	0x3cb01a59	0.021496939
134	0x3d32fd46	0.04369857
135	0x3d277397	0.04088172
136	0xbc8be4f0	-0.01707694
137	0xbd1d35e1	-0.03838146
138	0x3d970231	0.07373465
139	0x3d06c7ed	0.032905508
140	0x3d4a9742	0.049460657
141	0xbcef19f8	-0.029187188
142	0xbd06907f	-0.032852646
143	0xbd568c0a	-0.052379645
144	0x3d80b87d	0.06285188
145	0x3cae654a	0.021288533
146	0x3d895b2f	0.06706845
147	0x3d863c5b	0.06554481
148	0xbc9d0ffe	-0.019172665
149	0xbc365ce4	-0.011130545
150	0x3c7f7315	0.015591403
151	0x3db8ee1d	0.090297915
152	0x3ca68776	0.020328265
153	0x3d3c8202	0.046022423
154	0xbcc1aa25	-0.023640702
155	0x3d94ee51	0.07272018
156	0x3d5fa968	0.054604918
157	0xbc62b848	-0.013837881
158	0x3d0ab582	0.033864506
159	0xbb912587	-0.0044295224
160	0x3de4aa5f	0.11165308
161	0xbc2a41e4	-0.010391686
162	0x3c1afd36	0.009459784
163	0x3cc32fd6	0.02382652
164	0xbd8e75d0	-0.06956065
165	0x3d9849bd	0.074359395
166	0xbd013746	-0.031546853
167	0xbc02597a	-0.007955903
168	0x3d872174	0.065981776
169	0x3d990b09	0.07472808
170	0x3d081946	0.033227228
171	0xbc08e16e	-0.008354528
172	0xbd79c0ad	-0.060974766
173	0xbd9c42f2	-0.07629956
174	0x3c356181	0.01107061
175	0x3d22b560	0.039723754
176	0x3dbe72c3	0.09299233
177	0x3d65e66c	0.05612795
178	0xbd8a4859	-0.067520805
179	0x3d94187d	0.07231233
180	0xbb619674	-0.0034421952
181	0xbd5bb1b4	-0.053636268
182	0xbdbded20	-0.09273744
183	0x3e04c1ec	0.129646
184	0x3d8fbc4b	0.07018336
185	0x3c92122d	0.017830933
186	0x3c02daa9	0.007986703
187	0x3da02402	0.07819368
188	0x3cebbc01	0.02877617
189	0x3d52ea84	0.051493183
190	0x3b1e2100	0.0024128556
191	0xbd24fa28	-0.04027763
192	0xbd6cbe74	-0.057798818
193	0xbc4d3139	-0.012523943
194	0x3ca97ef3	0.020690417
195	0xbd445174	-0.047929242
196	0xbc903a82	-0.017606024
197	0x3d8dcccb	0.06923827
198	0x3d8d7d69	0.06908686
199	0x3d46d217	0.0485402
200	0x3d26419e	0.04058992
201	0x3d55149c	0.052021608
202	0x3d54f863	0.051994693
203	0x3d39f3ed	0.04539864
204	0xbd187f63	-0.03723086
205	0x3de285cf	0.11060678
206	0xbcbc186b	-0.022960862
207	0x3c73fec2	0.014892282
208	0x3cb5d270	0.022195071
209	0x3cc95ecc	0.024581335
210	0x3d1f1d3f	0.03884625
211	0xbd3303d5	-0.043704826
212	0xbbb00a78	-0.0053723417
213	0xbc2b38f4	-0.01045059
214	0xbd658e82	-0.05604411
215	0x3d43953f	0.047749754
216	0xba976f78	-0.0011553606
217	0x3d3ad78c	0.045615718
218	0xbbae215d	-0.005314036
219	0xbc9b13cb	-0.018930336
220	0x3d8e4c66	0.069481656
221	0xbc5e9892	-0.01358618
222	0x3c8af7df	0.016963897
223	0xbcb30ccd	-0.02185669
224	0xbca08b8e	-0.019597795
225	0xbdaa64eb	-0.0832003
226	0x3cea41be	0.028595801
227	0xbd308603	-0.043096554
228	0xbcd46717	-0.025928063
229	0xbda37367	-0.079809956
230	0x3d97576c	0.07389721
231	0x3afa2744	0.0019085188
232	0x3d5d4395	0.05401953
233	0x3dbc1b21	0.09184862
234	0xbd6a5749	-0.057212148
235	0xbc38bb92	-0.011275189
236	0xbbaddfb0	-0.0053062066
237	0xbd33c592	-0.04388959
238	0xbd813272	-0.0630845
239	0x3b77e351	0.00378247
240	0x3cc4e6c2	0.024035815
241	0xbc1a0e9e	-0.009402899
242	0x3cb25432	0.021768663
243	0x3b639a96	0.0034729592
244	0xbd6b592b	-0.057458084
245	0x3d379791	0.04482228
246	0xbbac19e7	-0.0052521112
247	0xbc9a9776	-0.01887105
248	0xbd01542d	-0.031574417
249	0xbcc1c6fe	-0.023654457
250	0x3ceaa0c9	0.028641121
251	0x3d9a5b53	0.0753695
252	0x3c33c6c1	0.01097268
253	0xbd821551	-0.06351722
254	0xbcadc408	-0.021211639
255	0x3c4190a9	0.011814275

net.4.weight f4 [14, 256]
0	0x3c5a30f5	0.013317336
1	0x3bf2cdb5	0.007409776
2	0x3bb0b7ce	0.005393005
3	0xbc9d8094	-0.01922635
4	0xbcee58b1	-0.029095026
5	0x3d7c29d3	0.061563324
6	0xbb458531	-0.0030139203
7	0xbc64dea4	-0.013969097
8	0xbd4ebf05	-0.05047514
9	0xbd1c602f	-0.038177665
10	0xbc9b2d27	-0.018942429
11	0x3da0148a	0.078164175
12	0xbcb10f6a	-0.021613795
13	0x3d8dfe77	0.06933301
14	0x3d443c54	0.047909096
15	0x3ddc1de0	0.10747886
16	0xbdd5fabe	-0.10448216
17	0x3dd882b1	0.105718024
18	0xbc5f122b	-0.013615171
19	0x3d227546	0.039662622
20	0x3d2645aa	0.04059378
21	0xbc70b742	-0.01469213
22	0xbc45a320	-0.012062818
23	0xbcc93829	-0.024562912
24	0x3da20977	0.079119615
25	0x3dc2e6e2	0.09516694
26	0x3b87c32b	0.004143139
27	0x3dc9d47c	0.09854981
28	0x3c916224	0.017746992
29	0xbccac75d	-0.024753267
30	0x3db82c96	0.08992879
31	0x3d65609a	0.05600033
32	0x3db40837	0.08790629
33	0x3c9437dc	0.018093042
34	0xbd12d4c4	-0.03584744
35	0x3d7ac365	0.0612215
36	0xbd0ab535	-0.03386422
37	0xbcc3c449	-0.023897307
38	0x3c3f90bd	0.011692223
39	0x3d379c1d	0.044826616
40	0x3d7bfbd6	0.061519466
41	0xbba3fcbc	-0.0050044935
42	0x3dd68761	0.1047504
43	0x3d87d0fe	0.06631659
44	0xbc8e2ea7	-0.01735623
45	0x3da57fba	0.080810025
46	0x3d1e3783	0.03862716
47	0xbb6f61b8	-0.003652675
48	0xbd81b8a5	-0.06334046
49	0x3d814039	0.063110776
50	0x3d629e70	0.05532688
51	0x3d600c44	0.054699197
52	0x3d74502f	0.05964678
53	0xbd9877eb	-0.074447475
54	0x3cec1012	0.028816257
55	0x3dbf0f8e	0.09329139
56	0x3de2dde7	0.11077481
57	0x3d47eed8	0.048811764
58	0xbd25663e	-0.04038071
59	0x3d558581	0.052129272
60	0xbd01a050	-0.031647027
61	0xbc8c2e8a	-0.017112035
62	0xbd2fc473	-0.042911958
63	0x3c9de4f2	0.019274209
64	0x3db7403c	0.089477986
65	0x3ccb755e	0.024836238
66	0x3d69bed7	0.057066765
67	0x3d1850c7	0.03718641
68	0x3bff5b57	0.007792871
69	0x3dc239fc	0.09483716
70	0xbc81fb7e	-0.015866991
71	0x3d0ff01f	0.035141107
72	0x3d957d32	0.0729927
73	0xbd11e24c	-0.035616204
74	0x3ced64db	0.028978756
75	0xbd347617	-0.04405793
76	0x3cc6927c	0.024239771
77	0x3c056a75	0.008143057
78	0x3d02ec28	0.031963497
79	0x3db6db7d	0.08928583
80	0x3dc2d573	0.095133685
81	0xbd6d3b4c	-0.057917878
82	0x3ae648e3	0.0017569329
83	0x3db86b11	0.09004796
84	0x3d903548	0.070414126
85	0x3cc3b357	0.023889227
86	0x3da2e6b5	0.0795416
87	0xbd40b4ba	-0.047047354
88	0x3d5ad329	0.053424034
89	0xbc7a9f08	-0.015296705
90	0x3e201ad1	0.1563523
91	0x3d2a4c8b	0.041576903
92	0x3d94b92b	0.072618805
93	0xbbd2d65c	-0.006434245
94	0x3cbfbdd5	0.023405949
95	0x3d475f58	0.04867491
96	0x3dec40e0	0.115358114
97	0xbc8af2e8	-0.01696153
98	0xbd02ad03	-0.031903278
99	0x3ca6399c	0.020291142
100	0x3d9c9e9b	0.07647439
101	0x3d69d7bf	0.057090517
102	0xbd73583a	-0.05941031
103	0x3d291b32	0.0412857
104	0x3d187e49	0.03722981
105	0x3d8ea359	0.0696475
106	0x3dfb7ee7	0.12280064
107	0x3d093bb4	0.033504203
108	0x3d6bdec2	0.057585485
109	0x3da7c1fd	0.08191297
110	0x3d33bf08	0.043883353
111	0xbccbad70	-0.024862975
112	0x3caa40f0	0.020782918
113	0x3ce8d889	0.028423565
114	0x3dfb2167	0.1226223
115	0xbc81891a	-0.015812445
116	0xbc9384fe	-0.018007752
117	0xbc614e1d	-0.013751534
118	0x3d86dffa	0.06585689
119	0x3c966863	0.018360322
120	0x3c16c3e9	0.009201982
121	0xbc170b1b	-0.009218956
122	0xbc72f458	-0.014828764
123	0xbd04a147	-0.03238037
124	0x3d5c695f	0.053811427
125	0x3da0f76a	0.078596905
126	0x3d3fcffe	0.046829216
127	0x3d38c930	0.045113742
128	0x3d3cfce5	0.046139617
129	0x3cb36efd	0.02190351
130	0x3e14dc1c	0.1453709
131	0x3d30a1fa	0.043123223
132	0x3dd1a693	0.1023685
133	0x3d728999	0.059213255
134	0xbcb4f3fd	-0.022088999
135	0x3d2b809c	0.0418707
136	0x3d1b1eab	0.037871044
137	0x3c49e926	0.012323653
138	0xbb38d432	-0.002820265
139	0x3d8ec6ca	0.0697151
140	0x3c187779	0.009305828
141	0x3d75dcae	0.06002491
142	0xbd5f67fe	-0.054542534
143	0x39a03b6c	0.0003056185
144	0xbd3649a4	-0.044503823
145	0x3da9e170	0.08294952
146	0x3d6adc2b	0.057338875
147	0x3dc98f04	0.09841731
148	0x3d8673bd	0.06565044
149	0xbb2c3239	-0.0026275052
150	0x3c2a0309	0.0103767
151	0x3cd69548	0.02619423
152	0xbcc92fbf	-0.0245589
153	0x3b9a0481	0.004700244
154	0xbb86bb64	-0.004111694
155	0x3d2b69fd	0.041849125
156	0x3dd5151d	0.10404418
157	0xbd15b83c	-0.036552653
158	0x3dcc00f9	0.09961123
159	0xbbff9142	-0.0077992985
160	0x3d6ab770	0.057303846
161	0xbb962386	-0.0045818714
162	0xbd007dc7	-0.03136995
163	0x3d835c92	0.06414141
164	0xbd38dc6c	-0.045132086
165	0x3dbf8ac8	0.09352642
166	0xbcb40fab	-0.021980127
167	0xbcebc28a	-0.028779287
168	0x3da70fb5	0.08157293
169	0x3df0c2e4	0.117559224
170	0xbc3a3243	-0.011364522
171	0xbd59a607	-0.05313685
172	0xbcc1d4e2	-0.02366108
173	0xbd83a9f6	-0.06428902
174	0x3e035f9a	0.12829438
175	0x3d58b15f	0.05290353
176	0x3d8dd4da	0.06925364
177	0x3be4e50e	0.0069853133
178	0xbd3ac3de	-0.04559695
179	0x3ddde9c9	0.108356066
180	0x3d7e7110	0.062119544
181	0xbd4cfc71	-0.050045434
182	0xbd85e478	-0.065377176
183	0x3ddaa3d6	0.106757805
184	0x3d9eabe8	0.07747632
185	0x3b7b7181	0.0038367214
186	0x3c9e4abc	0.019322746
187	0x3c7a6878	0.015283696
188	0x3e002bac	0.1251666
189	0x3e046b89	0.12931646
190	0xbc2d73ba	-0.010586673
191	0x3d0f91b0	0.035051048
192	0xbd2d1833	-0.042259406
193	0x3ca6b63b	0.020350566
194	0x3d0dfb39	0.034663413
195	0xbd1fab4d	-0.038981725
196	0x3d83964b	0.064251505
197	0x3dd45a88	0.1036883
198	0x3ddeebb8	0.108848035
199	0x3d69c369	0.057071123
200	0xbcfe7e6e	-0.031066146
201	0x3d23159b	0.039815526
202	0x3e03b5fe	0.12862393
203	0x3dcf88c0	0.10133505
204	0x3da8a9be	0.08235501
205	0x3daafa12	0.083484784
206	0xbc9d619c	-0.019211583
207	0xbd25a05d	-0.040436137
208	0x3d377ba8	0.044795662
209	0xbd3085e1	-0.043096427
210	0x3cac09c5	0.021000752
211	0xbc73eeb7	-0.014888457
212	0x3cb2c578	0.021822676
213	0xbd35f470	-0.044422567
214	0x3d490c96	0.04908427
215	0x3d715d8d	0.058927108
216	0x3db300bc	0.087403744
217	0x3c91a970	0.01778099
218	0xbc93e24f	-0.018052248
219	0x3daf3339	0.08554692
220	0x3da90606	0.08253102
221	0x3b9251d3	0.0044653206
222	0x3c51ad30	0.012797639
223	0x3d0230fc	0.031784996
224	0xbd510c79	-0.051037285
225	0xbd2ee609	-0.042699847
226	0x3d863d02	0.06554605
227	0x3cdb49fa	0.026768673
228	0xbd1d0d84	-0.038342968
229	0xbcef1537	-0.02918492
230	0x3ce539b7	0.027981622
231	0xbcbcd68a	-0.023051519
232	0x3db6b66d	0.08921514
233	0x3de3afee	0.1111754
234	0xbd54ccae	-0.05195301
235	0x3dca0e3c	0.09865996
236	0x3d9589ff	0.07301711
237	0xbd452af7	-0.048136678
238	0x3d7eafe8	0.062179476
239	0xbd8e1b55	-0.06938807
240	0xbcb33ce7	-0.021879626
241	0xbcac4924	-0.02103097
242	0xbd03c05f	-0.03216588
243	0x3d25a23f	0.040437933
244	0xbd50bc55	-0.050960857
245	0x3cbf2830	0.023334593
246	0xbc0175fc	-0.007901665
247	0x3da2afcb	0.07943686
248	0x3c9b5d0c	0.018965267
249	0xbbbbf60a	-0.0057361173
250	0x3dd650af	0.10464608
251	0x3daf09fb	0.085468255
252	0x3c4dece9	0.012568691
253	0x3cc0fc66	0.023557853
254	0x3de97893	0.11399951
255	0x3d6eb787	0.058280494

net.4.bias f4 [14]
0	0x3dc6aa01	0.097003944
1	0xbd6b8ad5	-0.057505447
2	0x3cc0059a	0.023440171
3	0xbd1591d1	-0.036516014
4	0x3d221002	0.039566047
5	0x3d724a27	0.05915275
6	0x3d0b0f7e	0.03395032
7	0xbc060899	-0.008180761
8	0xbcd31e48	-0.025771275
9	0x3c4a5bd4	0.012350995
10	0x3d2af094	0.04173334
11	0xbd4cfa69	-0.050043497
12	0x3d033c75	0.03204008
13	0x3ce39dc7	0.027785195
