checkpoint/final/agent_1/value.pth (torch, 318205 bytes, 5 tensors)

net.0.weight f4 [256, 49]
000000 67 c7 74 bc 16 99 3e bc a6 b5 cb 3d 39 35 f6 3d
       -0.014940119 -0.011633178 0.09946756 0.1202187
000010 9c 6a 18 3e aa 9b 34 3e ee 10 a2 3c e4 a4 c4 3d
       0.14884418 0.17637506 0.019783463 0.09601763
000020 ed 4a df 3c 3c b4 69 3e ed 96 e1 3d b0 41 ac 3d
       0.027257407 0.2282266 0.11015115 0.084109664
000030 4a c2 ed 3d 3c 78 27 b9 66 0b 24 bd 3c 85 40 be
       0.11609323 -0.00015971152 -0.040049933 -0.18800825
000040 00 e8 0e bc 75 4a a9 bd 29 16 c6 bc 07 ae 94 3d
       -0.008722305 -0.08266155 -0.024180489 0.072597556
000050 55 2f 06 3e 2a 43 0d 3e 9c ca 26 3e 47 a6 fd 3d
       0.13103993 0.13795152 0.16288227 0.123852305
000060 7d 73 f5 bc 6b 0a e0 3c b6 a7 d1 bd f5 e7 17 3d
       -0.029962296 0.027348718 -0.102370664 0.037086446
000070 e9 d4 00 be ee ba 21 be d6 a0 b5 3d fe 39 18 bd
       -0.12581219 -0.15793964 0.08868568 -0.03716468
000080 35 c3 d8 bc e5 4d 15 be 2d c8 d6 bd 8c 48 e3 bd
       -0.02646027 -0.14580496 -0.10487399 -0.110978216
000090 88 22 dc bd de 46 59 be ee 50 00 be c8 b5 46 be
       -0.10748774 -0.2121844 -0.12530872 -0.19405282
0000a0 29 ca ac bd d1 24 0a 3d a7 bf 55 3d 81 9f 47 bc
       -0.084369965 0.033726517 0.052184727 -0.012184025
0000b0 31 c6 6e bd 6a 09 d9 bd 54 a8 c9 bb 93 38 10 be
       -0.05829448 -0.10597499 -0.0061540995 -0.14084081
0000c0 76 1f 2d be 42 4c fb bd 28 cc 79 3c 8e 6b b4 bc
       -0.16906533 -0.122704044 0.015246429 -0.022023942
0000d0 3d 64 78 3d d9 44 2b 3d 8f a1 5e be 47 6f d8 bb
       0.06064247 0.041813705 -0.21741317 -0.006605062
0000e0 66 12 5e bd 67 96 26 3d 32 65 24 be 40 82 bd 3d
       -0.054216765 0.04067078 -0.16054228 0.09253359
0000f0 5b 56 e1 3d 86 4f 55 bd ae d8 4c be 4b ef b1 3d
       0.11002799 -0.052077793 -0.20004532 0.0868822
000100 d4 7a ce 3d c6 52 32 3c 06 02 81 bd ba 24 13 bb
       0.10082021 0.010883993 -0.06299214 -0.002245231
000110 c5 c9 28 bc 9d 5f 1c bd 45 1d 5a bd 5c 37 d2 3d
       -0.010302012 -0.03817712 -0.05325057 0.10264465
000120 a5 bc 35 bd c4 b6 c2 3d e8 9f 9b bd 8f c4 b6 3d
       -0.04436936 0.09507516 -0.07598859 0.08924209
000130 a0 6e ae bd 7d 79 fb 3d be 3e 90 bc c8 54 69 3d
       -0.08517194 0.122790314 -0.017608043 0.05696562
000140 95 f3 55 3d 68 97 f8 3d ed 0b 96 bc 18 1a a9 3c
       0.05223425 0.121382535 -0.018316234 0.020642325
000150 7d 1b 12 bd 84 46 2e bc ac 91 22 be b0 12 e7 3d
       -0.035670746 -0.010636929 -0.15875882 0.11282861
000160 af 9d 4f 3d 74 09 05 3d 26 5a af 3d e7 fc 09 3e
       0.05068749 0.03247972 0.08562116 0.13475381
000170 d4 44 48 3e d1 f1 08 3e 71 fb d0 bd ae 41 2b 3e
       0.19557506 0.13373496 -0.10204209 0.16724274
000180 a3 78 9c bb ac e7 d2 bd f6 17 e6 3d c7 83 70 bc
       -0.004775123 -0.10298094 0.11235039 -0.014679856
000190 3f cf 89 bc 6d c5 15 be a6 01 3b 3e 4e b8 f9 bd
       -0.016822455 -0.14626093 0.18262348 -0.121933565
0001a0 38 6a 31 be 3a bd 9f bc 4b 8c 22 3e d2 6d 3a bd
       -0.17325675 -0.01949941 0.1587383 -0.04551489
0001b0 05 db 0c 3d f2 77 40 3e f5 7a 66 3d d1 af 0c be
       0.03438856 0.18795756 0.056269605 -0.13738944
0001c0 1e 9a d2 bd 29 5e 75 3d ba 6f e6 3d b9 7e 17 bd
       -0.10283302 0.05990425 0.11251779 -0.036986087
0001d0 f5 95 b6 bd 39 bd 07 be 9c 3e d0 3d e1 bb c1 bd
       -0.08915321 -0.13255776 0.10168192 -0.09459663
0001e0 c5 71 f0 3c b5 4c a5 3c d6 b5 a3 3c b0 cf 9e bd
       0.029351125 0.020178178 0.019984167 -0.07754457
0001f0 b9 f0 11 3d cc ff bd 3d f4 c9 ab bd 73 8d 2f bd
       0.03562996 0.09277305 -0.08388129 -0.042859506
000200 99 06 0e 3d 8f 8c 6a bd 74 be e2 3d c4 72 22 bc
       0.03467426 -0.057262953 0.11071482 -0.009915058
000210 bb 52 d3 bc 80 60 8f bd 0a 4a e8 3c 19 6b c5 bd
       -0.025796285 -0.07000828 0.028355617 -0.09639568
000220 81 ea 9c 3d f7 20 d9 bb fb 9f b6 bd df a0 b5 bd
       0.076619156 -0.006626244 -0.089172326 -0.08868574
000230 f8 6d 15 3e e3 8c da 3c 7b db 54 3c 86 a0 52 3b
       0.14592731 0.026678508 0.012991781 0.0032139136
000240 fe ae 5a 3d 7d cd b9 bd 15 4c 0f bc 13 db 06 be
       0.05338954 -0.09072397 -0.008746167 -0.13169508
000250 fc 3d ff bc fa c4 d0 3c ad 2f 90 bd b1 60 67 3d
       -0.031157486 0.02548455 -0.070403434 0.056488696
000260 02 e8 f8 bd 67 de e4 bd 59 b0 51 3d 26 8c 6d 3d
       -0.12153627 -0.111752324 0.05119357 0.057994984
000270 14 5f 97 bd 2a f9 59 3d 27 9c b7 3d 7e fa 51 bc
       -0.073911816 0.053216137 0.089653306 -0.01281607
000280 51 e8 15 be 77 66 aa 3d 32 33 13 3e 88 da 37 3e
       -0.14639403 0.08320325 0.14374998 0.17954457
000290 d7 d5 57 be 88 9b e9 bd 4d d2 2c 3e c6 ca 70 3e
       -0.21077667 -0.11406618 0.16877098 0.23514852
0002a0 be f5 43 be d0 f1 8e bd 52 42 34 3d d5 0c ac 3d
       -0.19136712 -0.06979716 0.04400856 0.08400885
0002b0 ec 84 6a bc f8 8c 9f 3d 68 eb 39 bc ed fb d3 3d
       -0.014313918 0.077905595 -0.011347629 0.103507854
0002c0 57 e5 15 be 32 f2 de 3d 62 b1 2e bd f8 4d d2 bd
       -0.14638267 0.10886039 -0.042649634 -0.102687776
0002d0 3e e6 c8 bc 04 41 d2 3d 75 4d 02 ba 3e c4 ba 3d
       -0.02452385 0.10266307 -0.00049706484 0.091194615
0002e0 49 3c 13 be eb fd bd 3d 1f 8a 92 3d 38 97 e0 3d
       -0.14378466 0.09276947 0.07155251 0.10966343
0002f0 0e 77 b0 3d b0 81 65 bc 9b 9c 68 3d 23 ef 93 3d
       0.08616458 -0.014007971 0.056789976 0.07223346
000300 ab 1f 3c be fa a9 77 bc 91 12 d3 3c 55 dd 99 bd
       -0.18371455 -0.015116209 0.02576569 -0.07512919
000310 16 f0 b6 3c ac 2f 56 bd 9d ef 91 bc 59 a3 7d bc
       0.022331279 -0.052291557 -0.017814452 -0.01548084
000320 c1 ea 28 3d 15 0f ad 3d 2a e9 4d 3e c6 f9 65 be
       0.041239504 0.08450142 0.20108476 -0.22458562
000330 c8 cc 06 be 91 96 89 be b8 f6 34 be 95 fe c7 3c
       -0.13164055 -0.26872686 -0.1767224 0.024413386
000340 b0 ba 17 3e 24 48 7c 3e 6e 39 01 3e 1d 51 2e bd
       0.1481731 0.24636894 0.12619564 -0.042557824
000350 1d 1a 20 bd cc 11 24 3e 22 0d 4d bd be dc 26 3d
       -0.039087404 0.16022414 -0.050061353 0.04073786
000360 8d 34 9d bd e3 b6 09 bd f6 4d 06 3d 4b e5 2c 3c
       -0.07676039 -0.03362168 0.032789193 0.010552715
000370 fb 76 79 bd d7 ae 19 3e 94 2b a3 bd 8b 67 ed bd
       -0.060904484 0.15008102 -0.07967296 -0.11592015
000380 45 1e 12 3e c6 50 47 3c ac 47 aa bd 72 79 6d 3d
       0.1426936 0.012165254 -0.083144516 0.057977147
000390 a2 18 0b 3d 1e c6 b6 3d 5b be 06 be 28 51 09 be
       0.03395904 0.089245066 -0.13158552 -0.13409865
0003a0 b8 7a a3 3d dd d6 b1 3d 83 7b 82 bd 5b 0f 18 3d
       0.07982391 0.0868356 -0.06371214 0.03712402
0003b0 45 f2 1d bd b2 ba 4d 3d 42 8e 9f 3d 1e 9c 56 3d
       -0.038561124 0.050226875 0.077908054 0.05239498
0003c0 19 43 30 3e e7 67 fe bd 29 73 ab bd 42 1b 14 3e
       0.17213096 -0.124221615 -0.083715744 0.14463523
0003d0 70 85 eb 3d a5 cf 28 bd 0f f3 ed 3d 5e a9 3b be
       0.115000606 -0.04121365 0.116186254 -0.18326327
0003e0 a9 05 5c be 02 c6 a1 3d 56 01 8e bd 24 90 04 3e
       -0.21486534 0.07899095 -0.069338486 0.1294561
0003f0 65 ba 00 be dd 87 3c be 70 33 99 3c 51 be 16 3d
       -0.12571104 -0.18411203 0.018701285 0.036802594

net.0.bias f4 [256]
000000 d6 d0 7f 3d 60 68 63 bd 32 ab 29 3b 08 49 4c bd
       0.06245502 -0.05551946 0.0025889394 -0.049874336
000010 72 78 c2 3e 5d d2 d9 bd 86 80 cb bd 7a 43 3b bd
       0.37982517 -0.10635827 -0.09936623 -0.045718648
000020 c5 21 25 3e 0e ab a0 3e 10 99 a9 3d 60 7b 59 ba
       0.16126163 0.31380504 0.082811475 -0.00082962774
000030 d6 b1 99 3e e1 42 b2 3d e0 d7 8f bc f4 9e af 3a
       0.3001849 0.087041624 -0.017558992 0.0013398812
000040 97 84 87 3e 0b c0 8b 3e 2f 3e da bd d7 a8 41 3e
       0.26468346 0.27294955 -0.10656392 0.18912064
000050 72 bd 93 3e 7e 6c e8 bd 29 23 0c be 41 6a 89 3e
       0.28855473 -0.11348818 -0.13685288 0.26838878
000060 3a 32 7c 3d ab 3f ce 3e af c0 58 3e f4 e3 68 3e
       0.061571337 0.4028295 0.21167253 0.22743207
000070 31 1c 86 bd e2 1e 6b 3e 25 e6 b6 3e 90 a6 63 bd
       -0.06548346 0.22961 0.3572246 -0.05557877
000080 8e c6 7d 3d 74 31 3e bc 97 c1 19 bd d1 50 96 bc
       0.061956935 -0.01160847 -0.037538137 -0.018349083
000090 d2 38 61 bc 0b c4 f6 3d 4f fd 97 3e 46 7b 9c 3e
       -0.013746457 0.12049111 0.29685447 0.305628
0000a0 69 b4 af 3e 55 9e 1f bd c7 a5 04 be 68 92 4a 3d
       0.3431733 -0.038969357 -0.12953864 0.04945603
0000b0 99 cd ab 3d 11 41 8b 39 61 d8 df 3c 54 43 98 3e
       0.08388824 0.00026560624 0.027324857 0.29738867
0000c0 75 16 19 3d ae 6e 46 bc d5 f6 09 3e 51 45 68 ba
       0.037374932 -0.012111349 0.13473065 -0.00088604266
0000d0 41 f0 13 bd bf 86 c0 3e 3a 02 52 bd 2c 27 2e bd
       -0.036117796 0.37602803 -0.051271655 -0.042517826
0000e0 d0 47 ac 3e 7f 68 34 3e 88 4e 12 3c e6 59 b3 3c
       0.3364854 0.17617987 0.008929856 0.021893453
0000f0 d2 39 9c bd e8 ab b8 bd 63 5d ee bd ef e2 02 be
       -0.07628216 -0.090171635 -0.11638906 -0.12781881
000100 ac 14 35 be f9 a4 8b 3e b5 a8 91 3d 15 b2 c3 bd
       -0.17683667 0.27274302 0.071122564 -0.09555451
000110 7c 7c 30 3b d8 ca c0 3e 36 e8 02 3e 91 d6 91 3e
       0.0026929667 0.37654757 0.12783894 0.28484014
000120 37 71 ae 3e b9 74 fb 3c c4 a0 98 bb b2 03 25 3e
       0.3407075 0.030695306 -0.0046578366 0.16114691
000130 70 0b bb 3d 58 8b af 3e d1 a7 84 3e 0c 2c b3 3c
       0.09133041 0.34285998 0.25909284 0.02187159
000140 4a 3a ce 3c e8 f7 15 3d 55 79 9b 3e e4 bf 2f be
       0.025174279 0.036613375 0.30366006 -0.17163044
000150 aa f6 40 3e 19 cf c6 3c 8a 92 67 3e c5 d0 95 bd
       0.18844095 0.024268674 0.22614494 -0.0731521
000160 e3 a5 f0 bd c5 a7 9d 3e ac 8c 33 3e ea f8 11 bd
       -0.117503904 0.3079206 0.17534131 -0.035637774
000170 fa 73 b0 3d f0 3b 00 be 12 18 c0 bd c9 2a 0e bd
       0.08615871 -0.12522864 -0.09379591 -0.03470877
000180 f4 e2 c7 ba 0b 26 39 3e d8 3c 0b 3e ae a7 3b 3e
       -0.0015250132 0.18080918 0.13597429 0.18325683
000190 8a 8f 8e 3d 4d 5a 0b 3e ba 56 c8 bc 2d 80 1d bd
       0.06960972 0.13608666 -0.024455417 -0.038452316
0001a0 47 8f 9a 3d 8e 97 83 3e 3a 3e ae 3e 50 e8 e1 3c
       0.07546859 0.25701565 0.3403185 0.027576596
0001b0 da ba 30 be c6 20 47 3e da 59 e5 3d 62 eb c9 bc
       -0.17258778 0.19446096 0.111987785 -0.024648372
0001c0 01 04 a9 bd 90 fa e8 bc 18 51 ae bd 2a 9e 52 3c
       -0.08252717 -0.02843979 -0.08511561 0.012855092
0001d0 16 03 b9 bc c2 c9 1c bd d1 a4 bd bd 4a 6a 61 3e
       -0.02258448 -0.03827835 -0.09259952 0.22013202
0001e0 f3 e6 1a 3e e9 90 09 bd d8 09 0b be 2d 5e de 3d
       0.15127163 -0.033585463 -0.13577974 0.10857806
0001f0 b1 fe 78 3d 65 9b ea bc 3f 1a 7c 3e 6e fb a6 3c
       0.060789768 -0.028638551 0.24619387 0.020383563
000200 30 f1 42 3d 33 e0 7d 3d 35 bd 6d bc 19 cd 27 be
       0.047593296 0.06198139 -0.0145104425 -0.16386832
000210 ea bf b4 3d 11 7f a7 bd 7b 6d b0 bd 5c 65 56 3e
       0.08825667 -0.08178533 -0.08614632 0.20937103
000220 2e 7b 0c 3e f0 4e 14 bd a0 e7 3b 3d 03 6f d3 bb
       0.13718864 -0.036208093 0.04587519 -0.0064524426
000230 c1 38 59 bd de 73 79 bd b0 cf c2 3d 2c bb 62 3d
       -0.05303264 -0.060901515 0.095122695 0.055354282
000240 09 cb e8 bd c2 12 b5 bd 7e 5b 63 bd ce 65 d7 3d
       -0.11366851 -0.088414684 -0.055507176 0.105174646
000250 02 f9 2f be 45 d2 49 3e 04 66 2d 3e ca d2 b5 3e
       -0.17184833 0.19709118 0.16933447 0.35512382
000260 46 19 4d 3e 3b 13 77 3d c1 49 ba 3e 9c c1 4d bd
       0.20029172 0.060321074 0.36384395 -0.05023347
000270 0c f1 60 3e 5f 1e a2 3d 33 ba d7 3d d9 d4 83 3b
       0.21966952 0.07915949 0.105335616 0.004023176
000280 82 19 88 3e a4 7c 8d 3e 48 f9 22 be 9f 25 d0 3c
       0.2658196 0.27634156 -0.15915406 0.025408564
000290 17 a0 75 3e 2c fb b5 bd fc 27 b8 bc e9 f2 41 bd
       0.2398685 -0.08885798 -0.022480004 -0.047350798
0002a0 ce 78 1d 3e a3 99 b6 bd ad 41 08 3c f6 84 86 3d
       0.15378115 -0.08916023 0.00831644 0.06568329
0002b0 10 f3 51 3d 72 63 0b 3e f7 56 a2 bd 66 f4 4a 3d
       0.051257193 0.13612154 -0.079267435 0.049549483
0002c0 9a f8 c3 bc 55 02 02 be 73 f2 a5 3e fa 6b 75 3e
       -0.023922253 -0.12696202 0.32411537 0.23966971
0002d0 22 1c 01 be f0 bd 8f bd f1 ea b3 3c cc da 27 be
       -0.12608388 -0.070186496 0.021962615 -0.16392058
0002e0 1f 5f b9 3e ec 78 26 3e 1d f6 5e 3d 98 34 cb bc
       0.36205384 0.16257066 0.05443393 -0.024805352
0002f0 c5 2a c2 3d 6f cc 5b 3e a7 9a 3f 3e cd c4 1d 3c
       0.09480814 0.21464704 0.18711339 0.0096294405
000300 74 fe ad 3c 35 59 88 3e fd e7 14 be 74 23 c8 3d
       0.021239497 0.2663056 -0.14541622 0.09772387
000310 8b 24 49 3e f8 d6 84 3e 1f 7b 7a bc 6e d8 3b bd
       0.19642846 0.25945258 -0.015288143 -0.0458607
000320 9f a0 fc 3d 77 b6 18 bb fb 7b 8a 3e fe e0 e1 3d
       0.123353235 -0.0023302117 0.27047715 0.11029242
000330 f6 04 ab 3c 84 2e b0 bd 22 9a a4 3e a7 11 22 bb
       0.020876389 -0.08602622 0.32148844 -0.002472976
000340 30 af 03 be f9 dc b2 3e fc 1b 0c 3e c7 45 95 bd
       -0.12859797 0.34934214 0.1368255 -0.072886996
000350 9e 79 85 3b 40 0b c6 3b 4e d6 80 3e f8 fa 34 3d
       0.004073336 0.0060438216 0.25163502 0.044184655
000360 44 ed b5 bd a6 3b 13 3e 37 9c 79 b9 cf 4f 05 3e
       -0.088831455 0.14378223 -0.00023804685 0.13018726
000370 6e 85 a3 3e 7b 99 9f 3e 48 6c ad 3e 07 59 49 3e
       0.31937736 0.31171784 0.33871675 0.19662867
000380 cf a7 c2 bd 7a 48 58 3e e7 23 25 bd fd e2 92 3e
       -0.09504663 0.21121398 -0.040317442 0.28688803
000390 e0 78 de bd ce 06 85 3e 4a 2a f5 bb 08 75 ba bd
       -0.10862899 0.25981754 -0.007481848 -0.09104353
0003a0 b8 8b c9 3d 64 85 ef 3d 3f 96 88 3b 6b 6e e2 bb
       0.09841102 0.11695364 0.0041683014 -0.0069101355
0003b0 3e 14 9d 3e 70 2f 2b bb 47 43 ca 3e 82 3a 4c 3c
       0.30679506 -0.0026120804 0.39504454 0.012465121
0003c0 65 58 62 3e 81 11 b5 bc a7 87 93 3e b8 28 f5 bd
       0.22104032 -0.022103073 0.28814432 -0.11970657
0003d0 3b 83 15 be 53 fd e5 3b da 59 a2 3e 66 0c 08 3e
       -0.14600842 0.007018724 0.31709176 0.1328598
0003e0 19 43 d1 3c 69 66 93 3d ee ef 13 be 57 0d 70 3e
       0.02554469 0.071972676 -0.14446995 0.23442589
0003f0 19 4a 4f 3e e6 81 57 3e d7 35 9f bd 40 a5 ce 3d
       0.2024311 0.21045646 -0.07773941 0.10090113

net.2.weight f4 [256, 256]
000000 4a 65 ca bd 1d 07 f2 bc 7d 2e 98 3d 61 a2 14 bc
       -0.098826006 -0.029544408 0.07430742 -0.009071917
000010 f2 39 fa bd 75 f7 34 bc 87 16 89 bd 7f 2b 4f 3d
       -0.122180834 -0.0110453265 -0.0669375 0.05057859
000020 f0 95 7c bd b1 07 ae bd 91 16 a1 3c e2 8e 1f 3d
       -0.06166643 -0.08497561 0.01966408 0.038954623
000030 be 78 0a 3c 28 bd 16 bc 43 ab 26 bd bc 07 45 3d
       0.008451639 -0.009200372 -0.04069067 0.04810308
000040 4f b9 ae bd 04 32 d6 bd 9b b9 9c 3d 96 d4 09 be
       -0.085314386 -0.104587585 0.07652589 -0.13460001
000050 6b 33 80 bd ba d9 dc 39 c8 c9 e9 3c b8 bb d3 3c
       -0.06259807 0.0004212389 0.0285386 0.025846347
000060 0f 69 76 3c f4 5e 91 3d 34 bf 00 3c a9 22 55 bc
       0.015039696 0.07098189 0.007858086 -0.013008752
000070 c6 00 7b bb 5e 48 8a 3d 77 46 11 be 9c 91 c9 bc
       -0.0038300022 0.06752084 -0.14187036 -0.024605565
000080 10 f7 2f be 6e 3c 44 3d 00 a0 eb bb fe 5e cd 3c
       -0.1718409 0.047909193 -0.0071907043 0.02506971
000090 72 b1 b2 3a 92 a3 2a bd b1 9e 04 be 40 d0 d1 bc
       0.0013633205 -0.0416599 -0.12951161 -0.025611997
0000a0 b6 ca 19 bd 60 83 56 3c bc 76 3e 3d 71 f3 63 3d
       -0.037546836 0.013092846 0.046499953 0.055652086
0000b0 c1 18 6e bd 34 49 ca 3d d7 67 d4 bd 9c 7e f0 3c
       -0.058129076 0.09877244 -0.103713684 0.029357247
0000c0 e1 0c 17 bd e6 5c fa bc 13 20 85 bd 9e 6c ce 3c
       -0.036877517 -0.030561876 -0.06500258 0.025198277
0000d0 70 96 82 3d 6d 80 2f bd 7c e5 fd 3c 92 60 a2 3d
       0.0637635 -0.042847086 0.030993216 0.079285756
0000e0 a5 5d 5e bd 41 74 cc bd ee 03 8a 3d ac 97 db bc
       -0.054288525 -0.09983111 0.06739031 -0.026805721
0000f0 2e 3b bb bc da 7b 8d 3d 1a 69 16 3c d1 62 6f 3c
       -0.022855368 0.069083884 0.009180332 0.014610962
000100 dd 3e 4f 3d c3 29 58 3d c9 ce b5 bd ae 8d e6 3c
       0.05059706 0.052774202 -0.08877332 0.02814373
000110 73 7e 09 3d 46 ff 7c bb 09 e9 40 bd ad b9 b8 3c
       0.033567857 -0.0038604303 -0.04709724 0.022549475
000120 22 5b 51 be 03 f8 af 3d f4 0a 3d bc a9 14 82 bd
       -0.2044492 0.08592226 -0.011538256 -0.06351597
000130 65 e4 5e bd 53 a2 30 bc 1f 37 85 bc 07 18 35 bc
       -0.054417033 -0.010780889 -0.016261635 -0.011053092
000140 f6 ba bc 3d d5 b6 af 3d 95 8e bc 3c ea 92 89 3b
       0.092153475 0.08579794 0.023017207 0.0041984217
000150 02 20 ac 3d 4d 7a 3d bd 1a 23 4b bd c8 d7 22 3d
       0.084045425 -0.046259213 -0.049594022 0.039756566
000160 9c 18 1b 3d 86 68 d9 bd ec 62 1f 3d 1f 13 75 bc
       0.037865266 -0.106156394 0.0389127 -0.014958172
000170 21 1b e2 bc 08 74 1b bd 62 85 92 3d 3d 41 b5 bc
       -0.027600827 -0.037952453 0.07154347 -0.022125835
000180 b9 ea 8d bd e5 2b 05 be 03 c3 0a bd 9c f7 8b 3c
       -0.069295354 -0.13005026 -0.033877384 0.017085843
000190 b6 e0 3f 3d bf 7a 31 3d 72 d5 a0 3d 26 d4 c8 3d
       0.04684516 0.04332995 0.078532115 0.09806089
0001a0 e5 43 2a 3c 74 88 48 bc 82 05 ea bd 57 9d 6e 3c
       0.010392164 -0.012239564 -0.11426832 0.01456388
0001b0 0c 8b 09 bd 3f 28 bd bc a0 9a 7e bd f8 2f 8b 3d
       -0.03357987 -0.02309048 -0.06215918 0.06796259
0001c0 cf 0b 3d 3a 74 31 60 3d 50 f6 76 3d b1 16 75 bd
       0.00072115374 0.054734662 0.060293496 -0.059836093
0001d0 02 5a d0 3d 61 55 ec bc a4 e0 19 3d 83 b4 be bd
       0.10173418 -0.028849306 0.03756775 -0.09311774
0001e0 ab bc d7 bd ae 2f 8d bd 52 3f 45 bd 4c 83 45 3c
       -0.105340324 -0.0689386 -0.04815609 0.012055229
0001f0 94 57 b8 3c 5e 51 e5 3c e9 e6 10 bc 5d 97 0d bd
       0.022502698 0.0279929 -0.008844116 -0.03456818
000200 6a f5 71 3d e8 d0 ad bc bb 2c 07 3c 92 7f 96 bd
       0.059071936 -0.021217778 0.008250411 -0.07348551
000210 62 92 be bb 20 17 55 bc 4c 72 b6 bc ec 12 96 bc
       -0.00581579 -0.013006002 -0.022271298 -0.01831957
000220 a8 f5 10 3d 29 a0 06 3d b0 5e ef bc 2a 53 05 bd
       0.035390526 0.032867584 -0.029219955 -0.032550015
000230 87 6e 79 3d 4a cb 10 3d 5f c1 1d 3c 9d 1c f3 3d
       0.060896423 0.03535012 0.009628623 0.11870692
000240 32 0d 81 3c 3d 12 96 bd e9 bf ad 3c 8a 87 95 bc
       0.015753362 -0.073276974 0.021209674 -0.018253107
000250 aa f9 48 3d aa 3e a6 bc 89 d3 38 bc a8 59 ea bd
       0.049066223 -0.020293552 -0.011280903 -0.11442882
000260 3d 47 3c bd bc cd 9d 3c 15 9f 38 be 04 23 86 3c
       -0.045966376 0.01926314 -0.18029435 0.016374119
000270 1d 5a 3c 3d a1 97 a9 bb d1 21 8f 3c 03 f0 ac bc
       0.045984376 -0.0051755463 0.01747218 -0.02111054
000280 d9 71 1d bd 0a 20 18 3d a0 78 ab 3c df 46 c0 3d
       -0.03843865 0.03713993 0.020931542 0.093885176
000290 a4 89 34 bc c6 14 ab 3d 3f 4f bc 3c d2 72 92 3c
       -0.011019144 0.083535716 0.022987006 0.017877016
0002a0 a0 c6 f0 bd 6b 15 d2 bc 1c c2 03 bd e6 26 68 bc
       -0.11756635 -0.025644979 -0.03216754 -0.01416943
0002b0 53 4a b5 bc 64 f2 aa bc 20 32 19 bd 12 f0 94 bd
       -0.022130167 -0.020867534 -0.03740132 -0.07272352
0002c0 6b 1c f1 bc 1a 40 59 3d 80 8e 9a 3c 9d 46 1e 3d
       -0.029432496 0.053039648 0.018866777 0.03864156
0002d0 d9 b0 92 3a 25 c8 22 bd 21 cb 81 3d 84 16 cf 39
       0.0011191621 -0.039741654 0.06337572 0.00039498892
0002e0 f2 30 19 bc 7e 87 dd 3d ca 65 59 3d d1 c1 54 bc
       -0.009350048 0.10816859 0.05307559 -0.012985663
0002f0 fb c3 7c bd 32 10 90 3d 1f b0 53 3d db 82 20 3d
       -0.06171034 0.07034339 0.051681634 0.039187293
000300 a3 39 d9 bc f8 5e 6f 3c a0 90 c7 3d 15 dc ea bd
       -0.026516741 0.014610045 0.09744382 -0.114677586
000310 19 12 46 bd a2 01 c4 3d f4 db f9 bb 8e 64 c6 3c
       -0.048357103 0.09570624 -0.0076250974 0.02421787
000320 c0 01 1e bb 0b 68 54 bd c0 7c 56 bd 40 5b 6e bc
       -0.002410993 -0.051857036 -0.052365065 -0.014548123
000330 81 b5 a3 bd 36 e1 3b 3c 5f c2 4e bd 5c 69 bc 3d
       -0.079936035 0.011467269 -0.050478335 0.09199783
000340 6f c7 6a 3d f2 27 a6 3c 19 59 0c bd d4 16 59 3d
       0.0573191 0.02028272 -0.034264658 0.053000286
000350 ea ff d1 3d c6 67 0e 3c 67 ab 96 bd 17 a8 4f 3d
       0.1025389 0.008691734 -0.07356911 0.050697412
000360 55 61 30 3d b9 cf 9e 3d cc 0c 26 3d 74 4d 8e bd
       0.043061573 0.07754464 0.040539548 -0.06948367
000370 ec 13 25 bd b7 4c df 3c e7 e1 02 bd 6d 94 9d 3c
       -0.040302202 0.02725826 -0.03195372 0.019235814
000380 e1 c9 61 3d 75 aa 43 bd 0d a4 21 3c 8a d9 06 bd
       0.055124167 -0.047769982 0.009865773 -0.032922305
000390 13 8a 1e be 03 85 46 be e3 80 4d bc 4d 68 f3 bb
       -0.15482359 -0.19386677 -0.012542936 -0.007428205
0003a0 26 52 90 39 a4 11 ae 3d fb 6f 05 bd b6 aa 37 bc
       0.00027527026 0.084994584 -0.032577496 -0.011210134
0003b0 8f a0 b1 3d c3 d6 18 ba f5 c1 cf 3c 97 c9 1c be
       0.08673202 -0.0005830342 0.02536104 -0.15311275
0003c0 db d1 fc bc 11 ee b6 bd f5 0a d7 3c 59 50 90 3c
       -0.030861786 -0.08932126 0.026250342 0.017616438
0003d0 ba e2 0d bd 12 c0 45 3d 9b 0a 2c bd c3 3a 4b bd
       -0.03464005 0.048278876 -0.0420023 -0.049616586
0003e0 9f ae 52 bb 32 c5 c1 3c 1e 33 06 bd 66 15 c9 3c
       -0.003214754 0.0236536 -0.032763593 0.024546336
0003f0 ac 5a ea bd 75 73 95 3b 32 17 27 3d d0 68 47 bd
       -0.114430755 0.0045608827 0.040793605 -0.04868394

net.2.bias f4 [256]
000000 b9 03 54 3d 5b 06 9b 3e 6e 22 a1 3e b1 6c 81 bd
       0.051761363 0.30278286 0.3147158 -0.06319559
000010 bc a7 40 bd ea 72 0a bc 51 3a 8f bd 78 33 42 3e
       -0.047034964 -0.008450249 -0.06993545 0.18964946
000020 72 89 55 3c 4b c1 68 39 f8 86 56 bc 19 71 79 3c
       0.013033258 0.00022197251 -0.0130937025 0.0152247185
000030 d5 4e 38 bd d9 bb 84 bd 74 42 9c bd d1 e6 45 bd
       -0.044997055 -0.064811416 -0.076298624 -0.048315827
000040 e9 42 b3 3e 56 24 f8 bc e7 8e 0e bc a9 e3 31 bd
       0.35011986 -0.030290764 -0.008701063 -0.043430004
000050 71 c6 6a 3e b7 ab 5b 3e 8e 65 e7 3c ae 85 06 3c
       0.22927262 0.21452223 0.028246667 0.008210583
000060 fd d9 27 bd 4c 77 8a bd 5b 47 80 bd 4d 9b b4 bd
       -0.040979374 -0.06761035 -0.0626361 -0.08818684
000070 72 6d 8e 3e 68 cf 85 bd 4c bc 7f 3b 05 bb 36 3e
       0.27817875 -0.065337 0.0039022146 0.1784478
000080 24 d4 6e 3e 3b 84 9f bc 00 e8 d4 3d 04 07 75 bd
       0.23323113 -0.019472232 0.10395813 -0.059821144
000090 6a 16 8e bd e5 63 92 bd 0c 2b 82 3e ae d9 6a 3e
       -0.06937869 -0.071479596 0.25423467 0.229346
0000a0 2f 6b 6c bd 4b e7 b5 3b ff 0e 0a bd 5e ea 2a 3d
       -0.057719406 0.005551254 -0.033705708 0.041727416
0000b0 3f 20 55 bd 2c a4 ad bd 70 12 04 3d ab aa 7b 3e
       -0.052032705 -0.08478579 0.032244146 0.24576823
0000c0 69 c5 dd 3c c0 5d b2 bd 79 22 3a bc af 20 96 3e
       0.027071672 -0.08709288 -0.011360758 0.2932181
0000d0 46 a4 9c 3e 9c 33 66 3e 23 56 93 3c af 1b 33 bb
       0.3059408 0.22480625 0.01798541 -0.0027329733
0000e0 d7 d0 0f 3c da be 7f bd e8 7f 2e bd 8f 9f 46 3e
       0.008777819 -0.06243787 -0.04260245 0.19396804
0000f0 f2 42 62 3c af 40 58 3c 09 5e a4 3d f0 55 5a 3e
       0.013809906 0.0131990155 0.08025748 0.21321845
000100 75 e7 21 3e 04 85 3e 3e 47 2e 93 3e 05 75 3b 3e
       0.1581095 0.18605429 0.28746244 0.18306358
000110 fc 0d b4 3c 3d ee dc bc 3e 6a 3f 3e 24 8d 43 3b
       0.021979325 -0.02696907 0.18692872 0.0029838765
000120 92 51 7e 3d 72 31 d3 3b b9 2e 10 3d 50 e0 9a 3e
       0.06208951 0.0064451033 0.03520081 0.30249262
000130 d8 51 16 bc 66 94 f8 bc 4e 7f 81 bd ff ea c0 bc
       -0.0091747865 -0.0303442 -0.063231096 -0.023549555
000140 4a 8e 87 bd a9 16 76 3e c6 04 98 3e ff 6f 9a bc
       -0.06618936 0.24032082 0.29691142 -0.018852232
000150 f7 c7 7e 3e 25 b0 61 bd 39 9b 8d 3c ec cf c6 bd
       0.24880968 -0.055099625 0.01728593 -0.09707627
000160 b5 9a 06 bd 6a f4 4a bd 80 b3 eb 3c 5a d8 61 bd
       -0.032862384 -0.049549498 0.028772116 -0.05513797
000170 41 36 4d 3e c6 13 32 3e 8e 29 a4 3a 07 4b 2b bd
       0.20040227 0.17390355 0.0012524591 -0.0418196
000180 00 c7 92 b7 48 85 64 3e 34 71 08 bd f1 2a 6a bc
       -1.7497223e-05 0.22316468 -0.033311084 -0.014292465
000190 e7 20 f3 bc df 1d 4a 3e 1b f4 85 bd 8a 48 1b bd
       -0.029678775 0.19737957 -0.065407 -0.037910976
0001a0 14 de d0 bd a8 12 1c bd 5d 4b 92 3e b2 59 9f bd
       -0.10198608 -0.03810373 0.28573123 -0.0778078
0001b0 51 d4 3e 3d 3e 0e 21 bd d0 6f 81 3e d1 b1 e7 bb
       0.0465892 -0.039320223 0.2528062 -0.007070758
0001c0 f4 63 86 bd 84 5b c2 3c 33 b2 7b 3e 2c 96 85 3e
       -0.06562033 0.023725279 0.24579696 0.26091135
0001d0 5d 11 2b bd 86 98 8d 3e 5d 54 6e 3c ce 4d 79 bd
       -0.041764606 0.2765543 0.014546481 -0.060865216
0001e0 54 49 43 3e 4e 4a c8 bc 9d 04 8d 3e 74 87 b1 bd
       0.19070941 -0.024449494 0.27542582 -0.08668414
0001f0 8d 41 e0 bc f3 e2 37 bd c4 36 5f bc 30 92 0f bd
       -0.027375007 -0.04489417 -0.013623897 -0.035051525
000200 7f 39 1a 3d 85 0f df bc df 0c 1c 3e 3d 7d 1a bd
       0.03765249 -0.02722908 0.15239285 -0.037717093
000210 03 74 87 bd 21 82 6f 3e 49 be ca 3c 48 54 d1 bb
       -0.06613924 0.23389484 0.024748938 -0.006388221
000220 14 97 ff bc 33 53 9d bd 15 4a 83 bd 33 65 ad 3b
       -0.03119997 -0.076818846 -0.064106144 0.005291605
000230 39 c4 55 bd f9 f2 f0 bc 5f df ad 3e 25 bd 67 3c
       -0.052189086 -0.029412733 0.3395948 0.014144217
000240 64 41 de bd 00 45 23 3e 4f 1d 3f bc 6d 60 2a bc
       -0.10852316 0.1594429 -0.011664703 -0.010398966
000250 51 99 96 bd 7d ca 2e 3d f0 90 90 bd 47 ac 49 3e
       -0.073534615 0.042673577 -0.07058895 0.19694625
000260 59 37 1f bd e5 f6 b3 bc 60 1b 6e bc 36 56 57 3e
       -0.038871143 -0.021968314 -0.014532894 0.2102898
000270 51 d6 0e bd 08 f0 10 bc 1e a0 3a 3e 71 45 39 bd
       -0.034872357 -0.00884629 0.18225142 -0.04523224
000280 d1 63 c0 bc 46 9d a1 3e 64 c6 69 bd b6 64 ae 3c
       -0.023485096 0.31565303 -0.057073966 0.021288257
000290 f6 42 26 bd cc 8f 63 3e b6 2c 20 bd 8b 0b 5b bc
       -0.040591203 0.22222823 -0.03910514 -0.013369451
0002a0 d7 75 91 bd 19 2b 4a 3e 22 af 93 bd 5d 20 53 3e
       -0.07102554 0.19743003 -0.07211138 0.20617814
0002b0 a2 b0 68 3e a4 5d 60 3d 2a b3 6e bd c1 3f 95 3e
       0.2272363 0.054776803 -0.058276333 0.29150203
0002c0 e2 6e e5 3b 6c 7a 2f bd 14 cd 37 bd b8 ff 56 bd
       0.0070017437 -0.04284136 -0.044873312 -0.052489966
0002d0 f1 e8 80 bd d2 4d 66 3e b5 ab 1d bd 2e 23 04 b7
       -0.0629443 0.22490624 -0.03849383 -7.876004e-06
0002e0 8f 9c d3 bd f4 65 79 3e 79 75 9d 3e 65 3e 5e 3c
       -0.103325956 0.24355298 0.30753687 0.013564681
0002f0 3f 4a d1 bc 4d 22 db 3c e3 91 62 3e f8 a8 56 3e
       -0.025548099 0.026749754 0.22125964 0.20962894
000300 ea 5b 68 3e c1 f4 41 bd 62 f8 5e bd 63 df 64 bc
       0.22691312 -0.047352556 -0.054436095 -0.013969275
000310 4e ec 51 bc 3a b1 a8 bd 34 39 82 bd 1c c5 8f 3e
       -0.012812687 -0.08236928 -0.06358567 0.2808007
000320 bb ca 59 3d e1 79 e0 3b c7 db d7 3c 15 82 69 bd
       0.053171854 0.0068504666 0.026349915 -0.05700882
000330 31 32 6b 3b 0e a4 30 bd 79 67 13 bd 90 5c 1e 3d
       0.003588807 -0.043125205 -0.03598735 0.038662493
000340 b8 60 78 3e 0c 26 02 3d 14 55 77 bd c3 9e 8d 3e
       0.24255645 0.031774566 -0.06038387 0.27660188
000350 9e 1c 63 3b dd 36 d7 bd 5f 66 28 3d 0e 70 a3 bc
       0.0034654508 -0.10508511 0.041113254 -0.019950893
000360 ea f5 54 bd 62 2b d0 bc 42 53 78 3e fe 98 8d bd
       -0.051992334 -0.025411312 0.2425051 -0.069139466
000370 13 26 53 bd 31 f5 88 3e 8f a4 93 3e a0 88 66 bd
       -0.051549982 0.26749566 0.28836486 -0.05628264
000380 40 87 9c bd 4a 68 88 3e 47 26 9c bd 4a 1d b1 bc
       -0.076429844 0.26642066 -0.07624488 -0.021620411
000390 bd d9 4b bd 67 64 a1 bc c8 71 87 3c 1a c5 f4 bc
       -0.0497682 -0.019701196 0.016533747 -0.029879142
0003a0 d4 9a 79 3e b3 be 9d bd fa 6a 04 3d ea 44 a6 3d
       0.24375468 -0.077023886 0.032328583 0.08118613
0003b0 cd d1 36 3c 18 d9 5b bd 1b 3f 12 bd 3d 04 c5 3c
       0.011158419 -0.053673834 -0.035704713 0.024049873
0003c0 0b 10 93 3e 93 2b 3c 3e 46 99 72 3e 9d 3b 12 3d
       0.28723177 0.18375997 0.23691282 0.035701383
0003d0 11 0f 60 3e 3c 2a 90 3c 6c fe 62 3e 4f e2 93 3e
       0.21880747 0.017598264 0.22167367 0.28883597
0003e0 13 56 29 3d 13 8a d2 3d 2c 8c 83 3c 24 f0 8c bd
       0.041341852 0.10280242 0.01605805 -0.06881741
0003f0 89 2a e4 3d f3 f5 e3 3c 03 82 f7 bb 52 fc 48 bd
       0.111409254 0.027827239 -0.0075533404 -0.049068756

net.4.weight f4 [1, 256]
000000 fa 06 9a bd b3 a8 6b 3d be 85 a4 3d 2d 08 9b 3c
       -0.07520862 0.05753393 0.08033322 0.018924797
000010 4c 1f 5b bd 84 11 b3 bd 1a 6d dd bd 8a 18 29 3e
       -0.053496644 -0.08743575 -0.10811825 0.16513267
000020 e9 2c a1 bd db 4f 64 bb f6 14 39 bd 80 7d 48 bd
       -0.07869894 -0.0034837637 -0.045186006 -0.04894781
000030 f1 92 58 3c c5 54 ac bc f0 40 63 bd b3 44 4c bd
       0.013218627 -0.021036515 -0.05548185 -0.049870204
000040 fc 7d f1 3d 5b 98 1c 3c 18 96 9d bd 5e ba 9e bd
       0.11791608 0.009557809 -0.07694644 -0.077503905
000050 1f c3 69 3d bf ae 8b 3d d7 9f 6b bd 53 a5 3d 3d
       0.057070848 0.068204395 -0.057525482 0.046300244
000060 ce e8 b9 bb ff dc 85 bd 58 b0 2f bd 66 97 3d bd
       -0.0056735044 -0.06536292 -0.042892784 -0.046286963
000070 42 fd d3 3d 6a be 5d bd 9a c4 68 bd 9d ad 8c 3d
       0.103510395 -0.05413667 -0.05682812 0.068690516
000080 b9 e6 da 3d fa 48 41 3d 12 cb d5 3c b6 92 eb bc
       0.10688538 0.047188736 0.026097808 -0.02875648
000090 59 65 ac bd ea 4f b4 bd 09 df e1 3d a7 78 e2 3d
       -0.08417768 -0.08804305 0.11028869 0.11058169
0000a0 56 a7 22 bd d7 d1 af bd e2 d0 94 bd fa eb 9a bd
       -0.039710365 -0.08584946 -0.07266404 -0.0756454
0000b0 4e 03 13 bd f3 5d 7f bd 01 22 c2 3c 34 fc b0 3d
       -0.035891823 -0.062345456 0.023697855 0.08641854
0000c0 0b ab 52 bd 94 0e 48 bd 93 a9 42 bd 27 f7 f8 3d
       -0.05143265 -0.048842028 -0.047525 0.121565156
0000d0 b5 b1 cd 3d 1c 39 a9 3d 85 94 8d bd e9 65 45 bd
       0.100436606 0.08262846 -0.069130935 -0.048192892
0000e0 92 04 7a bc 0a 87 cd 3c ed 9e de bc b4 c5 17 3d
       -0.015259879 0.025088806 -0.027175391 0.03705378
0000f0 0c 92 88 bd c4 79 62 bd f8 60 87 3d 83 06 d9 3d
       -0.06668481 -0.055291906 0.06610292 0.10596945
000100 a6 a5 a4 3d 12 1c e0 3d 20 bc e5 3d fb f3 1a 3d
       0.080394074 0.10942854 0.112175226 0.037830334
000110 65 8f 37 bd 2a 96 75 bd 64 7e af 3d 96 b4 66 bd
       -0.044814486 -0.05995766 0.08569029 -0.056324564
000120 b8 47 f6 3b c1 93 d4 bc 16 97 59 bd 1d 34 b7 3d
       0.0075158738 -0.02594936 -0.053122602 0.08945487
000130 a9 7d 12 bd 61 1a 49 bd bf 6c 71 bd 60 13 8f bd
       -0.03576437 -0.049097423 -0.0589416 -0.06986117
000140 b6 c7 c4 3c b3 5d 02 3e f2 e1 c9 3d e8 c2 87 bd
       0.02402101 0.12731056 0.09857549 -0.06628972
000150 b8 94 9f 3d 72 cc 60 bd 2a c4 85 bd df ce 00 bd
       0.07792038 -0.054882474 -0.06531556 -0.031447288
000160 5c 5b 27 3d 5d 4f 66 bd ff d6 8f bd ad 24 a0 bd
       0.04085861 -0.05622803 -0.07023429 -0.07819495
000170 2d 06 a7 3d bf 36 c9 3d 44 fe 56 bd 54 68 00 3d
       0.08155475 0.09824895 -0.05248858 0.031349495
000180 82 0d d5 bd e0 41 ec 3d 9c 84 82 bd 5b 95 d7 3c
       -0.10402967 0.11536002 -0.063729495 0.026316335
000190 c5 3b 3f bd 03 c7 3e 3d 7a 8e 2a bd 00 6a ed bc
       -0.04668786 0.04657651 -0.041639782 -0.028981209
0001a0 15 cc 2f bd 00 81 82 bd e2 b6 bf 3d a8 cd cf 3c
       -0.042919237 -0.06372261 0.09361054 0.02536662
0001b0 cf fd 05 bd 79 56 12 3d 9e 7e 7f 3d c2 60 7d bd
       -0.032712754 0.035726998 0.06237661 -0.061859854
0001c0 3d 69 72 bd fb 84 73 bd aa e1 f1 3d 3e 35 e0 3d
       -0.059182394 -0.059452992 0.1181062 0.10947655
0001d0 fd 67 9c bd df d2 31 3e fa 45 63 bd a4 68 7c 3d
       -0.07637022 0.17365597 -0.055486657 0.06162323
0001e0 38 9a a2 3d 43 87 42 bd 53 be e0 3d 26 a7 ae bd
       0.07939571 -0.047492277 0.109738015 -0.08527975
0001f0 01 39 b6 bd 45 25 90 bd 98 a1 07 bd 37 12 0b bd
       -0.088975914 -0.070383586 -0.033113092 -0.033952918
000200 ad 32 ae bd ae 9e 5c bd d0 a4 b9 3d 59 9b 9e bd
       -0.085057594 -0.053862266 0.090646386 -0.07744474
000210 b3 7c 5d bd 7e 8a 98 3d ab c7 47 3d 49 e1 44 bd
       -0.054074 0.0744829 0.048774403 -0.04806641
000220 8a 1c b7 3c ee 1f 5a bd 74 c3 97 bd a3 05 5b bd
       0.022352476 -0.053253107 -0.074103266 -0.053472172
000230 50 a0 01 bb f4 e0 a5 bd e6 7c c6 3d 94 01 18 bd
       -0.0019779392 -0.08099547 0.09691791 -0.03711088
000240 d5 e1 8e bc ff ff ab 3d 0c 78 75 bd 23 14 64 bc
       -0.01744167 0.08398437 -0.05992894 -0.013920817
000250 6a c1 86 bd 69 22 a4 bd d9 fa 94 bd f4 17 a5 3d
       -0.065798596 -0.08014376 -0.07274408 0.08061209
000260 8b 93 36 bd a6 76 fa bc 13 32 08 bd 57 ea 3a 3d
       -0.0445743 -0.030574154 -0.03325088 0.04563364
000270 c4 3e 9a bd 33 a6 53 bc 3a 40 92 3d c3 26 33 bd
       -0.07531503 -0.012918043 0.071411565 -0.043738138
000280 24 7f 12 3c 8b 43 cf 3d 69 0b 9c 3c 5c 74 8e bd
       0.0089414455 0.10120305 0.01904841 -0.069557875
000290 ab 80 30 bd 53 c3 de 3d 31 5f 9c bd e1 53 7c bd
       -0.043091457 0.10877099 -0.07635344 -0.06160343
0002a0 eb 82 1a bd b8 16 4b 3d 2f ea 1a 3d ca 2f 0a 3e
       -0.03772251 0.049582213 0.03782099 0.13494793
0002b0 ba 23 ea 3d be b2 85 bb 61 d3 a2 bd cc b3 a6 3d
       0.114325956 -0.0040801456 -0.079504736 0.08139762
0002c0 3b 68 17 3d c4 cf c9 3c 85 56 48 bd 5e 85 a6 3c
       0.036964636 0.024635203 -0.048910636 0.020327266
0002d0 aa 66 a7 bd a8 81 8e 3d fd 24 05 bd 85 55 8d bd
       -0.081738785 0.06958324 -0.032505978 -0.06901077
0002e0 e3 08 46 bd 26 10 aa 3d f9 13 f4 3d a7 fc c7 3c
       -0.04834832 0.08303861 0.11917872 0.024412466
0002f0 63 9b b8 3c 47 aa 37 bd a2 09 1b 3d 2d c6 b7 3d
       0.022535032 -0.044840124 0.037850983 0.08973346
000300 80 f7 de 3d c7 9f 83 bd d0 f2 12 bd 7d c0 73 3b
       0.10887051 -0.064269595 -0.035876095 0.003719359
000310 ff db b5 bd 63 f1 53 bd 57 ff 6d bd 1c 04 bb 3d
       -0.088798515 -0.051743876 -0.05810484 0.09131643
000320 3c a3 5d bd 92 83 44 bd 66 48 d3 bd e1 8d 01 3d
       -0.05411075 -0.047977038 -0.10316543 0.031629447
000330 cf 31 98 bc e1 3d 81 bd dd 56 25 bd cf 23 ba bd
       -0.018578438 -0.063106306 -0.040366042 -0.09088861
000340 20 d4 c9 3d 8d 49 a0 3c b2 41 c8 bd 60 0f f0 3d
       0.09854913 0.019566322 -0.097781554 0.117216825
000350 c4 07 4e bd 1b 61 43 bd 10 52 9a bd 13 9c c4 bd
       -0.050300375 -0.04770003 -0.075351834 -0.09600081
000360 62 14 f4 3c f1 98 ad bd e2 f1 2e 3d 71 2c 5d bd
       0.029794876 -0.08476437 0.042711146 -0.05399746
000370 62 22 34 bd 43 71 65 3d e2 ec e1 3d 72 78 4e bd
       -0.043978103 0.056016218 0.1103151 -0.050407834
000380 8e 32 2f bd e0 a6 69 3d 16 40 26 bd 09 a1 31 bb
       -0.042772822 0.05704391 -0.04058846 -0.002710404
000390 33 5c 5f 3d 7a 23 02 bd 72 a0 dc 3c 4d 23 35 bd
       0.054531287 -0.031772114 0.026931975 -0.04422312
0003a0 77 68 e3 3d 44 d6 1d bd ab a4 e5 bc 69 1f 9d 3c
       0.111039095 -0.038534418 -0.028032621 0.019180017
0003b0 fc 7a 0e bd b0 a6 b5 bd ca d0 2b bd 69 47 f6 3c
       -0.034785256 -0.08869684 -0.041947164 0.030063348
0003c0 0f c9 d3 3d f0 d7 db 3d 0f fb 02 3e 2f c6 a2 bd
       0.10341083 0.10734546 0.12791084 -0.07947957
0003d0 df 1b b3 3d 69 ef 50 bd be 06 19 3e d1 d0 a9 3d
       0.0874555 -0.05100957 0.14943978 0.08291782
0003e0 c6 a5 7a bd 7c 1c eb 3d 7b e9 37 bd f1 1f 87 bd
       -0.06119325 0.11480042 -0.0449004 -0.06597889
0003f0 1a 5d 51 3d f6 3e 52 bd 4e f3 46 bd 62 7f bf bd
       0.05111418 -0.051329575 -0.048571877 -0.09350468
