checkpoint/final/agent_0/policy.pth (torch, 331529 bytes, 6 tensors)

net.0.weight f4 [256, 49]
000000 cc 41 78 3d 65 96 ae 3d 80 fa 84 bd 4c a5 a0 3d
       0.060609624 0.08524779 -0.064930916 0.07844028
000010 88 9b 73 3e 6f d5 5b 3e 42 e3 39 be df 14 15 bc
       0.23789799 0.21468137 -0.18153098 -0.009099214
000020 7b d8 ec bd b2 f4 36 3e 54 0c 4a bd cf 02 16 be
       -0.11564728 0.17866781 -0.049328163 -0.14649509
000030 6c c4 0a 3e 9e 96 12 3e 98 32 c3 3d 6c 7d dc 3c
       0.13551491 0.14315268 0.09531134 0.026915275
000040 09 5b c0 3d 5e 56 86 3c 38 dd ce bd 4d 8c a4 bc
       0.093923636 0.016398605 -0.10100788 -0.020086432
000050 e1 97 e2 3c b2 82 8c 3d d2 b7 06 be 18 cc ac 3d
       0.027660312 0.06860866 -0.1315606 0.08437365
000060 ef 41 9b bd 59 ea 14 3d 8e 36 ab 3d 6e 5a 29 be
       -0.07580935 0.036356304 0.08360015 -0.16538402
000070 aa ef 00 be a2 bc b7 bd e6 36 92 3c c8 61 55 3d
       -0.12591425 -0.08971526 0.017848443 0.052095205
000080 57 0e 3e bd 49 50 a8 3d 01 aa de bc f7 9c bf 3d
       -0.046400394 0.08218438 -0.027180674 0.093561105
000090 ff 7d d9 3c 6e b6 f8 bc 79 8b 63 bd 32 69 b0 3d
       0.026549337 -0.030360427 -0.055552933 0.086138144
0000a0 56 c6 00 3d 0a b6 13 3d 5c a7 5e bd 7e 37 35 3c
       0.031439148 0.036062278 -0.054358825 0.011060594
0000b0 fa 8f 17 3e bb f2 a8 3d fe 80 e3 bc 3b 7d a3 3d
       0.14801016 0.08249422 -0.02777147 0.0798287
0000c0 46 f2 65 bd 6b d3 86 3d 93 41 07 be be 19 fd 3b
       -0.056139253 0.065832935 -0.13208608 0.007724016
0000d0 93 3c 21 3d 76 9b 29 be 55 fb 10 3e 10 5b a1 3d
       0.03936441 -0.1656321 0.14158376 0.07878697
0000e0 af e7 13 3e b6 40 5e 3e bb 0e 5b 3d d0 b8 97 3d
       0.14443849 0.21704373 0.053480845 0.07408297
0000f0 e3 8a 8a bd c0 fc 87 bd eb df 42 3e be ff 34 bd
       -0.06764772 -0.06640005 0.1903073 -0.044189207
000100 6b fd cb 3d 7f a1 ac 3d 1c fa cd 3b c7 3a da bd
       0.09960445 0.084292404 0.006285919 -0.10655742
000110 ad 5f 80 bd 98 0f 0a bd 61 9d 18 3d da 02 41 3c
       -0.06268249 -0.033706278 0.037259463 0.011780465
000120 09 68 3c 3d 17 eb 78 3d 2a e1 94 3d d0 a6 84 3d
       0.045997653 0.060771074 0.07269509 0.064771295
000130 0d b2 5f 3d 6a 6b 20 bc e1 9e 4e 3c 9f 9b b0 bd
       0.05461316 -0.0097912345 0.012611122 -0.08623432
000140 86 3d b7 bd fb bc ad 3d 90 8d ec bd cb 27 b2 ba
       -0.089472815 0.08483311 -0.115504384 -0.0013592181
000150 e3 44 80 3b 3a 6a 3d bd 7e f8 ae bd 25 99 12 3e
       0.003914462 -0.046243884 -0.0854349 0.14316233
000160 69 51 a9 bd 85 b5 cd 3d e0 a6 e7 bd b5 92 c5 bd
       -0.08267481 0.10044388 -0.11311126 -0.09647123
000170 29 bd 04 bd 78 c3 e6 3c 98 fd dc 3d e2 6c 07 3e
       -0.03240696 0.028169379 0.10790557 0.13225129
000180 30 e0 1c 3e 28 ea 11 be 3f c4 09 bd a5 d1 1d bd
       0.15319896 -0.1424948 -0.03363442 -0.03853001
000190 d5 b9 82 3d 02 70 3a 3e c7 0c aa bd e9 bd 98 bc
       0.06383101 0.1820679 -0.08303218 -0.018645244
0001a0 bf d7 09 3e 57 83 f4 3d 3e 67 0f 3e ee 7c 22 3e
       0.13461207 0.119391136 0.14004228 0.1586797
0001b0 71 72 06 3e 6c 3f 00 3d 3e 85 4e 3d cf 78 f4 3d
       0.13129593 0.031310484 0.05042004 0.11937105
0001c0 60 43 a3 bc ba 32 19 be 5d 58 df bb 73 64 96 bd
       -0.019929588 -0.14960757 -0.0068159536 -0.07343378
0001d0 0d 44 16 3e 71 cf a6 bd 49 db b8 bd c1 71 09 be
       0.14674397 -0.08145035 -0.090262 -0.134223
0001e0 e8 48 9d bc 2f 97 e8 3c 65 6d 78 3d be 8c 9f 3d
       -0.019199803 0.028392402 0.0606512 0.07790516
0001f0 70 bd f3 3d f2 af 94 bb 7a 04 0a bd 98 5f e9 3d
       0.11901367 -0.004537576 -0.033695675 0.11395186
000200 c8 f3 ca bd 39 33 15 be f5 37 c1 bd 22 48 8d bd
       -0.09909779 -0.14570321 -0.09434501 -0.06898524
000210 4a 78 a6 3c 6d 78 23 bd fc 54 f2 bd bd 35 bc 3c
       0.02032103 -0.03990977 -0.11832616 0.022974843
000220 5b 9a fe 3d 55 b2 1f bd d5 5f 3b 3d 8a f7 00 3e
       0.12431785 -0.03898843 0.04574569 0.12594429
000230 3a 84 2a be 45 c6 ef bd 78 dd d1 3d 8c e6 e9 3d
       -0.16652003 -0.11707739 0.1024732 0.114209265
000240 b8 61 c3 3c 53 31 df 3d a2 ed f1 bd 94 90 7a bd
       0.023850307 0.1089808 -0.11812903 -0.061173037
000250 4c aa 27 3e 21 5a 7b bd 59 06 83 bd 87 9b 74 3e
       0.16373557 -0.06136525 -0.06397695 0.23887454
000260 1c 15 79 3e 96 0b 9e bd 11 4d 3a 3d ab ce 5c 3d
       0.24324459 -0.077170536 0.045483653 0.05390803
000270 ee 22 94 bd e1 b1 1e 3e 66 12 f5 3c 9d b5 59 3d
       -0.07233225 0.15497543 0.029916 0.053151716
000280 7a 5e 1d 3d d2 9d a1 3d db 03 16 be 17 57 d4 bc
       0.038420178 0.0789143 -0.14649908 -0.025920434
000290 43 6d b6 3d 0e f0 03 bd 7d 5b a3 3d f1 2d f2 3d
       0.08907559 -0.032211356 0.079764344 0.11825169
0002a0 b0 84 83 bd 70 96 02 bd 34 e2 fe 3d e4 b1 d2 3d
       -0.064217925 -0.03188175 0.124454886 0.10287836
0002b0 06 a9 a8 3d ff a8 88 3d b8 7d e0 3c 1d 1e c5 bd
       0.08235364 0.066728584 0.027403697 -0.09624884
0002c0 7f ca 0f bd e2 73 a6 3d 73 6c 16 3d db b9 c1 3c
       -0.035105225 0.08127572 0.03672452 0.023648193
0002d0 03 c8 0f bd 2a 5a 58 bb 92 48 06 3e ce fe 5a bc
       -0.035102855 -0.0033012726 0.13113621 -0.013366414
0002e0 2d 81 48 bd ff 29 01 bd 9e 82 87 bd 26 d4 35 3d
       -0.048951317 -0.03153419 -0.0661671 0.044391774
0002f0 0e 3c 8e bd 2c c2 d8 bd cf c6 ad 3d c0 4d 77 bd
       -0.06945048 -0.1058391 0.08485185 -0.060376883
000300 b6 d4 dd 3d 84 b1 01 3e cd 9c e3 bd 65 14 16 be
       0.10831587 0.12665373 -0.11113892 -0.14656217
000310 e7 34 a5 bd 5e f2 7d 3b a2 c9 26 3d 80 73 16 bb
       -0.08066731 0.0038749198 0.040719636 -0.0022957027
000320 8a 3d d8 bd 37 68 08 be 84 6c 5d bd 2b 28 33 bd
       -0.10558613 -0.13321005 -0.054058567 -0.04373948
000330 78 41 1e 3e 62 9c 06 be f8 9b 61 bd b9 12 40 3e
       0.15454662 -0.13145593 -0.055080384 0.18757142
000340 26 d9 78 3c 84 3b 2c bd ca 3a 0b 3c 23 b5 68 bb
       0.015188491 -0.042048946 0.008497903 -0.0035508357
000350 c4 b4 3a 3e 1e b3 40 bd 86 dc 15 3e f6 61 c5 3c
       0.18233019 -0.04704582 0.14634904 0.024094563
000360 ff 5a 18 3d 47 79 2a bd ea f8 00 3d 31 3c f3 3d
       0.037196156 -0.041619565 0.031487383 0.11876715
000370 47 4b 93 3d 8e 25 47 3d 48 a1 b3 bd 17 ef 5b 3c
       0.071920924 0.0486198 -0.08770996 0.013423703
000380 01 a3 46 3d 5d 34 65 3d 28 6d 03 3e 1a 60 d8 bb
       0.048495296 0.05595814 0.12834609 -0.006603253
000390 bc 0b b5 3d 4d 2a 39 bd d4 84 62 3e bd c4 9c bb
       0.08840129 -0.045206357 0.22120982 -0.004784195
0003a0 cc c8 39 3e 43 6f d5 3d da b8 56 3d 0e f0 40 3e
       0.18143004 0.10421612 0.052422382 0.18841574
0003b0 2a 67 2c 3e 22 bd be 3d 47 e7 c9 3d 95 94 0a 3c
       0.16836229 0.09313418 0.09858566 0.008458276
0003c0 ad be 09 3d 8d 35 86 bb 18 11 c0 bd a7 85 4c 3e
       0.03362911 -0.004095739 -0.093782604 0.1997286
0003d0 dc 6b 4d 3e 85 c3 d2 3d bb 38 7b 3d ce d8 26 be
       0.20060676 0.10291199 0.0613334 -0.16293642
0003e0 7a 3e d8 3a 8f dc c1 3d 2d b3 e9 bd 89 20 4c 3e
       0.0016498112 0.09465896 -0.11411128 0.19934286
0003f0 f0 b2 7a bd 94 b7 af bc f0 41 de bd 51 61 89 3d
       -0.061205804 -0.021449842 -0.1085242 0.06708015

net.0.bias f4 [256]
000000 ec a3 85 3d 3b 73 cb 3d 7a 98 fb bc 39 71 5e bd
       0.06525406 0.09934088 -0.030712355 -0.054307196
000010 bc 43 85 3d 73 d3 8b bd 00 85 5b 3e 05 f8 07 be
       0.0650706 -0.0682744 0.21437454 -0.13278206
000020 48 91 fd bb 5d ba 61 3d 1d 58 f6 bb 3d f5 03 3e
       -0.007738266 0.05510937 -0.007517828 0.1288652
000030 c1 0b 57 bd c7 93 de bd f6 76 e3 3d 89 5b b6 3d
       -0.052501444 -0.1086803 0.111066744 0.08904178
000040 ef 2d 82 3d 54 97 54 bd a9 9a b2 bb a2 91 07 bd
       0.063564174 -0.05190213 -0.005450566 -0.03309787
000050 cf 80 8c bd d3 5e 20 be 53 87 f9 bd f0 13 cc 3d
       -0.06860506 -0.15661173 -0.12184014 0.0996474
000060 ac dd df bd a1 82 a9 bd 19 fb ab 3c ec 31 42 bd
       -0.109309524 -0.082768686 0.020993756 -0.04741089
000070 98 18 d9 bd 5a c5 a8 bd 6c ed 0e be 8a 86 d1 3c
       -0.10600394 -0.08240767 -0.13957757 0.025576849
000080 c8 41 28 3d 53 a4 bc bd 0e 49 22 3e 41 1f 01 3b
       0.04107836 -0.0921103 0.1584818 0.0019702467
000090 c4 c5 70 bd aa 3c ee 3c d6 a5 fc bc 33 ca 41 bc
       -0.058782354 0.029081661 -0.030840795 -0.011827993
0000a0 2f 6a 9a 3c 86 96 fe bd 62 b8 46 3d cb 98 fd bc
       0.01884946 -0.12431054 0.048515685 -0.030956646
0000b0 1c 8b c2 3c 29 1e 9d bc 01 aa 64 3e 8b 0f e4 bd
       0.023747973 -0.01917942 0.22330476 -0.11135777
0000c0 d2 61 91 bd 21 59 1e bd 01 a4 18 bb 08 11 70 bb
       -0.07098736 -0.03865922 -0.0023291113 -0.0036631245
0000d0 69 d5 18 bd 7f af 87 3d 54 d7 a5 3d 2d 33 b4 3d
       -0.0373129 0.0662527 0.08097711 0.087988235
0000e0 92 22 d2 bd 6c 8a 86 3a 70 80 2f 3d aa 18 40 3e
       -0.102605 0.0010264642 0.042847097 0.18759409
0000f0 a3 bd bf bd e2 f6 24 3e 7d 7d 7c 3d 71 93 3e bc
       -0.09362342 0.16109803 0.061643112 -0.011631832
000100 3e 08 22 be c7 d5 99 3d 85 de 5a bc 86 ee 41 be
       -0.15823457 0.07511478 -0.013358717 -0.18938646
000110 aa 2c c8 3d 61 dd 1e be 8d 58 f7 bd 29 da 2a bd
       0.09774144 -0.15514137 -0.120774366 -0.04171196
000120 c9 14 ac 3d 7e 06 9a bd 80 ac 50 bc 44 b9 06 3d
       0.08402402 -0.075207695 -0.01273644 0.032891527
000130 36 02 1f bc b5 14 58 3d ee 29 36 3b 19 7c b3 3c
       -0.009705117 0.052754123 0.0027795988 0.02190976
000140 23 18 18 bd 88 e2 3e bd 8f 7e 5f bd 81 42 e7 3d
       -0.037132394 -0.046602756 -0.054564055 0.112919815
000150 0a e7 ec 3d 52 93 62 3d 08 6b 53 bd 47 82 99 bd
       0.11567505 0.055316277 -0.051615745 -0.074955516
000160 7a 02 33 bc 4c 10 64 bc c2 9c 03 be 94 1c f8 3d
       -0.010925883 -0.013919901 -0.12852767 0.12114826
000170 b5 03 f9 bd e8 fd 4d bc 4d cb af bd d1 5a 0b be
       -0.1215891 -0.012572743 -0.085836984 -0.13608862
000180 a7 84 c7 bb 96 b9 1c 3e dd 07 cd bd f4 46 c1 bd
       -0.0060888114 0.1530517 -0.100112654 -0.09437361
000190 8f 8f a3 3d 0b c2 1f bc db 82 a9 3d 3c 32 f8 3b
       0.07986366 -0.009750853 0.08276912 0.007574348
0001a0 73 b0 78 3e b0 d7 05 3e 5e a7 c7 3d 1a 27 b7 3d
       0.2428606 0.1307056 0.0974872 0.08943005
0001b0 10 7a cd bc 18 fc 1b bd 94 2c 92 bd 64 a5 a8 3c
       -0.025082618 -0.038082212 -0.07137409 0.020586677
0001c0 47 de 36 3d 7c e4 0d bd 27 e5 d5 bc 83 7c 75 bd
       0.044645574 -0.034641728 -0.026110245 -0.059933197
0001d0 d9 fd a5 3d 03 69 4b bd 0b 37 9c 3d 8b 0c fe bd
       0.08105058 -0.049660694 0.07627686 -0.12404736
0001e0 06 9a a1 3d 3f 70 db 3d 5f 06 6a 3d 4e 8a ae 3d
       0.07890706 0.107147686 0.057134982 0.08522473
0001f0 ef 9b 3b bb c1 59 2d 3e b2 49 3e 3d 73 ec f9 3d
       -0.002862688 0.1692877 0.046457 0.12203302
000200 70 7a f3 bd 74 37 f0 bb 68 63 e5 3d 8d 8d e4 bc
       -0.118885875 -0.0073308293 0.11200601 -0.027899528
000210 e0 39 78 3d 40 68 ea 3d 40 99 ce bd 39 c2 f4 3d
       0.06060207 0.11445665 -0.10087824 0.119511075
000220 5b 2a 80 3c f7 84 a1 bd 4e 5c 5f 3e 40 f6 b0 3c
       0.015645197 -0.07886689 0.21812555 0.021601796
000230 30 63 23 bd a8 5b e3 3d 58 c2 18 be 95 10 02 bb
       -0.039889514 0.111014664 -0.14917886 -0.001984631
000240 84 2a 2c 3d 31 66 8c bd ad d1 0f bd f2 71 ec 3c
       0.042032734 -0.06855429 -0.03511207 0.028862927
000250 e3 48 b3 3c 54 0b 94 bd 3e 59 ba 3d 9e 67 8a 3d
       0.021885341 -0.07228723 0.09099053 0.06758045
000260 f2 e6 9d bc 02 c6 a9 bc 52 bb b9 bd ff a1 20 bc
       -0.019275162 -0.0207243 -0.09068932 -0.009804248
000270 df b3 9f 3d 80 ac 96 3d 2b 25 1d bd c3 18 c2 3b
       0.077979796 0.073571205 -0.038365524 0.005923362
000280 d2 bb d6 3d f7 34 39 3d 3c f3 96 bd ac e1 18 bd
       0.10485043 0.045216527 -0.07370612 -0.037324592
000290 71 09 ef bd 8d a7 39 be 89 61 a7 bd 9b f7 e9 3d
       -0.11671723 -0.18130322 -0.081729 0.1142418
0002a0 94 5c de 3a e2 ed 24 3e 35 f4 23 3e b3 2d c5 3d
       0.0016964846 0.1610637 0.16011126 0.09627857
0002b0 36 a4 4c bd f5 7e b4 3d 46 27 27 3e ca 3f 45 bd
       -0.04996129 0.08813278 0.16323575 -0.048156537
0002c0 ee ba 72 bc 30 2f dc bd c4 65 78 bd a4 c9 96 3d
       -0.014815075 -0.10751188 -0.060643926 0.07362679
0002d0 72 74 37 3d 15 df de 3b df a2 9c 3c e1 46 34 3e
       0.044788785 0.006801496 0.019120632 0.17605163
0002e0 2f d2 fa 3d 0f 6c 8d 3d 29 4b 02 3d e8 06 e7 3d
       0.122471206 0.06905376 0.03180996 0.11280614
0002f0 ce 78 52 3d 6b ef 43 bc a9 1d 1f be ab 7a b2 3d
       0.05138474 -0.011958937 -0.15538658 0.08714803
000300 4b 95 44 bd da 1c 9e bd a9 65 09 3d 33 11 2a bd
       -0.04799394 -0.07720347 0.033544216 -0.04152031
000310 99 c5 2b be 57 92 74 3d cc 31 38 bd 2e 44 73 bd
       -0.16774596 0.059709873 -0.044969365 -0.059391193
000320 fc b2 a6 3d 79 5f 3d 3d 1a 76 c4 bd 99 7b 8f bd
       0.08139607 0.046233628 -0.095928386 -0.07005996
000330 e7 b6 f9 3d 34 9d f6 3d f5 23 64 3c f2 4c c5 3d
       0.12193089 0.12041703 0.013924588 0.09633817
000340 20 4a f8 3c e3 81 d9 bc 1a 4c 28 bc 45 79 11 3e
       0.030308783 -0.026551193 -0.01027205 0.14206417
000350 3a d4 66 bc eb c1 3c bd 48 dd f8 bd d2 5e 18 be
       -0.014088685 -0.046083372 -0.12151581 -0.14879921
000360 fc f7 45 bd 79 0c 1f 3e 34 5e 7b 3d f1 a2 40 3d
       -0.0483322 0.15532102 0.061369136 0.047030393
000370 b4 34 df 3d ea 41 4d 3c 50 87 b9 bd 96 45 9d bd
       0.10898724 0.012527922 -0.09059012 -0.07679288
000380 fb cc 0c 3e f7 27 e4 bd 16 51 ce 3d d0 3c 26 3d
       0.13750069 -0.11140435 0.1007406 0.04058534
000390 5e 33 a4 3d 73 1a 79 bd b8 9e 83 3b 27 66 f9 3d
       0.0801761 -0.06081624 0.0040167235 0.12177687
0003a0 82 48 e6 3c c2 3c 5e bd cf 15 3e 3e 26 04 87 bd
       0.028110746 -0.054257162 0.18563007 -0.06592588
0003b0 94 84 65 3d 3f 9d 14 bd 3b c5 9a bd ea b0 0b be
       0.05603464 -0.036282774 -0.0755715 -0.13641706
0003c0 77 02 25 3e bf 5e 78 bc cd ee 18 3d 04 fb e0 bb
       0.16114222 -0.015159308 0.037337113 -0.006865861
0003d0 b4 32 e4 3d ae a1 bf 3d cf 08 a8 bd 1b 11 07 bd
       0.11142483 0.0935701 -0.08204805 -0.032975297
0003e0 b6 8b f0 3d ff 68 72 3d af c8 bc bd 56 96 bf 3d
       0.11745398 0.059182163 -0.09217965 0.09354846
0003f0 e6 c4 05 bd d4 1c 02 3e b3 0d 04 bd ae ae fd bb
       -0.03265848 0.1270631 -0.032239627 -0.0077417707

net.2.weight f4 [256, 256]
000000 47 52 9c 3d f8 6c e2 3d 1f 7a f4 ba 44 e9 ab bc
       0.07632881 0.110559404 -0.0018652118 -0.020985253
000010 4c c1 01 bd 3c 09 89 3d 19 d3 d2 3d 8b 68 9e bd
       -0.031678483 0.066912144 0.1029417 -0.07734784
000020 c5 7b bc bb 4b 5d b7 bc 38 f5 9d 3c 7b 31 74 3d
       -0.005752059 -0.022383353 0.019281968 0.0596175
000030 fb 72 f9 3d 88 cc b1 bd 22 d4 24 3d 7a c0 31 bd
       0.12180134 -0.08681589 0.040241368 -0.04339645
000040 85 1f ff 3a 89 25 44 3d fb b9 8d 3d 73 1d 46 3d
       0.001946435 0.04788736 0.069202386 0.04836793
000050 2f 72 2f bc 0e 65 a5 3c 07 24 50 bc 5e ad 85 3d
       -0.010708376 0.020189788 -0.012703902 0.06527208
000060 4d 87 0b bd 61 b6 fb bb 35 92 95 3d 11 98 81 bd
       -0.03406458 -0.0076816534 0.073032774 -0.063278325
000070 a7 76 8b bd b2 39 40 3d a5 57 80 3d 95 ea 0d 3d
       -0.068097405 0.046930023 0.06266717 0.034647543
000080 a5 7c a5 3d 0d 9e d4 3c 87 7d 02 3d 4e ad b3 3c
       0.08080415 0.02595427 0.031857993 0.021933224
000090 f7 d9 0a 3c d6 6e 9b 3d 24 34 bc 3d a7 bc 97 bc
       0.008474818 0.075895 0.091896325 -0.018522574
0000a0 dd c3 2c 3c 46 ae 56 3d 05 cf 98 3d ba ac 15 3d
       0.010544744 0.052412294 0.07461361 0.036541678
0000b0 4f 9a c8 bc 65 65 9d bc b6 c9 b0 3d eb b4 e5 3d
       -0.024487643 -0.019213388 0.08632223 0.11216148
0000c0 fa 72 c3 bc 7b cc 49 bb 30 a4 b1 3d 42 43 e5 bc
       -0.023858536 -0.0030792046 0.086738944 -0.027986173
0000d0 c6 8b ed bb 92 36 56 3d 46 7a f1 3c 1c 5e ae 3c
       -0.0072493283 0.052298136 0.02947725 0.02128511
0000e0 b8 b0 b8 bc fd 35 af 3d 34 d0 97 3c 78 8b 1a bd
       -0.022545204 0.08555219 0.018531896 -0.037730664
0000f0 80 10 3b bd f6 1c 82 3d 40 16 8f 3c 04 f5 dd 3c
       -0.045670033 0.0635318 0.017466664 0.027094372
000100 4b 0b 65 3d d2 05 60 bc cc d1 0c bd 86 75 3e bd
       0.055918973 -0.013673263 -0.034379765 -0.046498798
000110 9f ac b7 3c cb d7 7e 3d d3 98 2c bd 17 af 90 3d
       0.02242118 0.062217515 -0.042137932 0.07064646
000120 7b 3a 56 3d 0d 96 d2 3c f4 92 fb 3c 99 23 b2 3d
       0.052301865 0.025706315 0.030709721 0.08698196
000130 a4 99 34 bc 8a fb 64 3d 9e 8a 5a 3d ce 7f 85 3c
       -0.011022959 0.05590395 0.053354852 0.016296294
000140 c4 61 85 3d 4c 4b 48 3d 97 ff 5b bc b9 1e 23 bd
       0.06512788 0.048899934 -0.013427637 -0.03982422
000150 5b bb 93 3d 92 63 54 bc ce fb 3c bc fe a1 55 bd
       0.072134696 -0.012963193 -0.011534644 -0.05215644
000160 4a fe c0 bc 6e 12 b3 bc 30 f0 07 3d 85 97 00 bd
       -0.023558754 -0.021859374 0.033188045 -0.0313945
000170 23 b3 2e 3d 4b 7f 2a 3d d1 40 39 3d af f9 c9 bd
       0.042651307 0.041625302 0.04522783 -0.098620765
000180 ed 85 be 3b 21 c0 da bb 25 04 a1 bc 7a ad 73 bb
       0.005814305 -0.0066757356 -0.019655297 -0.0037182258
000190 a2 a1 9d 3d d4 ad 04 3b 20 8d a7 3d a4 ad a8 3d
       0.07696845 0.0020245211 0.08181214 0.08236244
0001a0 d0 f9 d0 3b f2 c5 a5 3c 8a c4 ac 3d e6 5a 64 bd
       0.006377436 0.02023599 0.08435924 -0.05575075
0001b0 4d 05 27 bd c6 3d 4c 3c c1 bc 84 bd e9 96 27 3d
       -0.04077654 0.0124659 -0.064813145 0.040915404
0001c0 3b 66 cd 3d 5d e1 ea 3a e0 22 a8 3d 3a 10 b5 bc
       0.100292645 0.0017919947 0.08209777 -0.022102464
0001d0 ee 5f 49 bc 96 12 a2 3b 86 02 22 3d 99 84 c3 3d
       -0.012290938 0.0049460633 0.039553188 0.09546775
0001e0 9c 0e d9 bc 76 0e 43 bd 91 fa 56 3d f0 96 7a 39
       -0.026496224 -0.047621213 0.052485052 0.00023898087
0001f0 df 6d 04 3d 9d 4c ba 3d d7 ae c2 3c a8 88 ae 3c
       0.032331344 0.09096644 0.02376501 0.021305397
000200 ec 98 80 bd be 32 45 3d d8 00 43 bc 19 6d 80 3c
       -0.062791675 0.048144095 -0.011902057 0.015677022
000210 f9 42 71 bc 2a 6b 26 3d 67 27 d8 3c c4 65 2e 3c
       -0.01472544 0.040629543 0.026385976 0.01064438
000220 4a 00 77 3d 09 70 81 bd e5 66 14 3c 67 6d f1 3c
       0.06030301 -0.06320197 0.009057735 0.029471112
000230 9f 22 de 3c 6d 5f c9 3c 50 da 37 3d d1 1b ba bd
       0.027116118 0.024581635 0.044885933 -0.09087337
000240 96 c0 a9 3d 33 a1 2b bc d2 d2 c3 3b a2 b1 ae bd
       0.08288686 -0.010475445 0.0059760595 -0.085299745
000250 ec 4e 8a 3b 8d d5 56 ba 51 40 46 3d f9 d7 a5 3d
       0.004220834 -0.00081952737 0.04840118 0.08097834
000260 f0 17 46 3d 30 92 48 3c a1 d9 6c 3d 86 69 be 3d
       0.048362672 0.012241885 0.057824735 0.09297471
000270 31 08 d1 3c 93 ba 64 3d 1d d5 8b 3d 18 33 82 3d
       0.025516601 0.055841994 0.068277575 0.063574016
000280 54 6c 41 3d b8 3b f7 bb e0 81 59 bc 8c f0 35 3d
       0.04722245 -0.007544961 -0.0132755935 0.044418857
000290 8b d6 30 bc c1 0e cb bc 42 92 05 bd 47 5a 91 3d
       -0.0107933385 -0.024787309 -0.032610185 0.07097297
0002a0 ca a1 c9 bb 28 10 61 3d cf 7d 9a 3c 78 23 e2 3c
       -0.00615332 0.05494705 0.018858818 0.027604803
0002b0 72 fa e5 3b a7 62 5b 3d 68 c7 99 3c 5a ab d1 3c
       0.007018381 0.05356088 0.018771842 0.025594402
0002c0 f6 3e f9 3c 62 b0 23 3d 4d 49 c1 bc 7a 89 b4 bc
       0.03042553 0.039963134 -0.023594523 -0.02203821
0002d0 54 08 8d 3d 52 15 b7 3d 5d 58 8f bb a0 9e 08 3d
       0.06886354 0.089396134 -0.0043745474 0.0333544
0002e0 c3 cc 36 3d 27 b0 cb bc 9f e8 aa 3d 18 0d 55 3d
       0.04462887 -0.02486427 0.0834515 0.05201444
0002f0 94 d1 2e bd 00 b6 d7 3d 71 15 f5 bc f9 df 5c bc
       -0.042680338 0.105327606 -0.02991745 -0.013481134
000300 1e b8 f1 3d 9d d2 cd bb f7 d2 8b 3c 50 18 23 3c
       0.11802696 -0.0062812106 0.01706837 0.009954527
000310 b5 86 f9 3c 65 e8 f8 b9 90 fc a1 bc 63 b2 c2 bc
       0.030459741 -0.00047475394 -0.019773751 -0.023766702
000320 64 c0 8e bc 14 12 a6 3c 8f 15 15 bb 30 07 ab bc
       -0.017425723 0.020272292 -0.0022748446 -0.02087745
000330 bf 28 09 3c 2b 68 33 bd 6b 64 c3 3d 2d b8 50 3d
       0.008371531 -0.043800514 0.095406376 0.050956894
000340 1a 63 a9 bb c6 25 04 bd 9d 3d 6b 3d c1 cc e7 3c
       -0.0051692845 -0.032262586 0.057431806 0.028295876
000350 65 a8 14 3c 97 8e 76 3c 35 40 73 bd 00 cb f5 3c
       0.0090733515 0.0150486445 -0.059387404 0.030004025
000360 72 32 4c 3a 07 3e a5 bc 61 d4 9e 3d 27 ab ed bc
       0.00077894994 -0.020171179 0.07755352 -0.029012276
000370 03 61 1e bd b0 f7 a1 bd d2 3c bf 3d 84 f8 be 3c
       -0.038666736 -0.07908571 0.093377724 0.02331186
000380 a7 6a 91 3b 4d b0 fe bb 83 76 b1 bd 64 34 df bc
       0.004437763 -0.0077724815 -0.086651824 -0.027246661
000390 44 a9 27 3c c0 94 fa 3c fd 7e ba 3d fe 8f 30 3d
       0.010233227 0.030588508 0.09106252 0.04310607
0003a0 5e 3d f4 bb e3 4e 9d bc e1 60 9f bd a0 46 3f 3c
       -0.0074536046 -0.019202655 -0.0778215 0.011674553
0003b0 ee 80 5b 3c 7d 5c 46 bd cc 92 6e bc a0 8f b2 3c
       0.013397438 -0.048428047 -0.014561366 0.021797001
0003c0 34 0a b2 3d 76 52 9d bc 55 c0 81 3c ca 45 03 bd
       0.08693352 -0.01920436 0.015838781 -0.032048978
0003d0 73 50 5c bc 02 60 90 3d 56 83 67 bc bd 34 d7 bd
       -0.013446915 0.07049562 -0.014130434 -0.10508106
0003e0 dc 7f 8b bc 6d 9b 38 3d b9 1b a2 3d 96 d3 49 bd
       -0.017028742 0.0450701 0.07915444 -0.04927405
0003f0 18 1c ad 3d 6c 52 b7 3d f4 93 70 b9 92 ef 54 3d
       0.08452624 0.089512676 -0.000229433 0.051986285

net.2.bias f4 [256]
000000 22 2c fa 3d ef 32 ee bb 8d 87 06 bd 0f 9a 65 bd
       0.12215449 -0.0072692554 -0.032844115 -0.056055125
000010 0e f1 2e 3c ee 5d 09 bd 4f 32 7a bd 4d b7 0e bc
       0.010677589 -0.033536844 -0.061083134 -0.0087106945
000020 75 a4 a0 bc 45 81 d8 3c 05 7a 0d 3c 97 57 47 3d
       -0.01960967 0.026428828 0.008635049 0.048667517
000030 ec 8b 3a bc 0f 74 90 3c 9c 5f b6 3c 40 e2 aa bb
       -0.011385899 0.017633466 0.022262387 -0.0052149594
000040 e4 3c c7 3c 9b de 2c 3d 24 0e 43 3d 87 9e 49 3d
       0.024321027 0.04220448 0.047620907 0.04922345
000050 f6 d5 2a 3d a5 49 be 3c c8 da 40 3d 30 5c df 38
       0.041707955 0.023228476 0.047083646 0.0001065064
000060 a9 0d 40 3c 88 3e 85 3c 77 57 a7 bb 51 93 a1 3d
       0.011722007 0.016265169 -0.005106862 0.078894265
000070 1b 76 f3 3c a8 3b 19 bd be c9 07 3d 52 9a 85 3d
       0.029719403 -0.03741041 0.03315138 0.06523575
000080 2c 85 72 3d 2a b0 81 3c a1 93 e7 3c d8 29 d9 3d
       0.059209034 0.015831072 0.028268637 0.10603684
000090 20 0a 1a 3d 68 da 4c bd 84 f6 93 3d 59 3a 5a bd
       0.037607312 -0.050012976 0.072247535 -0.0532783
0000a0 6b 0f 52 3d fe 5d 7a bc d6 83 25 3d b1 26 84 bb
       0.051284235 -0.015281199 0.04040893 -0.0040329327
0000b0 cd e0 8a 3d a0 b1 88 bc 60 3d a6 bd 58 93 30 bd
       0.067811586 -0.01668626 -0.08117175 -0.043109268
0000c0 53 5d 8a bd a1 44 3a bd 65 49 b6 bc 96 79 ab 3a
       -0.067560814 -0.045475606 -0.022251794 0.00130825
0000d0 1c 76 06 3c 2c f2 76 3d ac de 92 bc b2 99 5d bd
       0.00820687 0.060289547 -0.017928444 -0.054101653
0000e0 89 64 0e 3d c3 6a 9e 3d a2 f0 ba 3d 20 80 57 3d
       0.034763847 0.07735207 0.09127928 0.052612424
0000f0 b0 74 44 bd 65 98 85 3d f7 b1 b9 bc e0 d3 e1 bc
       -0.047962844 0.065232076 -0.022667868 -0.02756685
000100 bd 21 43 3d 97 fc 43 3d 3b 82 99 bd 5a b2 b8 3c
       0.047639597 0.04784831 -0.074955426 0.022545982
000110 59 23 83 bd 64 29 e1 bc 4c 72 18 3d 4b b3 9f 3d
       -0.064032264 -0.027485557 0.037218377 0.07797869
000120 0c 0b 7e 3c f2 eb 8d 3c 61 e9 bb 3d dc 65 41 3d
       0.0155055635 0.017324422 0.09175373 0.04721628
000130 0d bc 06 3d 85 58 58 3d 29 89 86 3d cf 8f 15 bd
       0.032894183 0.052818794 0.0656913 -0.0365141
000140 e7 8c 8c 3d 0e c8 11 3d 8e af 9b bd 3c 66 70 bc
       0.068628125 0.035591178 -0.07601844 -0.014672812
000150 9a 9c 91 3c 1c 5b b3 3c aa 17 6e bd 4a 7f d5 3d
       0.017774869 0.02189403 -0.058128037 0.10424669
000160 f0 a7 25 bd 83 08 12 3d be 29 5b bd 8b d6 3b bc
       -0.04044336 0.03565265 -0.053506605 -0.011464725
000170 9a 13 2a bc a3 03 b9 3d 0c ba f7 bc 9c 14 5c 3d
       -0.01038065 0.09033897 -0.030240081 0.053730592
000180 7b 98 86 bc 0f ce 1b bd a3 4f 83 bd 67 7a 4b bd
       -0.01643013 -0.03803831 -0.06411674 -0.04967728
000190 0f 04 70 3c e4 36 03 bd 4e 4b 62 3c 59 3a 3c 3d
       0.014649405 -0.03203477 0.013811899 0.045954082
0001a0 83 30 11 bd 40 b2 50 bc 3a 69 2e bd 3f b1 76 bd
       -0.035446655 -0.012737811 -0.04258082 -0.06022763
0001b0 b7 9e 2b 3c 79 50 b6 bd ab 2b 8c 3d 90 4f 67 3d
       0.010474852 -0.08902068 0.068442665 0.05647236
0001c0 80 5a b0 3c 7b 6e ee 3c f7 d8 97 3d 96 f0 a6 bd
       0.021527529 0.029105416 0.0741443 -0.08151357
0001d0 11 51 0e bd 76 e1 96 3d 91 26 8d 3c 79 2c 90 bd
       -0.03474528 0.07367222 0.017230304 -0.070397325
0001e0 b5 a7 a1 3d c7 12 28 3d 68 24 56 bc 76 4b de bc
       0.07893316 0.041033532 -0.013070203 -0.027135592
0001f0 1e 84 f8 bb c8 0a 10 3d b4 ef 1c 3d 32 a5 3b bd
       -0.007584109 0.03516653 0.038314536 -0.04581184
000200 af fe a0 bc c1 00 3c bd 7b 02 8b 3c b5 3a 17 bd
       -0.019652693 -0.045899156 0.016968956 -0.03692122
000210 2b 3d 2d bd 91 93 d4 bc 00 80 0c 3c 41 d9 f2 3c
       -0.042294662 -0.025949271 0.008575439 0.02964461
000220 43 47 01 bd 9f 78 5d bc 7d db 52 bd ee 43 dc 3c
       -0.0315621 -0.013517528 -0.05147885 0.02688786
000230 c4 b3 9e bd 38 24 4e bd b7 0e af bd 7f a5 4a 3d
       -0.07749131 -0.05032751 -0.085477285 0.049474236
000240 54 05 57 bc eb bc 64 3d f1 f1 81 3d 24 06 2d bc
       -0.013123829 0.05584423 0.06344975 -0.010560546
000250 68 ef 0b 3b c8 f7 1e 3c 49 48 ee 3b b0 85 85 3d
       0.0021352414 0.00970263 0.0072718007 0.065196395
000260 f9 22 7f bd a9 63 24 bd e8 96 f1 3c 1c 0a 13 39
       -0.062289212 -0.040134106 0.029490903 0.00014022778
000270 e6 46 97 bc 9b 4d 96 3c 7a 4c 22 bd d9 68 bb 3b
       -0.018466424 0.018347552 -0.039623715 0.005719286
000280 f7 e7 d2 3b c6 02 6d bc 66 00 35 bd 31 4f a0 3c
       0.006436344 -0.014465993 -0.044189833 0.019569011
000290 85 ea 3f 3d 16 a4 99 3d 2f 7e e6 3c 76 e9 41 3b
       0.046854515 0.07502 0.02813634 0.0029588616
0002a0 90 08 37 3d 4b a7 74 3d 40 be 95 3d 34 89 4f 3c
       0.0446859 0.059729856 0.07311678 0.012666989
0002b0 85 d9 8f bc 75 b4 3b 3d 1e 6d 0a 3d 0c e3 2d 3d
       -0.017559776 0.045826394 0.03379547 0.042452857
0002c0 5d cf b3 3d a1 28 2b 3c 07 62 69 bd 7f db 06 bc
       0.08779786 0.010446698 -0.05697825 -0.008231043
0002d0 49 0a 99 3c 52 fd 1f 3d 4f 85 59 3c 9c 51 6c bd
       0.018681662 0.039059944 0.013276412 -0.057695016
0002e0 bf 85 29 bc 0d 45 ad bd f4 98 2a 3d 6d 39 92 bd
       -0.010346829 -0.08460436 0.041649774 -0.07139859
0002f0 40 bd 66 3d e0 d6 dc ba 75 eb 91 bd 34 70 42 3c
       0.056332827 -0.0016848706 -0.07124988 0.011867572
000300 35 83 0e bd 51 dc 4c bb 5e 38 3e bd 19 c4 ad 3c
       -0.034793098 -0.0031259248 -0.046440475 0.02121167
000310 54 aa 39 bd 0d 55 45 bd 44 c4 9c bb 82 03 e1 bc
       -0.045328453 -0.048176814 -0.004784139 -0.027467493
000320 af 41 f3 3c b4 16 5f 3c 75 11 78 bd 32 66 e7 bb
       0.029694406 0.013616253 -0.060563523 -0.007061743
000330 4c 5c 94 3d 8a 4f 0d b5 c0 d7 f3 bc a7 11 94 3d
       0.07244167 -5.264234e-07 -0.029765964 0.072299294
000340 13 31 87 3d 6b 46 ae 3c 45 a0 d9 3c 61 8a 18 3c
       0.06601157 0.021273812 0.02656568 0.009310336
000350 4c 98 f4 3c e9 87 2d 3d c2 a5 4a 3d f4 e6 53 bc
       0.029857777 0.042365942 0.049474485 -0.0129334815
000360 81 f1 7b 3d d8 f2 35 3d c3 5a 4d 3d 65 e7 9e 3b
       0.061509613 0.044421047 0.050135385 0.0048493617
000370 dc cf 92 bd 60 15 9c 3d 3b 71 06 bd 7f a4 86 3d
       -0.07168552 0.076212645 -0.03282283 0.06574344
000380 5b 02 4a bc 67 6a 99 3d fb e9 90 bd 39 de e8 3d
       -0.012329663 0.07490998 -0.07075878 0.113705106
000390 28 9c 85 3d 09 5d e1 bc 65 3d 47 bc 49 5d 84 bc
       0.06523925 -0.027510183 -0.012160634 -0.016157763
0003a0 98 16 07 3d f5 07 25 bd 62 d6 cc 3d a5 e0 61 bd
       0.03298053 -0.04029079 0.10001828 -0.05514588
0003b0 05 fb 41 bc 72 ec f2 3c 8e a8 60 bb e8 e5 92 bd
       -0.011839633 0.029653762 -0.0034280154 -0.071727574
0003c0 de 13 d9 bc 85 4c 47 3b 1a 97 bc bc 5b 2d d5 3b
       -0.026498731 0.00304106 -0.02302127 0.006505651
0003d0 7f 5e 4b 3d 91 93 88 3d b9 2b 1e bd c1 7a d3 3d
       0.049650665 0.06668771 -0.038615916 0.10326148
0003e0 13 43 95 bd a2 fd 66 3d 82 3a b0 3c a2 04 a8 3d
       -0.07288184 0.056394227 0.021512274 0.08204009
0003f0 80 b3 20 3c f6 aa fe 3c 3e 8e 23 bd 5d 6c bd 3a
       0.009808421 0.03108738 -0.039930575 0.001445185

net.4.weight f4 [14, 256]
000000 64 16 de 3d d8 25 84 bd 13 82 25 3d 89 e9 23 3d
       0.108441144 -0.064525306 0.04040725 0.04001764
000010 e8 1f fd 3c 70 91 5f bd df ff 03 bc 5d dc 27 3e
       0.030899003 -0.05458206 -0.00805661 0.16392656
000020 16 39 bc 3c e1 0d 1f be b1 95 ca 3d 24 c2 c7 3d
       0.02297644 -0.15532638 0.098918326 0.09753826
000030 3a 17 3f 3d 3e 60 9d 3c 6f 68 fc 3c 08 1e 35 bd
       0.04665301 0.01921093 0.030811517 -0.044218093
000040 01 64 2f 3d 3d db ef 3d a6 4b be bc c5 18 09 3b
       0.04281998 0.11711738 -0.023229431 0.0020919305
000050 87 82 5d 3d be 9c 24 bc 06 15 4a bc 5f be ff bc
       0.05407956 -0.010047136 -0.012334114 -0.031218706
000060 14 df 88 bd 4a 5f 92 3d 2b 66 2e bd 3d 96 13 be
       -0.06683174 0.07147081 -0.042577904 -0.1441278
000070 eb ce 8e bc 57 c3 76 3d e1 d5 6b 3c a6 85 91 3c
       -0.01743265 0.060244884 0.014394254 0.017763924
000080 b4 36 b0 3d 12 b2 fb 3c ec e1 cb 3d bb 24 61 3d
       0.08604184 0.030724559 0.099552006 0.05496667
000090 df 86 12 3d a7 ec 24 bd 29 7c 61 3d 22 f8 47 3d
       0.035773154 -0.04026475 0.05505005 0.048820622
0000a0 4a 49 0e bd 71 1e 26 bc f8 11 d9 3c aa 5c a7 bd
       -0.034737863 -0.010139094 0.026497826 -0.08171971
0000b0 0b 84 b0 3d 4e fe e4 bc 6e 78 ad 3c 02 94 bc 3a
       0.08618935 -0.027953293 0.02117559 0.0014387371
0000c0 f9 97 9d 3c 45 c2 5a 3c 96 33 96 3c 1f df 80 bc
       0.019237505 0.0133519815 0.018335145 -0.015731392
0000d0 b1 a5 26 bd 10 e8 16 bd 96 74 1a 3d 8c 83 c0 bc
       -0.04068536 -0.036842406 0.03770884 -0.023500226
0000e0 2d 05 9e bd d1 03 20 3d af 73 ba 3d e6 74 20 bd
       -0.07715831 0.03906614 0.09104096 -0.039173983
0000f0 78 69 19 3e 1d cb 05 3d cc 2e 71 bd ca 14 33 bd
       0.1498164 0.032664407 -0.05888252 -0.043720998
000100 84 e7 cd 3c 75 36 14 bd 46 23 62 bd 80 71 d8 3d
       0.02513481 -0.036184747 -0.05520942 0.105685234
000110 f2 b2 09 3d 22 f1 89 3d 3d 53 96 3d 99 34 4e bd
       0.03361792 0.067354456 0.07340095 -0.05034313
000120 d4 f3 ac 3d 06 7e 23 bc 54 09 d3 3d 38 08 5b 39
       0.08444944 -0.009978777 0.103045136 0.00020888529
000130 8e 07 29 3b 2c d6 5b bd d5 47 09 3d f1 8c 74 3c
       0.0025791856 -0.053671047 0.03351577 0.014926181
000140 c9 3f 04 3e 45 28 5d bd d8 d0 f5 bc e9 a7 53 bd
       0.12914957 -0.053993482 -0.030006811 -0.051673803
000150 6c e8 91 3d 3d 27 8d 3c 90 64 87 3d c4 cc c2 3d
       0.07124409 0.017230624 0.06610978 0.09511712
000160 ac db 07 3e eb 7e a8 3c b3 65 78 3c 11 8a 34 bd
       0.13267392 0.020568332 0.015160966 -0.044076983
000170 d4 2b ad bb 2e 12 e5 3d 85 c9 58 3d 0e bd b6 3d
       -0.0052847657 0.11185108 0.05292656 0.08922778
000180 20 21 b8 bd c1 4c 55 bd 46 e4 e4 3c eb da 65 bd
       -0.08990693 -0.05207515 0.02794088 -0.05611698
000190 1a 17 65 3d 40 1e 71 3d d4 f9 7d bd e1 12 c6 3d
       0.055930234 0.05886674 -0.062005833 0.096715696
0001a0 bb d2 72 3d 7d e8 d0 3c fe fb 9b 3d 29 06 cc 3c
       0.059283 0.025501484 0.07616423 0.024905281
0001b0 e6 fb 3a 3d 46 ed b4 3d 76 a7 85 3d 6b 8a e6 ba
       0.045650385 0.08834319 0.06526081 -0.0017588859
0001c0 d5 0a 16 bd c3 17 2c 3d e0 ea fd 3c 61 a7 95 39
       -0.036631424 0.04201485 0.030995786 0.00028544202
0001d0 e8 67 87 3d e9 85 45 3d 23 65 03 3e 22 e0 13 3d
       0.066116154 0.04822341 0.1283155 0.03610242
0001e0 b6 71 1d 3d 28 b7 d8 bd 7e d9 c4 bb 75 f5 b1 bb
       0.03843852 -0.10581809 -0.0060073724 -0.005430872
0001f0 58 42 08 bd 37 06 68 bd 32 9b cb bc 49 50 c7 bd
       -0.033266395 -0.056646552 -0.024854276 -0.0973211
000200 99 7a ea bc cc 6c 00 3e 15 26 f6 3c 65 a2 62 bc
       -0.028622912 0.12541503 0.030047456 -0.013832663
000210 73 ed 3d bd d8 54 09 bd 7e 9f 54 3d 78 49 fa 3c
       -0.046369027 -0.03352818 0.051909916 0.03055261
000220 41 5c 02 bd a2 4b ac 3d e7 2a 0f 3d 09 b1 c1 bd
       -0.03182626 0.08412863 0.034953024 -0.09457595
000230 f7 dc 53 bd d3 81 dc bc 27 5d a1 3c 77 e2 aa 3d
       -0.0517244 -0.026917374 0.019697739 0.08343976
000240 0d b5 f5 3d cf b6 44 bc be ed 7b 3c 16 77 37 bd
       0.11997423 -0.012006476 0.015376506 -0.044791304
000250 1e ab f4 3c 0c 93 3b 3d 1b bb be 3b ad 20 4f bd
       0.029866751 0.04579453 0.0058206446 -0.05056827
000260 72 b2 81 bc e0 93 4c 3d af cf 0b bd 8c 49 aa 3d
       -0.01583216 0.049945712 -0.03413361 0.08314809
000270 4a 9b fd 3d 78 1e 6f 3d 0c bb 0b 3d 27 6c bc 3b
       0.12383135 0.058378667 0.03411393 0.0057501975
000280 f4 fe ce bd 01 f8 d5 3d 0e cf d4 3d 78 8e 7d 3d
       -0.10107222 0.104476936 0.10391055 0.061903447
000290 a7 11 d1 3c 94 ee b2 3d 25 4a 7c bd 7b 67 68 bd
       0.025521113 0.087369114 -0.061594147 -0.05673931
0002a0 6a 0f 71 3d a3 f7 14 ba 32 fd 8e 3d 38 c2 ca bb
       0.05885259 -0.00056826527 0.06981887 -0.0061877035
0002b0 98 0d 1d 3d 26 97 0f be fd e1 66 bc 58 63 fd 3b
       0.038343042 -0.14022502 -0.014091966 0.00773279
0002c0 ef 3e c6 3d 12 2b 77 3d ef 07 97 bd 77 be 49 3c
       0.096799724 0.06034381 -0.0737456 0.012313477
0002d0 4e 7a e7 bc 70 ab 1e 3d 09 09 48 bc 67 59 55 3b
       -0.028256562 0.038737714 -0.012209185 0.0032554509
0002e0 02 17 fe 3b 86 b3 9a 3b ae e5 ae 3c bd 6f 5c bc
       0.0077542076 0.004721108 0.021349754 -0.013454375
0002f0 67 36 50 bd 1a f6 18 bd 49 50 f8 bc 9d 08 07 bd
       -0.050833132 -0.037344076 -0.03031172 -0.0329672
000300 da ef 93 3c f1 a0 a6 bd 3f c9 36 bd 0f 92 07 bd
       0.018058706 -0.08136166 -0.044625517 -0.033098277
000310 5d ae 02 bd 40 1b ff 3d 79 2f cd 3d 68 2e cd bc
       -0.031904567 0.124563694 0.1001882 -0.025046542
000320 4a ae 41 3b 0d bd 6a bd 39 64 b4 bd f4 7c b2 bc
       0.0029553347 -0.0573092 -0.088081785 -0.021788098
000330 56 39 fd bc f9 8b 57 bd 97 dd d4 bc f3 d2 99 bc
       -0.030911129 -0.052623723 -0.025984569 -0.018777346
000340 52 b1 c1 bc 99 8e 25 bc b7 b7 ef bc b9 9b a0 bb
       -0.023644123 -0.010104799 -0.029262407 -0.004901376
000350 e8 65 9c 3d 5e 36 8d bb e9 24 a5 3c 65 40 ba 3c
       0.076366246 -0.0043094596 0.020159202 0.022735784
000360 20 bb f3 3d a4 36 c7 3c 77 41 31 bd 72 14 c9 bc
       0.11900926 0.024318047 -0.043275323 -0.024545882
000370 13 b6 cb 3d 1c b3 15 3e f9 76 31 bd 1f ab a7 3b
       0.09946837 0.14619106 -0.04332635 0.005116835
000380 bb 8d 89 3d 0c 26 27 3e 69 87 43 bc 60 de 81 bd
       0.06716486 0.16323107 -0.01193414 -0.06341243
000390 a0 1b 08 3e 04 d5 90 bd bb bc a0 ba 16 80 08 3e
       0.13291788 -0.070718795 -0.0012263277 0.13330111
0003a0 c4 42 6d bc 32 03 0e 3d 0a 81 af 3d 40 26 e0 3c
       -0.01448125 0.034671016 0.08569534 0.027361989
0003b0 a0 5c ee bc 61 ca 69 3d fb 69 f9 3b 23 69 dd 3b
       -0.029096901 0.05707777 0.007611511 0.006756918
0003c0 95 fe c7 3c 94 47 62 bd fe 38 02 3e 3e a1 bb bc
       0.024413386 -0.055244043 0.12717053 -0.022904035
0003d0 59 04 0f 3e 00 8a 1e bc 8d 1c bf 3d 27 32 de 3c
       0.13966502 -0.009676456 0.093316175 0.027123524
0003e0 85 a0 0f bb 5b 01 8e bc c2 50 1c bc 54 0f 82 3d
       -0.0021915745 -0.01733463 -0.009540739 0.0635058
0003f0 75 c8 1c bd 7e ea 39 3d ca 4f 19 3e aa 58 7a bd
       -0.03827711 0.045389645 0.14971843 -0.061119713

net.4.bias f4 [14]
000000 ff 23 03 3d f0 8b 25 bd c2 1c d7 3b ec 39 dc bd
       0.03201675 -0.040416658 0.0065647075 -0.10753235
000010 4b 9b 26 bc 57 9d 0c 3d dd 76 bd bc 66 d5 c0 3c
       -0.010168861 0.03432974 -0.023127967 0.023539256
000020 41 5e 4a 3d 8a 4e 05 3d 1e 95 fa 3c c8 c4 f7 3c
       0.049406294 0.032545604 0.030588683 0.0302452
000030 36 6d 26 bd c8 99 b6 bd
       -0.040631495 -0.0891605
