checkpoint/final/agent_0/value.pth (torch, 318205 bytes, 5 tensors)

net.0.weight f4 [256, 49]
00000000: 02ae 213c f6b3 bfbd 44d4 eeba 9a9d e03d
00000010: 84c3 b53b 26fa 9e3d 842a 18be 77b1 f6bc
00000020: a556 4c3e 71ff 55be f2ab 40bd 27ea 413b
00000030: fbba 663e 585a 3dbe 28d6 fcbd e95e dcbd
00000040: e57e 253e ece5 2c3c abdb f6bd 987b aa3d
00000050: 6d01 143e bb71 57be 945a b9bd 6605 d1bd
00000060: d335 01bd bc5c cdbe e977 2abc 7c86 5ebe
00000070: 3ed7 03be d2dd 9cbe 2005 41be ea1a 2dbe
00000080: 3ba9 3bbd 3e6a 78be 5164 4cbe 3356 1ebd
00000090: d413 7f3d 06a1 85bd 11da b3bd ba83 1a3d
000000a0: eae0 6f3d 2210 6dbb 8d30 d03c 43bf c1bd
000000b0: a872 e43c 6eb0 26be b6fd 7ebe 04ff e13a
000000c0: d14b 2e3d bd87 363e d6a4 343c 0681 7fbd
000000d0: 8705 6c3d 2156 da3d 3090 473d 9443 b2bb
000000e0: 5bba f8bd f701 323e fb3d 053c 6a6e 883c
000000f0: 0e32 bc3c 8065 e5bc f78c 24be 44bf 77b6
00000100: ddce a83b 226e cc3d a941 d1bd ce26 733d
00000110: f767 133c cd6d c43d e819 54be 1210 413d
00000120: 79e5 d13d dca1 01be 6733 5d3d 0f11 5dbc
00000130: 1996 ed3b 3799 83bd 0929 7fbd 96e3 003e
00000140: 5a11 84bd 780b b0bd 4778 1a3c 943b 7d3d
00000150: b4c8 6cbd ccd6 70bd f1dc bb3d 5074 dd3d
00000160: a261 983d 79aa 93bd f645 e2bd 14c3 583d
00000170: 387d 873c 3930 a2bd 646c 133d d2c9 0d3d
00000180: 781e 1fbe 6b5b b3bd aae4 183d 9cb5 b1ba
00000190: e9f8 dc3c bf35 d23d 4a24 d73c 8ff7 7bbd
000001a0: 4fef 84bd dff3 d9bd c0ac 0a3e 201f abbd
000001b0: 6cfb 403d 0c3e b53d 851b ec3c 528c 2fbd
000001c0: a095 feba 6003 0bbe 7600 233e 6bc0 01be
000001d0: 3af7 06bd 7189 833c 3264 463c b5aa 36be
000001e0: d1ca e83c 9702 45bb 28dd 78bd f374 d0bb
000001f0: e9a6 833d 8f69 4abd 5e27 0dbd 79b9 ef3c
00000200: 0221 c4bc 198e 4b3d d735 ecbd 131c b2bd
00000210: b826 f83d 5982 9bbd ab25 003e cf52 e1bd
00000220: 3ba9 223e b5b0 c7bd 1d46 91bd fe0d 963d
00000230: a812 c53d 153a c6bc 8db5 013e 7f83 12bd
00000240: 4150 14be bf4d 1bbe feb4 48bd 4ff1 643e
00000250: 9157 593d 5942 32bd ce99 40bc 4a89 a1bd
00000260: e730 113e b206 753d 7a78 633d cff6 27be
00000270: 3dd3 683e f1d0 a63c d93e 30be 5f25 17be
00000280: 301e 223d 4d81 4e3e d2b7 89be 0b41 a73b
00000290: b1da 1abe b68e d6bc 4286 aabc c146 34bd
000002a0: 1197 133b 2472 1d3e d143 843d c27d babd
000002b0: 6a7b 8e3d df0d cdbc 2078 433b af00 733c
000002c0: e0ce a13c 3b21 473d a8df e2bc 9fca ee3b
000002d0: f249 5bba 3ab8 35bd ed1d c9bb 9d57 ea3d
000002e0: 9d80 af3d a0a9 0fbe c9f3 c53d 802f e8bc
000002f0: b3b5 67bd d4d1 1abd 645e c1bd a82e 61bd
00000300: d31a 6fbd 144e ae3d 0f24 723d 319e f43b
00000310: 8dee 393e ca49 bdbd f854 5f3e 1f1c 093e
00000320: 08b1 0a3e 1378 a93c aebb cbbc 69f6 0b3d
00000330: 9ca6 6e3e 2588 2f3d 0169 9dbc db90 3a3e
00000340: e557 4e3e 0191 693d 308e c53d 6f63 ef3d
00000350: ad6e c63d 8b8f 31be a3fc fb3d 0372 aa3d
00000360: c764 f23d 3e16 a4bb 526f 343d 3176 0abd
00000370: e0a4 45bc bc65 16be 09b3 f23d b6ac babd
00000380: 6619 9cbc 57ed 1a3d 39e6 07be a4c8 c1bd
00000390: cb4d 053e 95b1 72bd 9f64 e5bb edb6 8d3d
000003a0: f8bf 30bd c70e 9c3d 2d0e 0abc 3367 14be
000003b0: 5bd8 253c 787f bbbd 58e2 31bd b259 05bc
000003c0: cea1 2dbd d2c6 5f3c 7c94 9ebc b59d 18be
000003d0: c66c 60bd f0a4 9b3d eb4b b33d 69f8 49bd
000003e0: eb03 c13d 2c0c 1f3c bff2 34bd e078 23be
000003f0: 3198 0c3c 0bdd 583e 2975 8dbe 9cc0 853c
0.009868147 -0.09360497 -0.0018221219 0.1096756 0.005546989 0.07762556 -0.14859968 -0.030113919
0.19954927 -0.20898224 -0.04703898 0.0029589029 0.22532265 -0.18491495 -0.123455346 -0.1076029
0.16161688 0.0105528645 -0.12053617 0.08324355 0.14453669 -0.21039478 -0.090504795 -0.10206108
-0.03154547 -0.40109813 -0.010404565 -0.21730989 -0.12875077 -0.30637985 -0.18849611 -0.16904798
-0.045815688 -0.24259278 -0.19960143 -0.038656425 0.06227477 -0.065248534 -0.08781827 0.03772328
0.058564104 -0.0036172946 0.025413776 -0.094603084 0.027886704 -0.1627824 -0.2490147 0.0017242138
0.042552773 0.17825218 0.011025628 -0.062378906 0.05762246 0.10660959 0.048721492 -0.005440185
-0.121449195 0.17383562 0.008132453 0.016654212 0.022973087 -0.0280025 -0.16069399 -3.69172e-06
0.005151613 0.09981944 -0.10217602 0.05936318 0.008996955 0.09591255 -0.20713007 0.047134466
0.102488466 -0.126594 0.0540041 -0.013492837 0.007250559 -0.06425708 -0.062294994 0.12586817
-0.06448622 -0.085959375 0.00942809 0.061824396 -0.057808593 -0.058798596 0.091730006 0.108132005
0.07440497 -0.072102495 -0.110485 0.052920416 0.016539201 -0.07919354 0.03599204 0.0346163
-0.15538967 -0.08757671 0.037327446 -0.0013558152 0.026974158 0.102641575 0.026262421 -0.061515387
-0.06490957 -0.10642218 0.13542461 -0.08355546 0.047114775 0.08849725 0.028821716 -0.04285843
-0.0019423254 -0.13575506 0.15918145 -0.12671058 -0.032950617 0.016056748 0.012108849 -0.17838557
0.028417023 -0.0030061358 -0.060757786 -0.0063615977 0.0642832 -0.049417075 -0.03446137 0.029263245
-0.02394152 0.04969606 -0.11533707 -0.08696761 0.1211676 -0.07593221 0.12514369 -0.110021226
0.15884869 -0.09750501 -0.07093451 0.073268875 0.09622699 -0.024197618 0.12666912 -0.035769936
-0.1448374 -0.15166377 -0.049000733 0.22357677 0.053062025 -0.043520305 -0.01175542 -0.07887514
0.14178811 0.05982084 0.055534817 -0.16402744 0.22736831 0.020363303 -0.17211474 -0.1476035
0.03957957 0.20166512 -0.26898056 0.0051041893 -0.15122487 -0.026191097 -0.020815972 -0.04401279
0.0022520463 0.15375572 0.064582475 -0.09106018 0.06957133 -0.025031028 0.0029826239 0.014831706
0.019751966 0.048615675 -0.027694538 0.007287338 -0.0008365206 -0.044365145 -0.0061376006 0.11442492
0.08569453 -0.1402955 0.09665639 -0.028342962 -0.056569766 -0.037797764 -0.09441832 -0.054976135
-0.05837519 0.08510986 0.05911642 0.007465147 0.18157406 -0.0924259 0.21809757 0.13389634
0.13544095 0.020687139 -0.024869766 0.034170542 0.23305744 0.042854447 -0.019215109 0.1821932
0.20150717 0.057023052 0.09646261 0.11688887 0.096890785 -0.17339914 0.12304046 0.08322527
0.11835628 -0.0050075343 0.044051476 -0.033804122 -0.012063235 -0.14687246 0.118505545 -0.09114973
-0.01905508 0.037824 -0.13271417 -0.09462097 0.13017957 -0.059251387 -0.0070005204 0.06919656
-0.043151826 0.07620006 -0.008426231 -0.14492492 0.010122384 -0.09155172 -0.04342875 -0.008139061
-0.042390637 0.013658242 -0.019357912 -0.1490391 -0.054791234 0.07599819 0.087547146 -0.049309168
0.094245754 0.009707492 -0.044176813 -0.15964079 0.008581207 0.21178071 -0.2762845 0.016327195

net.0.bias f4 [256]
00000000: 1b2c 3cbc f29f a13e eb15 743e 1457 413e
00000010: 7639 293e 889c 06be 0aef 973e ec27 153d
00000020: 87c2 a6bd 244f ad3e 0e14 83bd 1d5c cf3e
00000030: 7a20 8f3d 07ba de3e b444 963c edc3 ae3d
00000040: 0e5d 993e 28b9 063e 78d8 283d 4df4 9c3e
00000050: 80ab 36bd e0f0 7c3e 7764 7d3d 8407 a4bd
00000060: 912b c13d da17 d33a c7f3 293d 7534 1a3e
00000070: 8bff 573b 1f57 d93e 3d77 ccbd 4a2f e3bc
00000080: 5f6e 5b3e 4d67 da3d 4cdc aebd 20b4 3ebd
00000090: c083 b7bd 450b a03e 696c 6b3e a782 bdbd
000000a0: 560a aaba 8ca6 dd3d 5d7a d23d 82d7 883e
000000b0: 3e04 9e3e 7a12 463e 1b19 9e3e 9e8c a83e
000000c0: 0175 bebd 0d4f 9fbd a5e5 863e b005 373c
000000d0: 80b6 56bd 9436 523e 6596 c63d 808c f9bd
000000e0: 77ab ad3e b67c 813e 7e11 243e e667 3ebc
000000f0: f2cc 413e 2cc1 15bd 1a90 a0bd 85b5 afbd
00000100: 97c9 f23e 732e e23c 6b83 93bd df30 493e
00000110: 4f0d a33e 4c0c 75bc aa04 efbd 4f95 3f3d
00000120: d604 1e3d 9626 253e 3b06 d93d 75bd bf3e
00000130: 5d0b 843e 5612 69bd f43b 873e cc0b 0f3e
00000140: 49b6 383c 229a af3e 702c 8f3e 8054 873e
00000150: e9ab 253e cf24 29bc f634 4fbd 8baf 843e
00000160: d5a8 e9bd 2f37 9c3e 596b f0bd cd04 863e
00000170: 2a2d ecbd 2f4d a83e d384 703d 09e1 3dbc
00000180: e2b1 55bd de40 f0bd 5926 7d3e 4d1f 0dbe
00000190: 746c 303d 0f95 863e dcba 4d3d 3ace ea3d
000001a0: 309d cc3e ca99 133e c1e1 cf3e 61f6 dbbd
000001b0: b7ee f4bd 05a4 ac3e 58ae 993e 0552 8bbd
000001c0: 8d8b ca3e a58b d83d 9c53 2ebb 1ae8 f1ba
000001d0: 56d8 4a3e 4c40 9ebd 9ff1 19be 7cbc 9d3e
000001e0: 85fd bbbd 961d 183e d03d 06bd 07bb 8b3e
000001f0: fd37 0bbe 69af 073e 5802 9f3e 2cef 133e
00000200: cf7e 463e 575f 6ebc 4486 403d 2a6a 1c3d
00000210: 7eb0 693e 3a4b c33d a6e0 9dbd 522c ab3e
00000220: c118 523d 100f 95bd 4696 823d 063f 603e
00000230: fe79 7a3e 0e9f 1bbe ce77 43bd 98c0 853d
00000240: 38da e5bc 3731 513e da03 163e 68b6 843d
00000250: 9de4 a43e 99c3 a53c e089 a73e d3fd cf3d
00000260: 5534 713d 8436 53bd e51b 6cbc d720 853e
00000270: 7e75 953d afb5 253e b681 1b3e 0e11 003c
00000280: 069a 9c3e eebe a83e 53f9 b63e b6fe 89bd
00000290: b4cd db3c 4fdf ab3e 396e 823e ed2f 7ebc
000002a0: 8869 9fbd f7e8 2fbd 8783 c4bd a0b7 86bd
000002b0: ab8d 1cbe 0bee 733d 8fd3 c5bd afb6 453e
000002c0: 5b95 8cbd 1589 0d3d 838b be3e 64c7 03be
000002d0: e954 30be d5d2 ecbd 3fc6 b43c d80f 023d
000002e0: 560a b03e f089 993e 8508 ebbd d5de 12bd
000002f0: 7831 e13d 3c97 14bc 4cf3 41be 2695 823e
00000300: ed66 3ebe 0bce 31bd ab8c 75bd f126 ed3d
00000310: d982 b7bd 1f21 3bbe 92b2 843e 72c8 8fbc
00000320: b7b5 ccbd f125 563e 0960 693e d304 91bd
00000330: 53fb 6abc 523b 81bd 6148 ccbd b26a 403c
00000340: 94e0 c93c 5a49 7ebc 4206 aa3e 4350 8dbd
00000350: 2cc9 463e 36b8 e3bd 5d2b 093d 565f f53c
00000360: 2f66 023e 5035 733c 4fab 10bd b22a 8dbc
00000370: 7609 e6bd 2375 44bd 2f68 913d 93d3 713e
00000380: 69f9 22be 1afd 73bc 9ce6 bf3e 472d 4d3e
00000390: 8daa d63e 4978 18bd ff4a 793d 034a 62bd
000003a0: b4dd a9bd 7f41 013d 9e4a 13bd c174 af3c
000003b0: cab7 443e d897 903e 3ba8 173e e0e6 ab3e
000003c0: d804 15bd 22f2 10be 6d8b b23c ffa2 c23d
000003d0: 786b babd d9a6 593d 4671 fabb 91a1 973e
000003e0: 3d04 a43e 6db9 953e 8412 af3e df5e 89bd
000003f0: dfad 1e3d 0b16 563e 7b60 f9bd b326 03bd
-0.011485125 0.3156734 0.23836486 0.18880874 0.16525826 -0.1314565 0.2967456 0.036415026
-0.08142572 0.33849442 -0.064003095 0.40499964 0.06988616 0.43501303 0.018343307 0.085334636
0.29953808 0.13156569 0.041222066 0.30655137 -0.04459715 0.24701262 0.06186339 -0.08009246
0.09432138 0.0016105131 0.04149225 0.15059073 0.0032958712 0.4244928 -0.099836804 -0.02773251
0.21428822 0.10664234 -0.08538112 -0.0465585 -0.08960676 0.31258598 0.22990574 -0.092534356
-0.0012973051 0.10822782 0.10277245 0.2672692 0.30862612 0.19342986 0.3087853 0.32919782
-0.092996605 -0.077787496 0.2634708 0.01117079 -0.05242014 0.20528632 0.09696654 -0.121850014
0.3391988 0.2529046 0.16022298 -0.011621451 0.18925837 -0.036561176 -0.07839985 -0.08579544
0.47419426 0.02761004 -0.072028 0.19647549 0.3184609 -0.014956545 -0.116708115 0.04677325
0.03857883 0.16128 0.105968915 0.37449232 0.2578992 -0.056902252 0.26412928 0.13969344
0.011273929 0.34297282 0.2796359 0.26431656 0.1617886 -0.010323717 -0.050587617 0.2591518
-0.11409155 0.30510852 -0.11739225 0.26175538 -0.11532052 0.32871386 0.05872042 -0.011589297
-0.052171595 -0.117311224 0.2472166 -0.13781472 0.04307218 0.26285598 0.05022703 0.11465116
0.39963675 0.14414135 0.40601924 -0.107403524 -0.11959594 0.33718887 0.30015826 -0.06802753
0.39559594 0.1057351 -0.0026600128 -0.0018456012 0.19809088 -0.077271074 -0.15033577 0.30807865
-0.091792144 0.14855036 -0.032773793 0.27291128 -0.13595577 0.13250507 0.31056476 0.14446706
0.19384311 -0.014549098 0.047003046 0.038187183 0.22821233 0.09535833 -0.07708864 0.3343225
0.05129314 -0.072782636 0.06376319 0.21899042 0.24460599 -0.15197393 -0.047721677 0.06530875
-0.028058156 0.2042893 0.14649907 0.06480104 0.32205668 0.02023487 0.32722378 0.10155835
0.0588878 -0.051565662 -0.014410947 0.26001617 0.072978005 0.16182588 0.151862 0.007816566
0.3058626 0.32958168 0.35737094 -0.067380354 0.026831485 0.33568808 0.25474718 -0.015514356
-0.077838 -0.042946782 -0.09595399 -0.065779924 -0.15288417 0.059553187 -0.09659492 0.1930797
-0.06864425 0.03455456 0.37215814 -0.1286903 -0.1721989 -0.115636505 0.022067187 0.03175339
0.34382886 0.2998805 -0.11476234 -0.03585704 0.109957635 -0.00906926 -0.18940467 0.25504416
-0.1859395 -0.04340939 -0.059948605 0.11579693 -0.08960504 -0.18274353 0.25917488 -0.017551634
-0.09995597 0.20912911 0.22790541 -0.07080998 -0.014342147 -0.063101426 -0.09974743 0.011744188
0.02464322 -0.015520418 0.332079 -0.06900074 0.19412678 -0.1111912 0.03348862 0.029952686
0.12734292 0.014844254 -0.035319623 -0.017232273 -0.11232273 -0.047963273 0.070999496 0.23615865
-0.15915455 -0.014891887 0.37480628 0.20036803 0.41926995 -0.037224088 0.060862537 -0.055246364
-0.0829424 0.031556603 -0.035959832 0.021417977 0.19210735 0.28240848 0.14810269 0.3357458
-0.036381572 -0.14154866 0.021794999 0.09503745 -0.09102529 0.053137634 -0.007642898 0.29615453
0.32034484 0.2924303 0.34193814 -0.06707548 0.038740035 0.20906846 -0.12176605 -0.03201933

net.2.weight f4 [256, 256]
00000000: 06f2 063d d855 e33d f608 e2bc 2135 66bc
00000010: 7c31 7cbd 66e4 613d ab20 2f3c 8318 0c3d
00000020: 99cb 823d f89b 3ebc 1740 7abd 36c6 ccbc
00000030: 7b8c 393d 329a e3bc 673e c0bc e2b6 ce3c
00000040: 96ae 863c 961e 45bc abfb 15be fd27 25be
00000050: 4f3c 8cbd 760d 863b 7c9c dfbd 3ee3 0e3d
00000060: be9f 7cbd ff12 4b3c 7c53 433b 3ec9 be3b
00000070: 789e 7bbb fb71 a5bc 6376 443d 55f7 a53c
00000080: fa3d 013d 260f a0bd 29b2 e43b 386a bb3d
00000090: 1e94 03bd fff8 67bb 2e56 3fbc 9cd0 d6bd
000000a0: 4ca5 4c3b 3c5b a23d ae73 583d 5581 ba3d
000000b0: d9e5 5ebc c642 a1bd 80a0 d4bd 4784 993d
000000c0: b2b1 783d 56f6 8cbd 5081 4c3d 5dc4 943d
000000d0: eec3 023d 0ac7 02bd 5624 50bc 778a e33c
000000e0: 498d 44bd 70c3 1dbe 15f8 4cbe 31b4 7f3d
000000f0: 34ac a7bd 2525 48be 20a1 12bc 7591 6a3c
00000100: 2278 2dba cfc4 bfba 42c4 cb3b 16b9 013b
00000110: 581e a7bd 8c3b 1bb9 22c7 cabb 90b3 df3d
00000120: aeb0 07be f551 2cbd 4090 e63a a9c8 04bd
00000130: 0f92 713d 03e1 d93d ded2 45bd 0e18 5cbd
00000140: e666 d4bd fdcd 51bd 3ad9 383d 620f 4abd
00000150: 789c 47bd 6af8 0d3b 62e1 90bc 3462 08bd
00000160: 506e 0ebd e9c8 ad3b 4997 81bd 15dc 93bd
00000170: 66d0 1c3d 3019 bd3c ca39 033b acd1 13bd
00000180: 3d49 823d 60ab e93d 010a 703d ae77 afbd
00000190: e8f5 203d 14b7 77bd be23 293d 5ada 0bbd
000001a0: f369 283c c1be 2dbc e454 76bd 1349 d53d
000001b0: 38a2 8c3d 837b f4bb dd26 32bd c09d ac3c
000001c0: eb76 6f3d 10f8 143d aecd abbd 1dc3 c13b
000001d0: b74a 103c c8f7 3c3c c9ef 47bd 24ff e6bd
000001e0: 1f20 b83c fbb7 13bd cf10 ab3d 4b5e e5bb
000001f0: bda8 a33d 434c 7abd b5cb 8abd f1c1 21be
00000200: 71f9 80bc 3a24 26bd 70de c9bc 6088 c9bc
00000210: 0df6 b2bd d41d 75bd df26 4b3d 8842 24bd
00000220: 4b45 8b3d b7f4 8dbb 43e0 443d 16f6 68bd
00000230: 185a 2b3d 3d79 f63c adf3 8b3d da44 f9bb
00000240: acf2 0b3d 92bb c43c 8925 dfbd 923c 9e3c
00000250: 2829 cabd ee94 cb3a a6a6 d5bb b525 b13c
00000260: 3007 c33d fda5 1e3d 4aa2 1f3e ba0b 10be
00000270: 4a31 90bd 35dc 03bd e934 e43d e21b 3abd
00000280: f461 0fbe d8a3 c33c 148a cbbd 62af 333d
00000290: 4d9d 84bc ffd7 723d 3455 a2bd cb5f 793d
000002a0: 0a2f c4bd 10a0 833c fca1 173e 07f8 8dbd
000002b0: 074f 92bc 81eb a13d 9d25 94bd 403a 523d
000002c0: 665e a5bd 0d28 903d 6f8e f2bd 2c27 ca3b
000002d0: 1a6c 233c 8ab8 97bc df72 333d b595 a33a
000002e0: 39a1 dbbc 2e4a 58bd 8900 7bbd c891 7a3d
000002f0: 8954 1f3d 772e 1b3d 33b4 dabc 2eaf 78be
00000300: 720f fdb9 51da 353d 217b 63bd 0112 0bbd
00000310: 4834 4a3d 0df0 93bd fa10 aa3d a5fb 02bc
00000320: 1c71 be3d fd5f 763d 0325 ec3c 3129 093d
00000330: 5045 bfbb 150e 6bbd e905 463d 8f54 f23c
00000340: c5f8 333d 4cb1 9a3c 2d32 063d 3e61 02bd
00000350: 4284 febd 7def 5f3d ef5c d23c e506 953d
00000360: ece9 2fbe 1116 923d 935a 9f3d 2563 48bd
00000370: 761b 3dbc c37a 273c 1177 a43d 55d7 223d
00000380: afcf a8bc 3027 213c 24b9 cfbd d22a 5bbd
00000390: 2926 12be 691a 3c3d 2e82 46bd f23f 06be
000003a0: e70b 6a3d 2627 50be 61e8 c9bc 8daa 90bc
000003b0: befd fdbc fb59 5abd 064f f4bd bbca 20be
000003c0: cd4c 903d 2d2b 8f3d 5eb2 4d3d b3ea 983d
000003d0: 4214 76bd 875b 013e 32c3 86ba 4e82 353d
000003e0: 0d9e dcbc 4497 fe3c 3e52 1e3d cbb0 8b3d
000003f0: 8928 363b 76b3 e7bd 849d 323d b45b 103b
0.032945655 0.11100358 -0.027592164 -0.014050753 -0.06157063 0.05514946 0.010688941 0.034203064
0.063864894 -0.011633866 -0.061096277 -0.024996858 0.04529999 -0.027783487 -0.023467256 0.02523369
0.016440671 -0.012031218 -0.14646785 -0.16128536 -0.068474405 0.00409096 -0.10918519 0.034884684
-0.06167578 0.012394666 0.00298044 0.00582233 -0.0038394015 -0.020195952 0.047964465 0.020259539
0.031553246 -0.07815389 0.006979246 0.09151119 -0.032123677 -0.0035396216 -0.011678262 -0.10489008
0.0031226454 0.07927558 0.052844696 0.091066994 -0.013604605 -0.07874064 -0.103821754 0.07495933
0.06071634 -0.06882922 0.04992801 0.07264016 0.031925134 -0.0319281 -0.012703976 0.027775986
-0.047986303 -0.15406585 -0.20016511 0.062427703 -0.08187142 -0.1954542 -0.008949548 0.014316906
-0.00066173275 -0.0014630797 0.006218464 0.0019794158 -0.081600845 -0.00014804135 -0.0061882893 0.10922921
-0.13250992 -0.042070348 0.0017590597 -0.032417927 0.058977183 0.10638621 -0.0482968 -0.053733878
-0.10371189 -0.051221836 0.04512904 -0.049331076 -0.048733205 0.002166296 -0.017685596 -0.03329678
-0.03477317 0.0053034914 -0.063276835 -0.07219712 0.03828468 0.0230833 0.0020023459 -0.03608863
0.06361625 0.1140964 0.05860329 -0.08567749 0.039297014 -0.06047733 0.041293852 -0.034143783
0.0102791665 -0.010604561 -0.06013955 0.104143284 0.06866878 -0.007461013 -0.043494094 0.021071315
0.05846302 0.036369383 -0.0838884 0.005913152 0.008806876 0.011533685 -0.04881266 -0.11279133
0.022476254 -0.03606413 0.08352815 -0.006999766 0.07991169 -0.061107885 -0.06777135 -0.15796639
-0.015743943 -0.040561892 -0.0246422 -0.024601161 -0.08738337 -0.0598429 0.049597617 -0.04010251
0.06800326 -0.004332151 0.048065435 -0.05687531 0.041833967 0.030087108 0.06833587 -0.0076070847
0.034166977 0.024015222 -0.10895831 0.019315992 -0.09871131 0.0015532055 -0.00652011 0.021624425
0.09522855 0.038732518 0.15589252 -0.14066973 -0.07040651 -0.032192428 0.11142904 -0.045436747
-0.1400221 0.023881838 -0.09938446 0.04386843 -0.016188288 0.05928802 -0.079264075 0.06088237
-0.095792845 0.016067535 0.14807886 -0.06932073 -0.017859949 0.07906247 -0.07233737 0.051325083
-0.08074646 0.07038889 -0.11843573 0.0061692204 0.009974504 -0.018520612 0.04381072 0.0012480529
-0.026810275 -0.05280512 -0.061279807 0.061174184 0.03889898 0.03788611 -0.026697254 -0.24285576
-0.00048267428 0.044397656 -0.055537347 -0.033952717 0.049366266 -0.072235204 0.08304019 -0.007994567
0.09298918 0.060150135 0.028826242 0.03348655 -0.00583712 -0.057386477 0.04834548 0.029581336
0.043938417 0.01888337 0.032762695 -0.03183102 -0.1242757 0.054671753 0.02567908 0.07276706
-0.17179078 0.07133115 0.077809475 -0.048922677 -0.011542192 0.01022214 0.080305226 0.039756138
-0.020606844 0.009836003 -0.10142735 -0.053507634 -0.1427237 0.045923624 -0.048463993 -0.1311033
0.057140257 -0.20327434 -0.02464694 -0.01765945 -0.031004783 -0.05330847 -0.11929135 -0.15702336
0.070458986 0.06990657 0.050218932 0.0746664 -0.060077913 0.12632571 -0.0010281561 0.04431372
-0.026930833 0.031077988 0.03865265 0.0682083 0.0027795157 -0.11313526 0.04360725 0.0022027316

net.2.bias f4 [256]
00000000: 5b15 79bc d42b 35bc d024 913e 7c29 823e
00000010: e72c d03c b67e 453d 9f8e c2bb 637a 7cbc
00000020: 11a5 93bd 67ec 553e 4d82 673d f711 2cbd
00000030: f887 993e 5545 a0bb c8c0 8f3e 8fe7 9a3e
00000040: 242b f7bd 7c4c 58bd e7a4 09bd a196 f2bc
00000050: 3fed 60bc abb9 f0bc 9375 9dbd d3f0 1a3d
00000060: f0b6 8c3e c29a 17bd 9d92 2a3c bd19 e93d
00000070: 3168 3fbd d337 91bd fce5 a63e d60b 1d3d
00000080: 48ad a8bc 302a 943e e2e0 2bbb cf6c 333c
00000090: 7e5c 4a3e cbcc 03bd c90b 49bd 284e 8dbd
000000a0: 2578 16be 8548 7d3e 48b0 6dbc 5d4e 813e
000000b0: a192 f0bc 64b0 b63b 3564 85bd 0353 763e
000000c0: 0194 e7bd ddf1 9ebd 89f6 ad3e ac5d 0d3d
000000d0: 34a1 94bd f5c7 9f3b de35 653e 67c6 87bc
000000e0: 4b0c 2abd 3c36 ff3c b373 c13c 462f a03e
000000f0: b3ec d8bc 1f32 b7bb a966 98bb c720 723e
00000100: ab52 6dbd 466c 6dbc a2a6 a03e d658 9a3e
00000110: 157f 72bd 8e31 8c3e fd6e 65bc b084 6abc
00000120: 8944 11be c0be 8b3e 4831 1d3d 5235 613e
00000130: ef1f 873e 88c7 07be e1bf 1b3d a2fd 25bc
00000140: 1fc3 20be f84e e1bc c3a5 313e 9056 48bd
00000150: 834c bfbc 4509 7cbd 87fa a03e b97d 153d
00000160: 1d58 a13e 7520 273d 2dbb a53e b195 5d3e
00000170: 3365 1fbe 7182 ad3e 3b6b a6bd 3490 17be
00000180: b4f1 833e 8cd6 333e 97f5 28bd 782d acbd
00000190: 394f e53c 3285 553c c027 17bd aafe 1e3e
000001a0: f282 21be a6f1 583d c9b3 173e 8b2b 043d
000001b0: 5316 aabd 8fa1 62bd 6b08 a43c f51d 1a3d
000001c0: 0025 9d3e ef5b 333e 4e35 6bbc 4b35 7e3e
000001d0: 5396 1cbd 424f 423e 95e8 61bd 86f2 823e
000001e0: 9808 89bd b88b 4cbc c82b bbbc 2dd0 8dbd
000001f0: f435 713e 569d a33c f8f8 15bd f61a 1dbd
00000200: b31b 4cbd 02c8 7abc 56c9 9a3d 483b 1ebe
00000210: e03b b7bd 10ed 4e3e d1a1 9b3e aa46 a1bd
00000220: dc75 d039 a77a 7e3e 65fa eebc bd20 05bc
00000230: b9f1 0dba cd91 6c3e 6cc2 8b3e d4b2 93bd
00000240: 0494 e2bd cd6b cfbc 61b9 ebbc efd8 d73d
00000250: b057 f6bd d157 8b3e 6a45 2dbd 90f1 f3bd
00000260: 222f 593c 07ee 29bd 3e3c 30bd 90cf e0bc
00000270: 648f 9b3c 8327 b53c fa5a 3cbd 731f a6bb
00000280: 8b38 0e3d 7f74 b9bd cfa8 8c3e ca25 7c3e
00000290: 5f54 8c3b d93d 89bb 63dd 963e 16a0 0ebd
000002a0: fff9 7a3e 346f ef3b 9a2c 3b3b 1272 a7bd
000002b0: de80 84bd 4c82 993e 9fb8 003e fdcb e63d
000002c0: 43ca 3f3c a720 cd3c f68c 9bbd 55b4 29bd
000002d0: 8e3c 1dbc a387 843e a4dd ea3a c7b7 453e
000002e0: 36cc 13bc d1ae 61bd c349 9bbd 2cdd 3cbd
000002f0: dc09 aa3e 0b21 b6bd 5bf2 043c 1c11 3dbc
00000300: 9155 383e ace2 59bd ca9f 793e e095 5a3e
00000310: a03f 813e 9e5f 8abd 57e5 0b3d 8fb7 06bd
00000320: 2ce7 3b3e 7ad9 45bd dcce 443d 8918 2dbc
00000330: 2266 34bd 3b87 9f3e e5aa bcbc b099 1bbe
00000340: 5e32 503c 2b8e fa3c 9ad7 5c3d 7d7d 43bd
00000350: abf8 883d 5287 a6bd 4667 6c3e 56a2 f7bc
00000360: e341 abbc aaf8 923e e6bb efbc fbca a0bc
00000370: 3611 ae3e ceb3 50bd 9193 f7bc 7970 c8bd
00000380: e3ac 8d3e ed3f a83c 0797 883e a8e4 db3b
00000390: faa7 983e d37f 373e d675 503d 0bb2 943e
000003a0: 0b18 a63e 2a57 30bd dc62 37bc 0efd 3e3e
000003b0: 455f 1a3e fcf4 893e 167f 9b3e 99dc d0bd
000003c0: 7f5a c8bc b521 3e3d 908d 0dbe f090 8cbc
000003d0: 7a07 2b3e 6b58 53bd 376f 59bc 4123 813e
000003e0: 7641 8f3e 3bfe 3cbd c35b 993e 53a4 b1bc
000003f0: 3a45 8abc c6b3 babb a650 b6bc cd30 89bd
-0.015202845 -0.011057813 0.28348398 0.25422275 0.025412036 0.048216544 -0.005937412 -0.015410039
-0.07209218 0.20890962 0.05652075 -0.04200932 0.29986548 -0.0048910775 0.28076768 0.3025479
-0.12068775 -0.052807316 -0.03360453 -0.029612841 -0.013728439 -0.029385408 -0.07688441 0.037827324
0.2748332 -0.037012823 0.010410932 0.11381862 -0.046730224 -0.07090726 0.3259734 0.038341366
-0.02059044 0.28938437 -0.002622657 0.010951235 0.19761845 -0.032177728 -0.049083505 -0.06899673
-0.14694269 0.24734695 -0.014507361 0.252551 -0.029366793 0.0055752266 -0.065132536 0.24055104
-0.113075264 -0.077609755 0.33977154 0.03451316 -0.072573096 0.0048761317 0.2238383 -0.016574098
-0.04151563 0.03115379 0.02361474 0.31286067 -0.026480054 -0.0055906917 -0.00465091 0.23645316
-0.057940166 -0.014491146 0.3137713 0.301459 -0.059203226 0.27381557 -0.014003512 -0.014313862
-0.141863 0.27293968 0.038377076 0.21992996 0.2639155 -0.13259709 0.038024787 -0.010131272
-0.15699433 -0.027503476 0.1734839 -0.048910677 -0.023351913 -0.061532278 0.31441137 0.03649685
0.31512538 0.040802438 0.32369366 0.21639134 -0.15565948 0.3388858 -0.08125921 -0.14801103
0.25770342 0.17562312 -0.041249838 -0.0840711 0.027991878 0.0130322445 -0.036903143 0.15526834
-0.15772608 0.05296483 0.14814676 0.03226809 -0.08305039 -0.055329856 0.020023545 0.037626226
0.3069229 0.17515539 -0.014355971 0.24825017 -0.038229298 0.18975547 -0.055153448 0.25575656
-0.06691092 -0.012484483 -0.022848025 -0.06924472 0.23555738 0.019972485 -0.03661439 -0.03835579
-0.049831104 -0.015306475 0.07557933 -0.15452302 -0.08946967 0.2020762 0.30396894 -0.07874806
0.00039760664 0.24851476 -0.029172132 -0.008125481 -0.00054147426 0.23102494 0.2729677 -0.07211843
-0.11063388 -0.025319958 -0.028774919 0.10539424 -0.12028444 0.27215436 -0.042302527 -0.11911309
0.013255866 -0.041486766 -0.0430262 -0.027442724 0.018989272 0.022113567 -0.0459852 -0.005069667
0.034721892 -0.09055423 0.2747254 0.2462379 0.0042825188 -0.004188281 0.2946578 -0.03482064
0.24509428 0.0073069576 0.002856052 -0.08176054 -0.06469892 0.2998222 0.12570427 0.112693764
0.011705938 0.025039984 -0.075952455 -0.041431744 -0.009596957 0.25884733 0.0017918837 0.19308387
-0.009020856 -0.05509836 -0.07582428 -0.046109363 0.33210647 -0.08893021 0.008114423 -0.011539724
0.18001391 -0.053194687 0.24377361 0.21346235 0.25243855 -0.06756519 0.034154262 -0.0328899
0.18349904 -0.048303105 0.04804884 -0.010564932 -0.044042714 0.3115786 -0.023030708 -0.15195346
0.012707321 0.03058537 0.05391655 -0.047727097 0.06688055 -0.08131279 0.2308627 -0.030228775
-0.02090544 0.2870534 -0.029264402 -0.019628039 0.33997506 -0.050952725 -0.030221732 -0.097870775
0.27670965 0.020538295 0.26677725 0.0067106076 0.29815656 0.17919855 0.050893627 0.29042086
0.32440218 -0.043051876 -0.0111930035 0.1865122 0.15075405 0.2694472 0.30370396 -0.10198326
-0.024457214 0.046418864 -0.13823533 -0.017158955 0.16702071 -0.051597994 -0.013271145 0.2522221
0.2797963 -0.04614089 0.2995282 -0.021684801 -0.016878713 -0.0056977 -0.022255253 -0.06698761

net.4.weight f4 [1, 256]
00000000: c004 9bbd 8659 e43c b85d 0f3e b132 b33d
00000010: 6522 62bd 16b2 f63c 4b24 cfbd 9993 55bd
00000020: 36ee 1fbd ce2f 413d 3913 383c 8e54 8dbd
00000030: d651 083e 3b4e 30bd cd84 a73d fd3a ba3d
00000040: c3bd 4bbd 9bc5 a73a 7a52 dbbd b368 a5bb
00000050: 28fe 1abd 7d58 acbd 4e67 68bd de00 7ebd
00000060: 0b89 f93d dfe7 b03b a044 5ebd ea38 483d
00000070: 16a5 b8bc 1e94 73bd 74d9 483e 1565 40bd
00000080: e959 d7bd 2884 d93d e0e0 96bd d5aa 043d
00000090: e72a 353e ee55 12bd b7fb 6abc bf75 4fbd
000000a0: df27 37bd 85d3 d03d 3a56 fdbd fbdd bb3d
000000b0: 847d 17bd 5be0 32bd bd93 363c bc3c ec3d
000000c0: dc25 91bd 779e 37bd b0cf 343e d7d0 afbd
000000d0: 7470 3abd 66d3 a6bd ef47 393e 9cb0 b2bd
000000e0: 1196 a0bd e529 72bd c479 98bd 2f27 ef3d
000000f0: 72a5 f3bc 0593 d0bd 29a7 17bd 8d82 dc3d
00000100: 3a5d 26bd 86b0 52bd 7657 ee3d d5bd c73d
00000110: 6aa6 97bc 2a51 033e 080d 97bd 8ebc c0bd
00000120: b61d 0cbd afb7 a03d 4501 79bd 6464 713d
00000130: b408 e23d ece1 12bd 672d 263d 4270 88bd
00000140: 94ad 28bd 7489 40bd 6a07 e33c 33ad 34bd
00000150: c6bc bb3c 2795 9dbd 6c03 f83d 77ca 83bd
00000160: 9b74 bb3d b0a8 c1bd d299 c93d de4b bc3d
00000170: 54e2 19bd 6c03 213e f53e 23bd 3114 38bd
00000180: 7b4c 213e cda4 be3d b54d 2dbd ce15 a2bd
00000190: 48f7 3c3c c44b 9fbd d427 cdbd d2ab 663c
000001a0: c1aa 1cbd 7908 1b3c 21c3 cc3d cdd6 d0bd
000001b0: a778 31bd b892 53bd 5175 fc3c 8228 9fbd
000001c0: 7ec4 2e3e 4d22 bf3d 88f3 163d 7706 d43d
000001d0: d6a5 95bd a76e e33d 8e1b d5bd cf46 ca3d
000001e0: d400 223d 2f16 b6bd c3ec 323c f1a2 71bd
000001f0: a99a 4e3d 4e72 b7bd 284a b1bd 2e84 96bd
00000200: 00d9 e93b ec4e afbd 9fec 4c3d fe88 ecbc
00000210: 03d4 43bd 27ab d13d 3e6d 0a3e a800 08bd
00000220: 4029 233c 5c9e de3d 3540 66bc 7c92 5cbd
00000230: 8511 bebd 8d97 b23d 1e93 883d 862a 74bd
00000240: 3bcd 59ba d2ff 3abd 6f52 2dbd aa11 463d
00000250: 48fa 3bbd 4495 163d 9ad3 a03c 9560 03bd
00000260: f0d0 49bd 5d3f 5fbd 27be 6bbd 364f 333b
00000270: 4741 9cbd c96e 8ebd 69aa 4cbd fca7 93bd
00000280: d1a1 cabd b3e8 9fbd afcc b83d 7f54 493d
00000290: acfa 62bd c4e4 1fbd 3831 e73d 4cbf 88bd
000002a0: 1bf3 f13d 3393 a3bd 635c a5bd 8bb3 08bd
000002b0: 5b7c 83bd 1292 013e 28f8 083e 3d5f 503c
000002c0: 2ccd 7abd 85ce 4ebd 7241 c5bb 785b afbd
000002d0: 76a5 84bd f452 143e 41f6 363d 41ac 063d
000002e0: f580 63bd 8b60 55bd bd10 58bd 9f5c 9fbd
000002f0: 6f71 193e 2320 55bd e5a9 babd 19e3 78bd
00000300: 48e7 793d 7cb3 933c 0700 a03d 714a 0f3e
00000310: c547 103e 1372 82bd 2dee 3ebd 0582 a6bd
00000320: 8b5b 743d 2676 d73c e982 a5bd 6654 76bd
00000330: ce2c 72bd c393 073e d978 373c 58c5 85bd
00000340: a5ab 59bd 581f 92bd fb58 103d 1ac4 9cbd
00000350: c179 9e3d d962 9bbd 21af 983d 410b c5bd
00000360: 8983 5b3d 935f 153e cc53 95bd 8dae acbd
00000370: b935 1c3e 4eab e13c d97a 88bd 7d14 97bd
00000380: 2f2c 233e 77f6 debd ed80 203e c9fe b8bd
00000390: 1f4c 2f3e ea7d 823d a377 3c3b 350f d13d
000003a0: b880 143e 7520 b6ba 3a82 32bd 25b3 5a3d
000003b0: 002a 7e3d 0829 fa3d 58aa 0d3e 9075 94bd
000003c0: 8e43 dcbd f5d8 ebbd 4d44 4bbd 0eaf b3bd
000003d0: 11a6 ce3c 41fe 813c b6c6 90bd 64b0 1c3e
000003e0: 9df1 023e f838 5fbd 7366 9b3d 291d 193d
000003f0: a187 203d b9c9 8b3a bcd9 76bd 0303 bc3c
-0.07569265 0.02787472 0.14000595 0.08749903 -0.055208582 0.030114215 -0.10114344 -0.052142713
-0.039045535 0.04716473 0.011235052 -0.06900893 0.13312468 -0.043043356 0.081796266 0.09093282
-0.049741518 0.001279998 -0.107090905 -0.0050478815 -0.03784004 -0.08415315 -0.056739144 -0.062012546
0.12184342 0.005398735 -0.054264665 0.048882402 -0.022539657 -0.059467427 0.19614202 -0.0469714
-0.10515196 0.1062091 -0.0736711 0.03238948 0.17692147 -0.03572648 -0.01434224 -0.0506494
-0.04471576 0.10196594 -0.12369962 0.09173199 -0.036984935 -0.043670993 0.011143622 0.11535022
-0.07087299 -0.04482886 0.17657351 -0.08584755 -0.0455174 -0.0814579 0.18093847 -0.08725092
-0.07841123 -0.059121985 -0.074451 0.116773956 -0.029741976 -0.10184292 -0.03702465 0.10767088
-0.04061625 -0.051437877 0.116377756 0.097530045 -0.01851197 0.1282393 -0.073755324 -0.09410964
-0.034208022 0.07847535 -0.060792226 0.05893363 0.11036816 -0.035859987 0.040570643 -0.066620365
-0.041181162 -0.047006086 0.027713496 -0.04411049 0.022917163 -0.07694464 0.12110028 -0.064351015
0.091531 -0.09456003 0.09843792 0.09194158 -0.03756936 0.15723962 -0.039854962 -0.04494113
0.15751831 0.09308777 -0.042310435 -0.07914315 0.011533566 -0.07778123 -0.10017362 0.014079051
-0.03824878 0.009462469 0.099981554 -0.1019722 -0.043327954 -0.051653594 0.03081766 -0.07771398
0.17067143 0.09332714 0.036853343 0.103527956 -0.07307021 0.1110509 -0.10405646 0.09876787
0.03955157 -0.0889095 0.010920706 -0.058993284 0.050440464 -0.08957349 -0.08656722 -0.0734943
0.007136464 -0.08559975 0.050030347 -0.028873917 -0.047809612 0.10237723 0.13518235 -0.03320375
0.009958565 0.108700484 -0.014053394 -0.053850636 -0.09280685 0.08720312 0.066686854 -0.059610866
-0.0008308475 -0.045654126 -0.042314943 0.04835669 -0.045892984 0.036763445 0.01963215 -0.03207453
-0.049271524 -0.054503787 -0.05755439 0.0027360446 -0.07629638 -0.06954724 -0.049967203 -0.07209775
-0.09894145 -0.07808056 0.09023415 0.049152847 -0.05541484 -0.039036527 0.112886846 -0.06677112
0.11813947 -0.079870604 -0.08074262 -0.03337435 -0.06420203 0.12653378 0.13375914 0.012718019
-0.061230823 -0.05048992 -0.0060197646 -0.08562368 -0.06476872 0.14484769 0.04466844 0.032879118
-0.055542905 -0.052094024 -0.052750338 -0.07781338 0.14984678 -0.0520326 -0.09114436 -0.060763452
0.061011583 0.01802992 0.07812505 0.13993241 0.14089878 -0.06369414 -0.04661386 -0.08130268
0.059657615 0.026301455 -0.0808161 -0.060139082 -0.05912476 0.1323996 0.011198246 -0.06531781
-0.05314221 -0.071348846 0.03524111 -0.07654591 0.077380665 -0.07587213 0.07455278 -0.09621287
0.05359224 0.1458724 -0.072913736 -0.084317304 0.15254869 0.027547505 -0.06664056 -0.07376955
0.15934823 -0.10886853 0.15674181 -0.090329714 0.17118882 0.063716725 0.0028757832 0.10207979
0.14502227 -0.0013895171 -0.043581225 0.0533935 0.062051773 0.12214857 0.13834512 -0.07248986
-0.107550725 -0.11515991 -0.049625684 -0.087736234 0.025225671 0.015868308 -0.07069151 0.15301663
0.1278748 -0.05449769 0.075879 0.037381325 0.039191846 0.0010664976 -0.06026624 0.022950655
