checkpoint/final/agent_2/policy.pth (torch, 331529 bytes, 6 tensors)

net.0.weight f4 [256, 49]
0.052910898 -0.015086145 0.15282767 -0.053800203 0.03207199 0.024022155 0.01674898 -0.039918486
0.19763969 -0.06658985 0.095917396 0.051764242 0.07994945 0.07754491 0.055585753 -0.07408643
0.070525385 -0.053725976 0.038718726 0.022373192 -0.054031778 0.029025597 0.01757316 -0.002540646
-0.056416042 0.037783634 -0.045760125 0.014177216 -0.1507645 0.08994305 0.07287596 -0.18240714
-0.05683619 0.026395382 -0.09584474 0.012671982 0.007371343 -0.048841223 0.02377675 0.00797912
0.0942279 0.027748162 0.12531193 -0.07127628 -0.17112751 -0.032465704 -0.028232196 0.02268595
0.1794784 -0.07405258 -0.007977245 -0.059305344 0.17365809 -0.028032733 -0.009929043 -0.048692446
-0.09638053 0.04030218 -0.016995486 0.08705835 0.054876126 -0.016927335 0.15630558 0.25589138
-0.07679513 -0.00902947 -0.0049083116 -0.099043 -0.10924719 -0.011959667 -0.057255305 -0.075430974
-0.04141637 0.14063503 -0.041003782 0.10596064 0.17518477 0.13406704 -0.0040112897 -0.05853595
-0.0022384466 -0.08552482 0.038485087 0.17596951 -0.07963327 -0.17890376 -0.11394332 -0.11620359
-0.2005252 -0.12329827 -0.04757156 -0.07753394 0.1619518 -0.10732961 0.046792082 0.08999819
0.08434397 -0.010149901 -0.05926883 0.143234 -0.076549165 0.07697849 -0.0030200342 0.21998826
-0.10761952 0.18520574 0.0056588924 0.02737705 -0.04774848 -0.058009412 0.112103924 0.16557956
-0.030093333 0.07565043 0.10009989 0.093671255 -0.12849337 -0.008849855 0.103648975 -0.12575112
0.033711944 -0.09740202 0.078588806 0.0020344178 -0.04887621 0.07773276 0.13616313 0.1355987
0.08232626 0.16827588 0.016970987 0.14087835 -0.09782396 -0.04368621 0.0134694185 -0.09854682
-0.106255315 0.104572855 0.12931816 0.1895976 -0.021658378 0.07136777 -0.041529533 0.09666986
0.06561537 -0.025288228 -0.1550289 0.052158102 -0.15313302 -0.11130388 0.09518809 -0.17288122
-0.02129672 -0.12321317 0.14164448 0.086442925 -0.06292751 -0.14356773 0.027332958 0.011875959
0.18787669 0.12004847 -0.0021703236 -0.12646791 -0.097137876 0.051065996 -0.09550538 0.0017917788
0.079147965 -0.09253583 0.107708864 -0.017520627 0.033690136 0.099674866 0.0925681 -0.05622535
-0.045292653 0.11355501 0.110318884 0.13171367 0.15009438 -0.0400297 -0.013549602 0.08043251
-0.04029993 0.06713948 -0.14480011 -0.19404393 -0.12410247 -0.15443887 -0.087210864 0.016031953
-0.033467747 -0.1124985 -0.03538487 -0.06599671 0.051819887 -0.0750992 -0.090436876 0.20557795
-0.19490293 0.053872693 -0.025161274 0.091597445 0.06752835 0.13074262 0.102842934 -0.16689362
0.18338935 -0.047965817 0.067656256 -0.018833255 0.01848999 0.006910558 0.03130464 -0.11841878
-0.072084956 0.11059071 -0.065889776 0.14535275 0.13779065 0.17919153 0.18136999 -0.111381926
0.16426551 0.04195144 -0.02361905 -0.07624858 0.020106548 0.10651317 0.11178197 -0.03316737
0.15179026 -0.021018697 0.16651802 0.10693959 0.016940912 0.013798407 0.07493144 -0.06738159
0.07970437 0.023943495 0.08360698 0.022353875 0.016162885 -0.032325342 -0.044450264 -0.0059253755
-0.110025615 -0.09197227 -0.1630361 -0.009529704 0.014802278 -0.12962152 0.039848473 0.031218039
00000000: 19b9 583d e12b 77bc db7e 1c3e 9a5d 5cbd
00000010: eb5d 033d 1cca c43c 2835 893c 9181 23bd
00000020: 0f62 4a3e 4260 88bd 5770 c43d be06 543d
00000030: 8abc a33d decf 9e3d e3ad 633d a0ba 97bd
00000040: 9d6f 903d c50f 5cbd 8797 1e3d fc47 b73c
00000050: 6d50 5dbd 17c7 ed3c 96f5 8f3c f780 26bb
00000060: 8214 67bd 03c3 1a3d f86e 3bbd 8e47 683c
00000070: 0262 1abe 1034 b83d fe3f 953d f0c8 3abe
00000080: 11cd 68bd 213b d83c 3f4a c4bd 259e 4f3c
00000090: 4f8b f13b bc0d 48bd 75c7 c23c dbba 023c
000000a0: 8ffa c03d 1d50 e33c c551 003e 4cf9 91bd
000000b0: 0d3c 2fbe c2fa 04bd 3547 e7bc e3d7 b93c
000000c0: 30c9 373e e1a8 97bd feb2 02bc 29ea 72bd
000000d0: 6dd3 313e e7a4 e5bc 6dad 22bc bb71 47bd
000000e0: 2863 c5bd e613 253d 1e3a 8bbc a64b b23d
000000f0: cac5 603d 32ab 8abc 920e 203e 3204 833e
00000100: c446 9dbd 58f0 13bc e7d5 a0bb 0ed7 cabd
00000110: febc dfbd 7bf2 43bc 8a84 6abd 8e7b 9abd
00000120: 36a4 29bd a102 103e 95f3 27bd e401 d93d
00000130: a363 333e df48 093e 2371 83bb 64c3 6fbd
00000140: e7b2 12bb a327 afbd 8aa2 1d3d 5a31 343e
00000150: c516 a3bd 8c32 37be 1e5b e9bd 26fc edbd
00000160: 7a56 4dbe ce83 fcbd 65da 42bd 1dca 9ebd
00000170: b1d6 253e a0cf dbbd 0ea9 3f3d f950 b83d
00000180: 88bc ac3d c54b 26bc dfc3 72bd efab 123e
00000190: cfc5 9cbd e6a6 9d3d c4eb 45bb 9a44 613e
000001a0: 9f67 dcbd 93a6 3d3e 3b6e b93b d645 e03c
000001b0: e993 43bd 479b 6dbd be96 e53d b08d 293e
000001c0: 4b86 f6bc 9dee 9a3d 2c01 cd3d b7d6 bf3d
000001d0: c493 03be fbfe 10bc ea45 d43d e7c4 00be
000001e0: 8915 0a3d b67a c7bd 2bf3 a03d de53 053b
000001f0: 6c32 48bd 5a32 9f3d 596e 0b3e 63da 0a3e
00000200: ac9a a83d 8350 2c3e bd06 8b3c 6a42 103e
00000210: ee57 c8bd 50f0 32bd d6ae 5c3c ead2 c9bd
00000220: 639c d9bd 4b2a d63d fb6b 043e e025 423e
00000230: e96c b1bc 4429 923d df1a 2abd d9fa c53d
00000240: 5a61 863d 4229 cfbc e5bf 1ebe bca3 553d
00000250: e7ce 1cbe 4af3 e3bd f9f1 c23d c607 31be
00000260: 7576 aebc 3057 fcbd 400b 113e fd08 b13d
00000270: 23e0 80bd 6b03 13be 5ee9 df3c 6293 423c
00000280: bf62 403e f9db f53d fd3b 0ebb ce80 01be
00000290: 39f0 c6bd 942a 513d 5398 c3bd 1fda ea3a
000002a0: 5418 a23d 6d83 bdbd 7796 dc3d 6b87 8fbc
000002b0: abfe 093d 5622 cc3d 5894 bd3d 8d4c 66bd
000002c0: ca84 39bd 878f e83d deee e13d f3df 063e
000002d0: 57b2 193e 2ff6 23bd 26ff 5dbc cdb9 a43d
000002e0: 8a11 25bd 6c80 893d 7b46 14be 74b3 46be
000002f0: 7029 febd 3925 1ebe 9c9b b2bd 7155 833c
00000300: 7a15 09bd 9d65 e6bd baef 10bd 4829 87bd
00000310: 1741 543d 9ccd 99bd f836 b9bd 0783 523e
00000320: a294 47be 9da9 5c3d 041f cebc 7197 bb3d
00000330: 4e4c 8a3d 65e1 053e 519f d23d 29e6 2abe
00000340: 6bca 3b3e ce77 44bd 5d8f 8a3d 3348 9abc
00000350: 5278 973c f671 e23b 4b39 003d 8c85 f2bd
00000360: 47a1 93bd 627d e23d 38f1 86bd 5ad7 143e
00000370: fe18 0d3e fc7d 373e 0eb9 393e 351c e4bd
00000380: 3835 283e 46d5 2b3d bd7c c1bc 3728 9cbd
00000390: 7db6 a43c 9423 da3d f2ed e43d 82da 07bd
000003a0: e86e 1b3e 672f acbc b383 2a3e 2503 db3d
000003b0: abc7 8a3c b712 623c a875 993d 5cff 89bd
000003c0: 0b3c a33d 2625 c43c 233a ab3d 791f b73c
000003d0: 0768 843c 9467 04bd 7b11 36bd a729 c2bb
000003e0: 1c55 e1bd f55b bcbd eff2 26be 7a22 1cbc
000003f0: 4185 723c 81bb 04be 2738 233d f9bc ff3c

net.0.bias f4 [256]
0.07244042 0.1569091 -0.045080945 0.08260992 0.02033574 0.04475384 -0.055288937 0.105208255
0.022199355 -0.077987336 -0.089024514 -0.059185144 -0.03494122 0.0937533 -0.08920557 0.03654864
-0.10531522 0.08246299 0.16727626 0.06284658 0.08626253 -0.017546466 -0.13486592 0.07405271
-0.0008381209 -0.022133434 -0.029924719 0.110768855 -0.08192344 0.0018061796 -0.05563277 -0.047070507
0.07664659 0.04226925 -0.019183386 0.12580918 0.06276239 0.10591402 -0.12057082 0.09633001
-0.19668816 0.006939054 -0.056685805 0.004527724 0.066047415 0.03325789 -0.12412168 -0.06352017
-0.07524483 -0.04145684 -0.083674945 0.042306148 -0.16858672 0.016649093 0.05265605 0.12305372
-0.09199651 -0.0113322055 -0.02916037 0.15162213 -0.13084656 -0.10567573 -0.07034154 0.06487436
0.12844153 0.034084905 -0.069647 0.04506067 0.074790075 0.03552834 -0.12691997 -0.029985659
0.12231309 0.14002775 0.10846484 0.019885043 -0.036089484 -0.009107151 -0.06501665 0.028620029
-0.025742264 -0.11426084 0.10211098 0.04288144 0.098042 0.12785573 0.060079366 -0.08254688
-0.063641645 -0.058356848 -0.028970785 0.087903045 0.103286006 0.038264006 0.0103667835 0.06977421
-0.0736946 -0.0004073815 -0.034656227 0.0674816 -0.097097985 0.17143537 0.13357536 -0.07459227
0.06003062 -0.1031969 -0.0647539 0.13092546 0.012482862 -0.089542136 0.06375469 0.08827253
0.00978759 -0.09668518 0.090661876 -0.07207865 -0.010262339 -0.008440226 -0.022851786 0.14234674
0.15775059 0.07362209 0.010751574 0.017520124 -0.043277513 0.04495672 0.10839431 -0.106334135
-0.09957843 0.08697345 0.06355978 -0.032746173 -0.11088019 -0.08036177 -0.13976859 0.081490636
-0.07764214 0.0728736 -0.016456429 -0.11265108 0.05757333 0.0034482356 -0.022704344 -0.0324595
0.026759299 0.11551085 -0.051155012 -0.0778281 -0.0031639878 0.036412165 0.110687524 -0.044321314
0.03804661 0.00246431 0.048002787 0.043268897 0.036834422 -0.08775242 -0.040843844 0.06192037
0.11279989 0.021558994 0.050149653 0.054292757 -0.035661332 0.04892019 -0.13222781 0.067136005
-0.053170834 -0.033258956 0.17516987 -0.043898143 0.027343627 -0.16970272 0.015577132 -0.092782974
-0.060920876 0.060884833 0.1280052 0.04820905 -0.026597667 0.13212156 0.093050174 0.021908881
0.121923596 -0.03272772 -0.0795284 -0.14064728 0.10166092 -0.19654953 -0.08295767 -0.11483229
-0.03242291 -0.15932098 0.054465283 -0.07161306 0.14627257 -0.018609164 -0.19038816 0.0134126805
-0.055764247 -0.0013936646 0.11656457 -0.041696474 -0.015125442 0.04139267 -0.039179444 -0.03830956
0.13318497 0.0017589102 0.0763392 0.08215779 0.1400076 0.065255314 -0.11126513 0.103139654
-0.055553097 0.12376061 -0.027673889 -0.03563908 -0.09367645 -0.1257719 0.025557628 -0.03162512
0.034963552 0.07903295 0.033205416 -0.06431158 -0.14236039 -0.034583237 -0.104718596 0.117166854
0.13238506 -0.011485725 0.023504067 -0.090273544 -0.046967305 -0.0024946819 0.08309148 -0.03509925
0.048826523 -0.133074 0.02011859 -0.0554881 0.2151622 -0.04288219 -0.0798164 0.13973667
-0.15913004 0.024821427 -0.01665316 -0.14015186 -0.043848954 -0.09441169 -0.083019614 -0.06149088
00000000: a55b 943d c7ac 203e cca6 38bd 642f a93d
00000010: 2397 a63c cd4f 373d a776 62bd 6d77 d73d
00000020: 6cdb b53c d3b7 9fbd 7c52 b6bd 1f6c 72bd
00000030: 861e 0fbd bb01 c03d 69b1 b6bd 07b4 153d
00000040: 82af d7bd 5be2 a83d 784a 2b3e b5b5 803d
00000050: 69aa b03d 9bbd 8fbc 4b1a 0abe f2a8 973d
00000060: 57b5 5bba 2d51 b5bc af24 f5bc c8da e23d
00000070: 7ac7 a7bd 55bd ec3a 30df 63bd 01cd 40bd
00000080: e3f8 9c3d 8522 2d3d 7a26 9dbc 1fd4 003e
00000090: 9189 803d 73e9 d83d d6ed f6bd ab48 c53d
000000a0: 9f68 49be 0161 e33b 602f 68bd 4d5d 943b
000000b0: de43 873d 6d39 083d 8233 febd dd16 82bd
000000c0: f619 9abd a6ce 29bd c55d abbd 3649 2d3d
000000d0: ffa1 2cbe ae63 883c dfad 573d 9703 fc3d
000000e0: ab68 bcbd b7aa 39bc bae1 eebc d542 1b3e
000000f0: a4fc 05be 846c d8bd 3a0f 90bd d9dc 843d
00000100: 2d86 033e 9d9c 0b3d 16a3 8ebd 8991 383d
00000110: 8a2b 993d 2a86 113d 4ff7 01be 7ca4 f5bc
00000120: 497f fa3d 6f63 0f3e d022 de3d f5e5 a23c
00000130: 91d2 13bd 2936 15bc 7327 85bd 8d74 ea3c
00000140: 71e1 d2bc 9601 eabd 901f d13d 73a4 2f3d
00000150: 3eca c83d 9dec 023e c815 763d 570e a9bd
00000160: 8d56 82bd 9707 6fbd 2454 edbc 8306 b43d
00000170: 9d87 d33d b8ba 1c3d 71d9 293c c8e5 8e3d
00000180: 32ed 96bd d295 d5b9 b0f3 0dbd cb33 8a3d
00000190: 4fdb c6bd c18c 2f3e fbc7 083e d5c3 98bd
000001a0: abe2 753d e558 d3bd b19d 84bd 5311 063e
000001b0: eb84 4c3c de61 b7bd d291 823d 3ac8 b43d
000001c0: 215c 203c e102 c6bd efac b93d f99d 93bd
000001d0: 5f23 28bc e048 0abc ab33 bbbc 58c3 113e
000001e0: 5f89 213e 2ec7 963d 5f27 303c 5d86 8f3c
000001f0: c343 31bd 8a24 383d d6fd dd3d b6c5 d9bd
00000200: c7ef cbbd 231f b23d a12b 823d da20 06bd
00000210: 2715 e3bd b694 a4bd 7f1f 0fbe 90e4 a63d
00000220: d802 9fbd c13e 953d a2cf 86bc 9cb5 e6bd
00000230: 03d2 6b3d cbfb 613b 76fe b9bc 41f4 04bd
00000240: 5136 db3c f490 ec3d eb87 51bd 5764 9fbd
00000250: e85a 4fbb ec24 153d 24b0 e23d 448a 35bd
00000260: c3d6 1b3d 4380 213b 929e 443d ba3a 313d
00000270: b1df 163d 8ab7 b3bd e04b 27bd 37a0 7d3d
00000280: a103 e73d 7d9c b03c b969 4d3d 1562 5e3d
00000290: 9e11 12bd 8a60 483d ba66 07be 9a7e 893d
000002a0: a9c9 59bd 8b3a 08bd bb5f 333e 8ace 33bd
000002b0: beff df3c 8dc6 2dbe 3a37 7f3c 0005 bebd
000002c0: 2b88 79bd 6062 793d cc13 033e da76 453d
000002d0: 5ae3 d9bc e04a 073e 1791 be3d 417a b33c
000002e0: 14b3 f93d 800d 06bd c9df a2bd d705 10be
000002f0: 9a33 d03d 4844 49be b6e5 a9bd 312d ebbd
00000300: e3cd 04bd 0a25 23be fd16 5f3d dea9 92bd
00000310: 7ac8 153e 3f72 98bc 1df5 42be dcc0 5b3c
00000320: 0d69 64bd a0ab b6ba 68b9 ee3d ecc9 2abd
00000330: b4d0 77bc 5c8b 293d a07a 20bd 7cea 1cbd
00000340: a461 083e 3c8b e63a ba57 9c3d 5842 a83d
00000350: 275e 0f3e 94a4 853d f9de e3bd e23a d33d
00000360: a58b 63bd 3476 fd3d 5ab4 e2bc 49fa 11bd
00000370: 70d9 bfbd 59ca 00be 3b5e d13c 5889 01bd
00000380: f135 0f3d 07dc a13d 6702 083d cab5 83bd
00000390: ecc6 11be 27a7 0dbd b476 d6bd 2df5 ef3d
000003a0: f38f 073e 9f2e 3cbc 9a8b c03c 56e1 b8bd
000003b0: ca60 40bd d17d 23bb de2b aa3d 3bc4 0fbd
000003c0: 52fe 473d 8d44 08be becf a43c 7d47 63bd
000003d0: 7b53 5c3e 3ca5 2fbd c876 a3bd 2117 0f3e
000003e0: fcf2 22be 4e56 cb3c 356c 88bc f883 0fbe
000003f0: f69a 33bd eb5a c1bd 3006 aabd dcdd 7bbd

net.2.weight f4 [256, 256]
0.06967442 0.0035376635 0.07726639 0.081227705 0.031135308 0.06904517 -0.016509553 0.065194815
0.04117506 -0.02773994 -0.093542084 0.0014082703 -0.053288262 -0.06218167 0.051121097 0.0041720923
-0.073734775 -0.024462817 -0.0041508023 -0.039678168 -0.031007605 0.021789784 0.033605017 0.010957923
-0.029996209 -0.0899375 0.033569053 0.0053783725 -0.024222162 -0.04022444 0.057865106 0.070242696
-0.026118318 0.011644198 0.038571518 -0.026898295 -0.010893381 -0.0068191155 0.046481524 -0.0139471805
0.07347141 0.059334606 0.08672621 -0.059174974 0.06438259 -0.015488456 -0.021673625 -0.030205881
0.019998685 0.056761034 0.07504546 0.05042963 -0.02073841 -0.033076245 -0.06518694 0.026252208
0.0135705285 0.03389623 0.11389586 0.07655199 0.10433097 -0.061504576 -0.0075629535 0.033757735
0.061295457 0.033418793 0.07632097 0.006442797 0.029268544 -0.012049202 0.11171578 0.034308515
0.084401816 -0.014558571 0.0014775407 0.0064432113 0.023201976 0.024153823 0.0107565215 0.043542836
0.005517716 -0.014616253 0.03452447 0.13833553 0.0049862643 0.048329912 -0.009969294 0.010060959
0.019288493 0.05094117 -0.004144983 -0.06065069 -0.005054103 0.011934581 0.08278767 -0.0025627133
-0.02920804 0.059109144 0.033320367 0.10430329 0.097538576 0.050589867 0.07664104 0.009045482
0.058783025 0.03548294 0.03243927 -0.010640693 0.029066231 0.0811438 -0.001329959 -0.022149483
0.06141232 0.08502312 -0.026693553 -0.0110741565 -0.024487577 0.083760545 -0.00052779505 0.054194067
-0.018851422 -0.003781875 0.043808103 0.050410435 0.010612282 -0.0024103532 0.04950638 0.020573609
-0.009668904 -0.018322809 0.008489437 0.09338651 0.061314467 0.030207796 -0.0010532651 0.045876507
0.06107609 0.043710735 0.07956323 0.037717 -0.012534412 0.04452295 0.0475127 0.039006732
0.054697003 0.07685164 0.0015739629 0.109107636 0.05447061 -0.038288195 0.0032260453 -0.07169016
0.041881453 0.083828114 0.11493376 -0.018161079 0.009868406 0.019652948 -0.053118024 0.030816063
-0.031263508 0.065123536 -0.0018674755 -0.056664478 -0.038247492 0.012132027 0.07158038 0.03506344
0.040126774 0.019180464 -0.06615904 0.028825382 0.038706508 0.0073037753 0.07610759 0.04216304
-0.018283978 0.0006168751 0.1345903 -0.019585857 0.0034158225 0.017422227 0.04340266 -0.06935398
-0.027490092 0.061187822 -0.0039639478 -0.01685479 -0.016630946 -0.0028151567 -0.016700085 0.014394061
0.0147324465 0.05460536 0.031408105 0.052262 0.042818565 0.010980258 0.0718581 -0.022358349
-0.000109068904 0.024232905 0.024492368 -0.01335919 -0.07170638 0.012540905 -0.064138725 0.04743261
0.09586208 0.046175078 -0.00793319 0.04252606 0.03613991 -0.0007313963 0.041519478 0.063848294
-0.028101703 0.02332015 -0.0060648825 0.008415204 -0.06888274 0.012655295 0.071466565 0.047872588
0.013429094 0.00018235394 0.021342292 0.008726371 0.07750651 -0.014353936 0.08616439 -0.001068738
0.050559606 0.066670656 0.08803085 -0.003194877 -0.059588477 -0.02230146 0.036224645 0.076914676
0.081278116 0.05773149 0.057355836 0.052055493 -0.025955927 0.051080063 -0.02564852 0.014575223
-0.026896305 -0.0057791458 0.06131957 -0.02496442 -0.023872506 0.058321044 0.015963664 0.0195977
00000000: 76b1 8e3d 25d8 673b d73d 9e3d b65a a63d
00000010: 790f ff3c 8e67 8d3d 0b3f 87bc dc84 853d
00000020: 2ea7 283d df3e e3bc fe92 bfbd b695 b83a
00000030: cb44 5abd 35b2 7ebd 5b64 513d 0cb6 883b
00000040: 4202 97bd 3f66 c8bc 7403 88bb 9385 22bd
00000050: a903 febc 7d80 b23c 6aa5 093d dc88 333c
00000060: 9cba f5bc 2731 b8bd b47f 093d 0f3d b03b
00000070: 8e6d c6bc 62c2 24bd f603 6d3d 67db 8f3d
00000080: 15f6 d5bc 4ec7 3e3c 2bfd 1d3d d059 dcbc
00000090: 277a 32bc e372 dfbb 6963 3e3d b782 64bc
000000a0: 2e78 963d d808 733d 839d b13d 7561 72bd
000000b0: 05db 833d 4bc3 7dbc e38c b1bc 5372 f7bc
000000c0: 48d4 a33c 427e 683d 6fb1 993d 4d8f 4e3d
000000d0: 99e3 a9bc f57a 07bd bb80 85bd df0e d73c
000000e0: ec56 5e3c c6d6 0a3d 3c42 e93d 4ac7 9c3d
000000f0: 7aab d53d 39ec 7bbd a7d2 f7bb 8d45 0a3d
00000100: f210 7b3d 25e2 083d 2b4e 9c3d 191e d33b
00000110: 96c4 ef3c 046a 45bc 3ecb e43d 1687 0c3d
00000120: dcda ac3d 1387 6ebc 0aaa c13a 9321 d33b
00000130: 1212 be3c 3dde c53c 1f3c 303c f959 323d
00000140: f5cd b43b 0279 6fbc 8869 0d3d d4a7 0d3e
00000150: d163 a33b 96f5 453d 4056 23bc b8d6 243c
00000160: e702 9e3c b0a7 503d a3d2 87bb dc6c 78bd
00000170: e49c a5bb 4389 433c 958c a93d 32f3 27bb
00000180: b345 efbc 6e1c 723d f07a 083d f79c d53d
00000190: 4ec2 c73d 5237 4f3d faf5 9c3d 8033 143c
000001a0: 78c6 703d 8f56 113d 0adf 043d 4d56 2ebc
000001b0: 4e1c ee3c b82e a63d 0552 aeba d572 b5bc
000001c0: 7c8b 7b3d 9a20 ae3d 70ac dabc 6170 35bc
000001d0: 2c9a c8bc a68a ab3d ba5b 0aba 99fa 5d3d
000001e0: 4c6e 9abc 55d9 77bb 2070 333d 2c7b 4e3d
000001f0: 23df 2d3c 04f7 1dbb 34c7 4a3d fc89 a83c
00000200: 536a 1ebc b719 96bc 4817 0b3c 6d41 bf3d
00000210: e124 7b3d 5776 f73c b60d 8aba 01e9 3b3d
00000220: ec2a 7a3d 070a 333d 0cf2 a23d 247d 1a3d
00000230: 225d 4dbc b25d 363d ad9c 423d 86c5 1f3d
00000240: f709 603d 6564 9d3d 6e4d ce3a d373 df3d
00000250: 931c 5f3d 15d4 1cbd 0f6c 533b 4ad2 92bd
00000260: e38b 2b3d 13ae ab3d 6462 eb3d 8bc6 94bc
00000270: 18af 213c 38ff a03c 4992 59bd f871 fc3c
00000280: 2a0e 00bd 7d5f 853d 14c6 f4ba 0319 68bd
00000290: 67a9 1cbd 69c5 463c bc98 923d af9e 0f3d
000002a0: f95b 243d 5920 9d3c 647e 87bd 3523 ec3c
000002b0: b78a 1e3d 8254 ef3b 4cde 9b3d 27b3 2c3d
000002c0: 48c8 95bc cab5 213a 0ad2 093e 8572 a0bc
000002d0: fedb 5f3b 0fb9 8e3c fdc6 313d 7609 8ebd
000002e0: e732 e1bc 15a0 7a3d 01e4 81bb 0e13 8abc
000002f0: 9f3d 88bc 7e7e 38bb 9ece 88bc 11d5 6b3c
00000300: 5c60 713c dfa9 5f3d c9a5 003d ae10 563d
00000310: 8562 2f3d 8ae6 333c 572a 933d db28 b7bc
00000320: ecbb e4b8 1684 c63c 38a4 c83c 81e0 5abc
00000330: cbda 92bd 5e78 4d3c 2a5b 83bd b248 423d
00000340: 5753 c43d 1422 3d3d 36fa 01bc ce2f 2e3d
00000350: 7107 143d 2dbb 3fba 5410 2a3d e5c2 823d
00000360: 8b35 e6bc e609 bf3c ecbb c6bb ecdf 093c
00000370: 6512 8dbd 2858 4f3c 105d 923d 0c16 443d
00000380: b405 5c3c 4336 3f39 08d6 ae3c 0ef9 0e3c
00000390: bcbb 9e3d c52c 6bbc f576 b03d e614 8cba
000003a0: 9717 4f3d a08a 883d 8549 b43d 2461 51bb
000003b0: 0c13 74bd 8db1 b6bc 4b60 143d 7185 9d3d
000003c0: 2475 a63d db77 6c3d f4ed 6a3d 2438 553d
000003d0: 86a1 d4bc 5439 513d d81c d2bc ebcc 6e3c
000003e0: a455 dcbc fd5e bdbb 3b2a 7b3d 2f82 ccbc
000003f0: 4690 c3bc 0ce2 6e3d 3bc6 823c 5b8b a03c

net.2.bias f4 [256]
0.1045399 0.03656752 -0.0009731153 0.0009085808 -0.04876346 0.041392196 0.036112137 -0.019764638
0.060298383 0.037601776 -0.03580209 -0.051392153 0.037633263 0.11233574 0.012453081 -0.0138265705
-0.03298766 0.0331027 0.020111976 -0.02058713 -0.03443206 0.07426741 -0.0790656 0.0029315834
-0.026502406 -0.012167533 -0.023436517 -0.01536305 0.052581757 0.04360938 0.041248497 -0.06581957
0.06269644 0.06849605 0.08453172 0.041886788 0.0318903 0.03356547 -0.018708432 0.04460503
-0.027967082 0.06581507 -0.059117902 -0.004130177 0.049158365 -0.058264084 0.06620644 0.028002571
-0.07316675 0.035312884 0.010320317 -0.0077454634 -0.023269236 -0.057650734 -0.026649347 -0.023331692
0.010943829 -0.047434095 0.0012706002 -0.053761475 0.07024449 -0.01797431 0.04540491 0.023326453
-0.0409551 0.043001205 0.041722745 0.042163398 0.028315231 0.029126419 -0.06434153 -0.004275809
0.025243515 0.023623789 -0.046249386 0.022920426 -0.026218282 0.0023651468 -0.004726817 -0.056632057
0.023505794 0.011789407 0.0024112763 0.026038624 0.040860858 0.018302746 -0.024535818 -0.014104188
0.13173984 0.06774639 0.054579552 -0.06007766 -0.021690218 -0.010307267 0.037065808 0.0075172237
-0.008988566 0.026377197 0.0263035 -0.019800331 0.0609122 -0.03465937 0.0026872824 0.070950225
-0.014480843 0.04114861 -0.023210214 0.0285582 -0.064307034 -0.05606156 0.053146522 -0.018258734
0.05182927 0.019007344 -0.04068178 -0.040391177 -0.036673643 -0.056320135 0.028052812 -0.029954119
0.04987367 0.0016813091 0.028356811 -0.040512156 -0.048618317 -0.040866677 0.10469248 -0.028090246
-0.038873114 -0.0012304726 -0.005714079 -0.035531897 0.10136802 0.023440788 0.07140203 -0.012635721
0.0021095437 0.016446862 0.089473456 -0.007622713 -0.057318445 -0.03567093 0.0007435878 0.040543858
0.024957987 -0.003268211 0.005033885 -0.059643112 0.011722329 -0.023748547 -0.056570046 0.005467169
-0.0897433 0.06020065 0.04080384 0.046707995 -0.0059815743 0.047651205 0.046855602 -0.039242372
0.026230901 -0.041434728 -0.013874824 -0.036583073 0.06168554 0.07813771 -0.006785611 0.035558455
-0.01921416 -0.03381743 0.080272734 0.024968892 0.006443614 0.06049795 0.053582728 -0.07848701
0.052908037 -0.014686213 -0.03362286 -0.020986008 0.11531399 0.028516375 -0.00035690385 0.0027404954
-0.012490648 -0.017316397 0.042268712 0.008435575 -0.020965828 0.017216338 0.10072281 0.02205568
0.04294196 -0.034875672 -0.056510527 0.014085054 0.020125084 0.058695298 0.0058691725 -0.047748514
-0.015823226 0.110780284 0.045501992 0.061158005 0.021226954 0.0149533115 -0.07236711 -0.0053719454
-0.04705012 0.012769306 0.034744814 -0.040594216 -0.083413534 0.07580448 -0.016699111 0.04376412
-0.062522665 -0.04465617 -0.055174455 -0.027546871 0.02963835 -0.060121313 0.093537405 -0.04765541
-0.036559254 0.00046554024 0.05707987 -0.083173074 -0.044945292 -0.012510892 0.08617504 0.033468314
0.04573028 0.004848291 -0.027220432 -0.04570531 -0.05965468 -0.059175298 -0.007729686 0.07795716
0.10595866 0.0071049193 0.041376498 0.06325924 0.035324108 -0.064758174 -0.019520268 -0.06382207
0.02300025 -0.034504924 -0.055302244 -0.0459325 -0.06950457 -0.042562883 -0.015508638 0.05019406
00000000: 0419 d63d d3c7 153d aa18 7fba d32d 6e3a
00000010: 32bc 47bd dd8a 293d 52ea 133d 73e9 a1bc
00000020: 70fb 763d 5204 1a3d 36a5 12bd 9480 52bd
00000030: 5625 1a3d 4810 e63d 0208 4c3c d788 62bc
00000040: 121e 07bd b296 073d dfc1 a43c 57a6 a8bc
00000050: a208 0dbd 8319 983d 25ed a1bd cf1f 403b
00000060: 931b d9bc 555a 47bc f0fd bfbc 4db5 7bbc
00000070: f85f 573d c09f 323d 2ff4 283d 69cc 86bd
00000080: fe66 803d a847 8c3d f71e ad3d 7b91 2b3d
00000090: 679f 023d f27b 093d 6d42 99bc c4b3 363d
000000a0: 391b e5bc 0dca 863d 9d25 72bd 7056 87bb
000000b0: 485a 493d 52a6 6ebd 3e97 873d a665 e53c
000000c0: 73d8 95bd 3ea4 103d 8c16 293c a8cd fdbb
000000d0: 209f bebc 2d23 6cbd bb4f dabc 1b22 bfbc
000000e0: bf4d 333c 414a 42bd 458a a63a fe34 5cbd
000000f0: 58dc 8f3d dc3e 93bc 80fa 393d 1e17 bf3c
00000100: 89c0 27bd 0822 303d 78e5 2a3d 87b3 2c3d
00000110: 58f5 e73c 879a ee3c 7ec5 83bd 161c 8cbb
00000120: 7dcb ce3c ad86 c13c ff6f 3dbd 9ec3 bb3c
00000130: b9c7 d6bc 9400 1b3b 6ae3 9abb 04f7 67bd
00000140: 398f c03c 5b28 413c 8106 1e3b f44e d53c
00000150: b75d 273d a4ef 953c 57ff c8bc 4115 67bc
00000160: cfe6 063e 9fbe 8a3d cf8e 5f3d fe13 76bd
00000170: afaf b1bc d0df 28bc 51d2 173d 0b53 f63b
00000180: c744 13bc fe14 d83c 707a d73c 4e34 a2bc
00000190: 127f 793d fcf6 0dbd 1e1d 303b 5a4e 913d
000001a0: 0f41 6dbc 728b 283d 5923 bebc e3f2 e93c
000001b0: 68b3 83bd cea0 65bd 2bb0 593d 5793 95bc
000001c0: ee4a 543d 4ab5 9b3c f0a1 26bd 3871 25bd
000001d0: 1a37 16bd f1af 66bd 03cf e53c 5762 f5bc
000001e0: 5548 4c3d 5f5f dc3a 8b4c e83c 13f0 25bd
000001f0: 0024 47bd d163 27bd 0369 d63d 841d e6bc
00000200: 6a39 1fbd cf47 a1ba 2b3d bbbb e589 11bd
00000210: 099a cf3d e506 c03c 3a3b 923d 0e06 4fbc
00000220: 4540 0a3b 92bb 863c dc3d b73d f4c7 f9bb
00000230: bfc6 6abd ae1b 12bd 55ed 423a 5111 263d
00000240: b174 cc3c 7b2f 56bb 4af3 a43b 564c 74bd
00000250: 030f 403c 508c c2bc feb5 67bd f025 b33b
00000260: 56cb b7bd f594 763d ed21 273d e250 3f3d
00000270: 1501 c4bb e92d 433d a9eb 3f3d 9cbc 20bd
00000280: 30e2 d63c 76b7 29bd 3b53 63bc 22d8 15bd
00000290: faa9 7c3d aa06 a03d d559 debb bea5 113d
000002a0: 0467 9dbc 2584 0abd 0866 a43d 908b cc3c
000002b0: f424 d33b b3cc 773d 9079 5b3d ccbd a0bd
000002c0: 19b6 583d 719e 70bc 20b8 09bd d9ea abbc
000002d0: be29 ec3d 2c9b e93c d31e bbb9 e299 333b
000002e0: 93a5 4cbc 1edb 8dbc f521 2d3d 5e35 0a3c
000002f0: 87c0 abbc 4709 8d3c c347 ce3d 1dae b43c
00000300: e9e3 2f3d cbd9 0ebd 9577 67bd 00c5 663c
00000310: 5cdd a43c 7b6a 703d 3052 c03b f293 43bd
00000320: b69f 81bc c6e0 e23d 4c60 3a3d d180 7a3d
00000330: 26e4 ad3c bcfe 743c 3535 94bd 2507 b0bb
00000340: a0b7 40bd 5a36 513c 9450 0e3d 1f46 26bd
00000350: b7d4 aabd 613f 9b3d 93cc 88bc 0242 333d
00000360: e20b 80bd 63e9 36bd 9cfe 61bd faa9 e1bc
00000370: 20cc f23c c441 76bd 8a90 bf3d 5232 43bd
00000380: 28bf 15bd c113 f439 95cc 693d a556 aabd
00000390: 8e18 38bd 7cfa 4cbc 8a7c b03d 1216 093d
000003a0: ad4f 3b3d 6ade 9e3b 62fd debc 7e35 3bbd
000003b0: 7758 74bd cc61 72bd 4e49 fdbb 01a8 9f3d
000003c0: db00 d93d 62d0 e83b 677a 293d 0f8e 813d
000003d0: 03b0 103d ef9f 84bd f8e8 9fbc 25b5 82bd
000003e0: 056b bc3c 0955 0dbd 9b84 62bd b823 3cbd
000003f0: 6958 8ebd 6b56 2ebd f117 7ebc 4998 4d3d

net.4.weight f4 [14, 256]
0.12278408 0.08742321 -0.01821337 0.017509814 -0.0049614 -0.05516483 0.11836534 -0.03843208
0.025787437 -0.0688427 0.013183075 -0.004278528 0.09969741 0.08583243 0.0030818016 0.0029692547
0.02828783 0.037468124 -0.051681995 0.040206626 -0.055707656 0.0035850746 -0.047369737 0.0951017
0.009032874 -0.047148205 0.11841036 0.0042071627 0.093588986 0.04662462 -0.013170918 0.053397387
0.07416703 0.097649716 0.11677808 0.026847001 0.11102018 -0.038447645 0.11310489 -0.0023388558
0.023294616 0.06439062 -0.008090582 -0.03478974 -0.018973568 -0.042319458 0.09063512 0.0259658
-0.027085409 0.1422692 -0.009165127 0.050923273 0.02525062 -0.0041000764 -0.006278416 0.052956164
0.08762483 0.07913925 0.022600282 -0.036506996 0.022443403 -0.023947395 0.03570271 -0.025199676
-0.013034348 -0.03427467 -0.03384599 -0.043659437 -0.025741555 0.1414513 0.05222431 0.11435261
0.03099544 0.04609132 -0.03427119 -0.049624197 -0.07069834 0.089434974 0.0379992 -0.041325603
0.095995486 0.08145075 0.05580879 0.06797099 0.0200496 -0.052040283 0.08200351 -0.018768739
0.111593485 0.09486811 -0.0688136 -0.009071075 0.023365218 -0.003768226 0.053550858 0.025012398
0.1204925 -0.031653 -0.04441451 -0.06701029 0.0077132005 0.01007306 -0.021684874 -0.015259479
0.007624417 0.08467255 0.040988088 0.0294253 0.03364854 0.041679397 0.07396496 0.004422824
0.009628253 0.024842316 0.0644794 -0.022504747 0.033346567 -0.02728523 0.12592955 0.09551436
0.073834024 0.0060230694 0.07085871 0.058673605 0.024283918 0.008871257 0.09886921 0.025267811
0.029098857 0.041035272 0.060178317 -0.04028431 0.09989629 0.014108064 -0.003508855 0.04814036
0.0022242353 0.018087285 0.05671968 -0.037220586 0.046931475 -0.020727405 -0.0021913836 0.03322887
-0.0345316 0.09066931 -0.03693711 -0.052702703 0.038184375 -0.010564587 -0.061275445 0.03257301
-0.019160043 -0.005530905 -0.02163204 -0.036313877 0.13431872 -0.0032246865 -0.0006068351 0.03490383
-0.0060322415 -0.038988054 -0.053198274 0.1056721 -0.012405898 -0.0019175889 0.10783664 0.024159338
-0.04216452 0.02674863 0.14715327 -0.044202734 0.059830148 0.07954332 -0.005265278 0.08320304
-0.086160585 0.024734404 0.008985877 -0.025022076 0.052181628 0.01668728 0.019203926 0.052288856
-0.0580141 0.09529306 -0.05245321 0.011891125 0.0072517195 -0.013650124 0.07313031 -0.04334738
-0.07150238 -0.06754688 -0.047685623 0.057438627 -0.06910977 0.120036624 0.0010973163 -0.030377243
0.12324821 0.09617437 0.010060019 0.007512121 -0.052973293 0.10168772 0.04417956 -0.014178828
0.05252539 0.017971616 -0.058527175 0.015075087 -0.057774544 0.0779391 -0.05113576 0.038198873
0.098415926 0.04289411 -0.012981987 0.010028534 -0.034341954 0.073256984 0.10081931 0.047116328
-0.038589124 0.00046290646 0.011014178 -0.04727363 -0.059191745 0.11026635 0.1339927 0.06065431
0.10897274 0.08622115 -0.043610338 -0.00858142 -0.032077026 -0.06258093 -0.004169523 0.07341334
0.08587655 -0.03492208 0.10145243 0.10739843 0.06629513 0.026436495 0.07663023 0.009396677
0.061269395 0.011313129 -0.024410026 0.06926333 0.0017468998 0.019276813 0.025946207 0.102388464
00000000: 3876 fb3d f10a b33d 3534 95bc be70 8f3c
00000010: 3d93 a2bb 84f4 61bd 8769 f23d f56a 1dbd
00000020: 2d40 d33c 67fd 8cbd d3fd 573c e532 8cbb
00000030: 282e cc3d eac8 af3d 0df8 493b d497 423b
00000040: e1bb e73c 2d78 193d 80b0 53bd b4af 243d
00000050: b62d 64bd 92f3 6a3b c506 42bd aec4 c23d
00000060: 9ffe 133c 7a1e 41bd 2181 f23d 3ddc 893b
00000070: 95ab bf3d 75f9 3e3d d6ca 57bc 38b7 5a3d
00000080: e2e4 973d 93fc c73d 5929 ef3d 3eee db3c
00000090: 8c5e e33d 477b 1dbd 89a3 e73d 7d47 19bb
000000a0: 5ad4 be3c 3bdf 833d 5c8e 04bc b07f 0ebd
000000b0: 756e 9bbc 2b57 2dbd e89e b93d 3bb6 d43c
000000c0: 38e2 ddbc 04af 113e 5429 16bc ec94 503d
000000d0: 63da ce3c ef59 86bb 2cbb cdbb 90e8 583d
000000e0: a674 b33d c213 a23d 3a24 b93c 5c88 15bd
000000f0: 3adb b73c 542d c4bc 013d 123d 8d6f cebc
00000100: 058e 55bc 9963 0cbd 18a2 0abd 3dd4 32bd
00000110: f4df d2bc 9cd8 103e 28e9 553d b431 ea3d
00000120: 26ea fd3c 41ca 3c3d f35f 0cbd be42 4bbd
00000130: 4bca 90bd af29 b73d 0da5 1b3d 0945 29bd
00000140: 4899 c43d a7cf a63d c297 643d 6034 8b3d
00000150: 0f3f a43c 3128 55bd 75f1 a73d e6c0 99bc
00000160: 208b e43d 364a c23d 25ee 8cbd d99e 14bc
00000170: 6a68 bf3c 57f4 76bb 2558 5b3d cde6 cc3c
00000180: c6c4 f63d 93a6 01bd fdeb 35bd b13c 89bd
00000190: 04bf fc3b 7a09 253c 7aa4 b1bc e502 7abc
000001a0: 3fd6 f93b cd68 ad3d 20e3 273d 540d f13c
000001b0: 0dd3 093d 04b8 2a3d f17a 973d 56ed 903b
000001c0: d2bf 1d3c 1d82 cb3c c70d 843d e05b b8bc
000001d0: 6996 083d 4685 dfbc adf3 003e 089d c33d
000001e0: 4b36 973d 2b5d c53b 5f1e 913d bc53 703d
000001f0: 11ef c63c c058 113c f17b ca3d 71fe ce3c
00000200: ba60 ee3c 9a14 283d 8a7d 763d 2901 25bd
00000210: 6d96 cc3d 8225 673c d1f4 65bb d32e 453d
00000220: 7ac4 113b c92b 943c e552 683d 9d74 18bd
00000230: 383b 403d 85cc a9bc 519d 0fbb ff1a 083d
00000240: 0271 0dbd d5b0 b93d 5e4b 17bd cade 57bd
00000250: 3867 1c3d 1717 2dbc f6fb 7abd 476b 053d
00000260: 86f5 9cbc 983c b5bb ad35 b1bc dcbd 14bd
00000270: d98a 093e 4355 53bb 0414 1fba 52f7 0e3d
00000280: 1caa c5bb f0b1 1fbd 6fe6 59bd 9d6a d83d
00000290: 1c42 4bbc 9b57 fbba 75d9 dc3d cee9 c53c
000002a0: b4b4 2cbd f11f db3c 59af 163e ed0d 35bd
000002b0: 7510 753d 9ce7 a23d 5a88 acbb 5b66 aa3d
000002c0: f674 b0bd ce9f ca3c 8039 133c 19fb ccbc
000002d0: 67bc 553d c3b3 883c 8d51 9d3c d72c 563d
000002e0: 31a0 6dbd 0229 c33d 2dd9 56bd fed2 423c
000002f0: d59f ed3b c5a4 5fbc 58c5 953d 068d 31bd
00000300: d76f 92bd 0556 8abd 0052 43bd c444 6b3d
00000310: 6c89 8dbd c3d5 f53d d3d3 8f3a b2d9 f8bc
00000320: 8f69 fc3d 11f7 c43d c7d2 243c 3d28 f63b
00000330: 86fa 58bd a741 d03d a0f5 343d 514e 68bc
00000340: dd24 573d 3639 933c 31ba 6fbd 7ffd 763c
00000350: 00a5 6cbd 899e 9f3d bb73 51bd 6c76 1c3d
00000360: 4a8e c93d bcb1 2f3d 66b2 54bc b84e 243c
00000370: 26aa 0cbd c207 963d 5b7a ce3d 0dfd 403d
00000380: a10f 1ebd 41b2 f239 d074 343c fea1 41bd
00000390: 0b73 72bd 53d3 e13d 6235 093e a770 783d
000003a0: 1a2d df3d b794 b03d c1a0 32bd 1699 0cbc
000003b0: 3363 03bd 6e2a 80bd 7ea0 88bb bc59 963d
000003c0: 0be0 af3d 740a 0fbd 4bc6 cf3d b5f3 db3d
000003d0: bec5 873d 5991 d83c 4ff0 9c3d 85f4 193c
000003e0: 9ef5 7a3d b45a 393c 89f7 c7bc efd9 8d3d
000003f0: 3bf8 e43a 68ea 9d3c 248d d43c 0bb1 d13d

net.4.bias f4 [14]
0.07557147 -0.04958806 -0.028610265 -0.014745844 0.012010061 0.0069578052 0.040018078 0.012606253
-0.059502576 0.00782689 0.058683954 0.0150555195 0.046121605 -0.04610136
00000000: 37c5 9a3d d91c 4bbd 1360 eabc 8d98 71bc
00000010: d9c5 443c 4dfe e33b ffe9 233d 758a 4e3c
00000020: f9b8 73bd 5b3c 003c 965e 703d 6dab 763c
00000030: 02ea 3c3d c8d4 3cbd
