checkpoint/final/agent_2/value.pth (torch, 318205 bytes, 5 tensors)

net.0.weight f4 [256, 49]
000000 d2 65 39 3e 9c 1e a3 bc c1 2d 14 3e 5c 65 a8 bd
       0.18105248 -0.019912057 0.14470579 -0.08222458
000010 b8 10 da 3d a2 6e 80 bd d0 1b ae bd 0a 9c ff bd
       0.1064772 -0.062711015 -0.085013986 -0.12480934
000020 d1 83 f9 bd 21 77 39 be 39 6a 1a 3e 7c 5c ed 3d
       -0.12183345 -0.1811185 0.15079583 0.115899056
000030 8b 83 00 be 3e ba 9d 3d 84 8f ac 3c 24 77 17 be
       -0.1255018 0.077015385 0.021064527 -0.14791542
000040 c7 b9 59 3d 59 72 97 3d 86 c6 0b 3d c3 5e dc 3d
       0.053155687 0.07394857 0.034124874 0.10760262
000050 b9 b7 0e 3d 15 31 1e be c3 07 6b 3d ac d1 bb bd
       0.03484318 -0.15448411 0.05738045 -0.09170851
000060 42 a3 00 3e 2f fa e1 bd af bf 42 3d 12 00 7e bd
       0.12562278 -0.11034047 0.047546085 -0.062011786
000070 83 a7 bd 3d b7 63 5b bd f7 b4 05 bd f8 14 9d bd
       0.09260466 -0.053561892 -0.032643285 -0.07670015
000080 7c 8f 64 3d 29 a6 8d 3d 1d 96 3e bc 9b 09 2e be
       0.0558009 0.06916458 -0.0116324695 -0.16995852
000090 53 fc a6 3d f0 b4 80 3d 0d 23 ba 3d 27 b2 81 3b
       0.08153596 0.06284511 0.09088717 0.003958005
0000a0 a6 b1 66 3d 76 e6 70 bd 79 9d 42 bd eb de c6 3d
       0.056321763 -0.058813535 -0.04751346 0.09710487
0000b0 dd 3e de bd 0b fa 46 bd 1c 20 f4 3c 2f 8b 9f 3c
       -0.10851834 -0.048578303 0.029800467 0.019475548
0000c0 94 63 ab 3d 16 39 ad bd 4f a5 91 bd b8 3f a7 3c
       0.083686024 -0.08458154 -0.07111608 0.020416126
0000d0 08 40 e4 3d ae 66 0a 3e e4 0e 72 be 5c 0c b4 bd
       0.111450255 0.13515732 -0.23638493 -0.0879142
0000e0 0a e2 f7 3d ab fc 00 3e d3 23 6c be 1c 1b 93 bd
       0.121036604 0.12596385 -0.23060541 -0.07182905
0000f0 c8 48 07 3d fe 26 1d 3e ab 57 60 be b6 d8 ef bd
       0.033028394 0.15346906 -0.21908443 -0.11711256
000100 34 f9 11 bd 83 b6 e1 bc da 13 9a bc 86 82 12 be
       -0.03563805 -0.027552849 -0.018808294 -0.14307603
000110 1d a7 e1 bd b1 5b 72 3d 68 0a f8 bc be a2 45 bb
       -0.110182025 0.059169475 -0.0302784 -0.0030156816
000120 d4 00 ad bc 35 1b b5 3c 94 a3 8b be a7 1a 8b 3c
       -0.021118559 0.0221077 -0.27273238 0.016980482
000130 25 2e f6 bd e6 fa 21 3e 47 42 75 be 3c 29 dd 3d
       -0.1202052 0.15818366 -0.23951064 0.107988805
000140 4c 6e ac bb 38 08 73 bd 57 86 ba bd fe c0 32 bd
       -0.005262172 -0.05933401 -0.091076545 -0.043641083
000150 59 b8 bb bd 3f 8a 0e be 70 0e 49 be 96 bc f4 bd
       -0.09166021 -0.13919924 -0.19634414 -0.119500324
000160 b3 71 0d be 79 80 12 be 6e a0 ce bd 34 3a 89 3d
       -0.13812904 -0.14306821 -0.10089193 0.067005545
000170 e3 c8 ac 3b 3c e6 11 be 4e 71 c9 bc 6e cc ed 3c
       0.005272971 -0.14247984 -0.02459016 0.029028144
000180 ef dd 86 bc ae 63 a9 3c 9e e2 48 bd 25 a7 c2 bd
       -0.016463248 0.020677414 -0.049044244 -0.095045365
000190 38 2f cd 3d 94 2f 37 be e7 43 10 3d c7 04 07 be
       0.10018772 -0.17889243 0.035221007 -0.13185416
0001a0 8d 3a ba bd 7c 79 4a bd e9 d9 4f 3d ce e6 86 bd
       -0.09093199 -0.049432263 0.050744925 -0.06586991
0001b0 e6 80 e5 bd bc 89 cf bd 78 4d 82 3c d0 f1 12 be
       -0.11206226 -0.101336926 0.01590608 -0.14350057
0001c0 fa 30 a2 3d 46 89 f0 bd cc 8c a7 bd b8 dc fe bd
       0.07919498 -0.11744933 -0.08181152 -0.124444425
0001d0 7d de cb 3d 57 92 f0 bd c9 aa 89 bc b2 d8 6a 3d
       0.09954546 -0.11746662 -0.01680507 0.057335563
0001e0 05 07 db 3d c9 45 f6 bd 85 67 24 be d6 ce ce bd
       0.10694698 -0.12025029 -0.16055115 -0.100980446
0001f0 2d 96 e2 3d d1 4c 1c 3e 2f 28 14 3d b8 83 50 be
       0.110638 0.15263678 0.036171135 -0.20362747
000200 6c 92 ef bd 45 1b 9e bd ac 06 0d be 7b f2 63 bd
       -0.1169785 -0.07720045 -0.13772076 -0.05565117
000210 65 fa 4f bd bd b7 ca bd 3c c0 9c bd f9 04 7c be
       -0.050775904 -0.098983265 -0.07653853 -0.24611272
000220 2f 04 5b bd fd d2 dd bc af 75 db bd ed 7d 2d be
       -0.053470787 -0.027078146 -0.10715806 -0.16942568
000230 18 6d bf bd dc de f4 bc ff 81 bf ba 61 07 07 bd
       -0.0934698 -0.029891424 -0.0014610885 -0.03296602
000240 3d 56 59 be 2b 85 45 3d 2a 38 3d be 77 c2 0d 3d
       -0.21224304 0.048222702 -0.18478456 0.034609284
000250 33 1e 31 bc af cb a2 3c 74 b6 9e 3d 84 c9 f7 3a
       -0.010810423 0.019872515 0.07749644 0.0018904661
000260 9c da 5e be 37 b4 54 be ef 00 c1 3d 30 78 d4 3d
       -0.2176308 -0.20771872 0.09424006 0.103744864
000270 fe c3 45 be 77 e6 21 bd 0c cd 22 bc 00 04 b4 3d
       -0.19313046 -0.03952643 -0.009936582 0.087898254
000280 15 c7 e6 bd f7 b0 96 bc 11 8e b2 3b f4 f2 14 3e
       -0.11268441 -0.01839493 0.0054490645 0.14545804
000290 96 46 54 be 97 97 78 3d 19 66 06 bd 01 12 0b 3d
       -0.20730051 0.060691442 -0.03281221 0.033952717
0002a0 a4 f9 09 be 03 78 a8 bd ab ba 4c 3c 49 c4 06 be
       -0.13474137 -0.082260154 0.012495677 -0.13160814
0002b0 d8 81 83 bd 43 e7 32 b9 72 bb 9e bc 6d 40 6a bd
       -0.0642125 -0.00017061555 -0.01937649 -0.057190347
0002c0 f7 0e 55 be 1b df 54 b9 f4 54 c6 3d 30 f5 1b bd
       -0.2080649 -0.00020301009 0.09684172 -0.038075626
0002d0 dd 45 0d be f9 4a 65 3d ab 99 c2 bc 1f 9b c1 bc
       -0.13796182 0.055979703 -0.023754915 -0.023633538
0002e0 2e 83 a3 3c 3f a7 9e 3d 2b 10 09 be 03 21 85 bc
       0.019960012 0.077467434 -0.13385074 -0.016251093
0002f0 71 bf 77 be 05 8e d0 3d ef 8b 0d be 56 6a 89 bd
       -0.24194123 0.10183338 -0.13822912 -0.06709735
000300 34 7e 61 bc ea 9d 91 3d ed db 9e bd 2d fc 68 3c
       -0.013762999 0.07110198 -0.07756791 0.01422028
000310 85 16 5f bc 4f 87 58 bd ee 25 8c 3d be cf 05 3e
       -0.013616209 -0.052863415 0.06843172 0.13067529
000320 8e 3a 9e 3c 03 15 11 3e d2 f9 29 3e cc b5 ce 3d
       0.01931503 0.14168172 0.16599205 0.10093269
000330 ea c2 51 3d 91 15 a5 3d 1f e2 a9 3d 55 56 cf bc
       0.051211275 0.08060754 0.08295082 -0.025309721
000340 36 d8 24 3e f9 6c 8f bc 21 e3 93 3d c5 fb 35 3e
       0.16098103 -0.017508017 0.07221056 0.17771824
000350 d4 5d 0d 3d 1e 31 12 3e e6 18 3a 3d 8f a9 99 3d
       0.03451331 0.14276549 0.0454339 0.07503044
000360 d3 ec d1 3c 70 13 c2 bd c8 43 b0 bd ea 3e d4 bd
       0.025625622 -0.09476364 -0.08606678 -0.103635624
000370 61 22 bb bd 20 45 41 3c b2 e2 11 3e 7f 0d 63 bd
       -0.09137417 0.011796266 0.14246634 -0.055432793
000380 ba c5 ef bd d4 e2 c9 3c aa 4a c4 bd 12 ec 48 bb
       -0.11707635 0.024644293 -0.095845535 -0.0030658287
000390 42 e8 cf 3d 98 51 1a 3d 85 14 21 3e 40 c1 a2 3c
       0.101517215 0.03767547 0.15730484 0.01986754
0003a0 84 a7 c2 bd 6f 30 09 be dd 12 e5 bd 96 ab 17 3e
       -0.09504607 -0.13397382 -0.111852385 0.14811549
0003b0 f5 3b 27 3e f0 10 11 3e 9b 50 9f 3d 28 49 c0 3d
       0.16331466 0.14166617 0.07779046 0.093889534
0003c0 39 0a 4a 3e 41 b3 c1 bc db 29 f1 3d 4b 85 8d 3d
       0.19730462 -0.023645045 0.117755614 0.06910189
0003d0 ab 8f 2e be 06 06 93 3d 67 a2 ea 3c 1b 40 29 be
       -0.17046992 0.07178883 0.028641893 -0.1652836
0003e0 e4 dc c4 3d 42 1e 65 bc f9 eb 58 3e a3 c1 06 3e
       0.09612444 -0.013984265 0.21183766 0.13159804
0003f0 48 77 8e 3d a8 31 00 bc 88 73 82 bd fc 5a 7a 3d
       0.06956345 -0.007824339 -0.06369692 0.061121926

net.0.bias f4 [256]
000000 eb 94 41 3d fd e9 af bc 98 10 b0 bd 48 e8 a6 bd
       0.04726116 -0.021473879 -0.08596915 -0.08149773
000010 fa 2f bd bd 27 e7 20 3e 7c 31 61 be a9 f4 96 3d
       -0.092376664 0.15713178 -0.21991533 0.07370884
000020 a1 b9 42 3e 72 16 f3 bb a7 78 9f 3e 1d 90 ea 3d
       0.19016124 -0.007418447 0.31146738 0.11453269
000030 12 f0 44 bd 98 d4 81 bd bb ce d7 bc ac 5e 67 3a
       -0.04808051 -0.06339377 -0.026343694 0.0008826058
000040 e3 6d 38 3c f8 1a a5 3d 40 28 3d 3d 52 3d a4 bc
       0.011256668 0.080617845 0.046180964 -0.020048771
000050 dc 4b 0f 3e 8e f5 57 3e 6a b9 97 3d 96 bd d7 bd
       0.13993782 0.21089765 0.07408412 -0.105342075
000060 66 05 02 3e 49 74 9f 3e 41 92 83 bd 27 46 d2 3c
       0.12697372 0.31143406 -0.0642438 0.025668217
000070 84 88 fa bd 4e e0 87 3e 86 c5 a5 3c 9c 9b db 3d
       -0.122330695 0.26538318 0.020235788 0.107230395
000080 fd 75 23 3e 39 92 d9 3d 12 9c 4e bd 46 9e 1a bd
       0.15962978 0.10623593 -0.05044181 -0.037748598
000090 cc bd 8c 3d 09 bd f4 bd d4 65 61 3d a7 8c c2 bd
       0.068721384 -0.11950118 0.05502875 -0.094994836
0000a0 eb 18 4a bc d2 f4 fc bd 37 70 ef 3d 1a cd 17 3e
       -0.0123350425 -0.12351383 0.11691325 0.14824334
0000b0 74 27 a2 3e 65 73 98 3e 78 1c bf 3e 31 69 1c 3e
       0.31670725 0.2977554 0.37326407 0.15274502
0000c0 06 b6 89 3d 6c 67 d4 bd cb 97 53 bd 78 37 f0 bd
       0.06724171 -0.10371289 -0.051658433 -0.1172933
0000d0 39 0c 1f bd 5b c4 96 3e c6 3f 9e 3e 63 4b 95 bc
       -0.038830016 0.29446682 0.3090803 -0.018224424
0000e0 68 d4 e3 bd 84 2e 10 3e bf 8d 1b 3b c4 89 1f 3d
       -0.11124498 0.14080244 0.002373561 0.038949743
0000f0 07 fe e2 bd c8 d5 8b bd ec ee 84 3e 1c 13 52 3e
       -0.11083608 -0.06827885 0.25963533 0.20515102
000100 19 d4 00 3d e8 2d 7f bd b7 0f f3 bd 3d 04 5d 3e
       0.031452272 -0.06229964 -0.11868232 0.21583648
000110 bb 00 47 bd 49 ee e0 3c 57 c8 fe bd 51 f6 ec 3d
       -0.04858468 0.027457373 -0.124405555 0.115704186
000120 da a9 9f 3c 98 8e a8 bd 55 3c 64 bd a2 f7 f9 3d
       0.019490171 -0.082303226 -0.0557216 0.12205435
000130 a5 0b ba bd 76 38 85 3e 3d 78 e1 bd 47 de c6 3e
       -0.09084252 0.2601964 -0.11009262 0.3884146
000140 4b 5f af 3e d0 44 c4 3c c6 c7 e6 bd 5e 1d 1a be
       0.3425239 0.023958594 -0.112685725 -0.15050265
000150 1b 59 bb bd e4 62 03 3e 7d 72 b0 3d d7 75 0f 3a
       -0.09147855 0.12830693 0.08615587 0.00054725766
000160 e4 83 e9 bd b9 da 06 3d f7 39 04 3d 9c aa b9 3e
       -0.11402109 0.032923434 0.032281842 0.36262977
000170 5b 26 66 3d eb a2 c5 3d 43 52 1f 3e fb 95 45 bc
       0.056188922 0.09650215 0.15558724 -0.012059684
000180 aa 86 26 3e 26 9e 01 be 3f da ca 3d 4c e9 0a 3e
       0.16262308 -0.12657985 0.099049084 0.13565558
000190 7c b0 c1 3d 82 d6 02 3e 67 c5 51 3d c5 8e d8 3e
       0.0945749 0.1277714 0.05121365 0.42296425
0001a0 af f3 d0 3d a0 e8 08 be eb 21 f9 3b 34 8e c9 bd
       0.10202729 -0.1336999 0.0076029203 -0.09841576
0001b0 09 77 7f 3b d8 ee e1 bd 95 04 5b 3e 6a 4d ab 3c
       0.0038980863 -0.11031884 0.21388467 0.020910937
0001c0 14 9a f5 bc ac 34 17 3e 28 20 67 3e 48 13 42 be
       -0.029980697 0.14766186 0.2257086 -0.18952668
0001d0 b8 67 1b bd 7d c3 4c 3e 1d 43 9c 3e 06 3a 1b bd
       -0.03794071 0.19996448 0.30519953 -0.037897132
0001e0 b3 72 d4 3e 17 d3 5f bd 56 8d e4 3c c4 ad bb bd
       0.4149376 -0.05464467 0.027899425 -0.091640025
0001f0 b7 01 7c 3e e8 d4 36 bd 3f 2a 1b bd 65 07 08 bd
       0.24610029 -0.044636637 -0.037882086 -0.033210177
000200 3c 6c 1c 3e 7d c7 bd bc d3 76 95 3d cf cd dd bd
       0.15275663 -0.023166412 0.072980545 -0.108302705
000210 cc 0a 6a 3d 8c 82 31 3e a5 7d 0f be 97 a6 fd bd
       0.057139203 0.17334956 -0.14012773 -0.1238529
000220 77 d0 08 bc e4 69 c4 bd b4 6c fc bc 52 b3 a9 3b
       -0.008350483 -0.095905095 -0.030813552 0.0051788474
000230 97 be b1 3c a9 fd 9c 3b a3 a4 44 3c b1 e4 03 3e
       0.021697326 0.004790981 0.012002143 0.12880208
000240 6c d7 04 3d 33 9a e3 bc 64 55 b4 3e 58 bb d1 3d
       0.032432005 -0.027783489 0.35221398 0.10240811
000250 a1 f2 35 bd 6f 1f 10 bb 6c e9 e3 bd 5e 3a 40 3e
       -0.044420842 -0.0021991392 -0.11128506 0.18772265
000260 82 ed 44 be d0 b9 05 3e 03 33 be bd 5c 47 5e 3e
       -0.19231227 0.13059163 -0.092870735 0.21706909
000270 15 34 ce bd e4 94 54 3e 2c 83 05 bd 05 2d 8f 3c
       -0.100685276 0.20759922 -0.0325958 0.017477522
000280 48 bc 69 bd 76 5e 06 bd 71 96 77 3d 96 47 8c 3d
       -0.057064325 -0.03280493 0.060446206 0.068495914
000290 34 45 9a bd 17 31 b7 3e d4 05 d8 3d d6 fc 2a be
       -0.07532731 0.3577964 0.105479866 -0.16698012
0002a0 6e c6 a4 3e 18 b2 3a 3d 4e fe 86 3d ee ff b1 3e
       0.3218264 0.04558 0.065914735 0.3476557
0002b0 2e 39 4c 3d 67 73 ea bc 5d 31 37 bd 61 cf 7d 3b
       0.04985922 -0.028619481 -0.04472481 0.0038728344
0002c0 46 48 1e be 75 72 b8 3d 73 73 76 bd b1 a5 96 bd
       -0.15457258 0.09006206 -0.060168695 -0.07355822
0002d0 4f 46 44 3e d3 bb 37 3d 99 51 9a 3c 62 96 6e 3b
       0.19167446 0.044856858 0.018837737 0.0036405553
0002e0 0a da 8c bc eb 62 8e 3e 69 d0 5b 3e f2 29 89 3e
       -0.017193813 0.27809843 0.21466221 0.26789814
0002f0 33 fc b9 3d 71 07 9b 3e 49 61 75 3e 99 ff 21 3e
       0.09081306 0.30279115 0.23962893 0.15820159
000300 a6 40 b3 3d bb 6e c8 3e 34 1c 87 3e 55 bf bf 3b
       0.08752565 0.3914698 0.26388705 0.005851666
000310 58 26 a1 3d 14 99 4c 3d 1a dc dc 3d 24 5b fc bd
       0.078686416 0.049950674 0.107841685 -0.12322071
000320 1a 2c 87 bd 4c 08 b9 bc 8b ae 81 3c 63 60 cc bd
       -0.066002086 -0.022586964 0.015830299 -0.09979322
000330 e2 a7 93 3e e4 3d 05 3e c0 5b b2 bd c9 0a ad 3d
       0.28839022 0.1301189 -0.08708906 0.08449323
000340 0c 6c 6d 3d 39 bd 1d be 6b d8 9d bd 6d 15 2d 3e
       0.05796437 -0.15404214 -0.07707294 0.16902705
000350 3b 9a 9a 3d aa c8 47 be 7c 55 fa bd 92 bb 3e 3d
       0.075489484 -0.19510141 -0.12223336 0.0465656
000360 c1 bc bd 3e 42 e0 ae bd 7f 1d 33 3e 3e a2 7d bd
       0.3705807 -0.085388675 0.1749172 -0.061922304
000370 2a 9a bb 3d b4 b7 08 3e 3a 6e 30 be 4d 19 8d 3e
       0.09160264 0.13351327 -0.17229548 0.27558365
000380 6c 41 b4 3d 6e 80 68 3d dd 95 d1 bd f2 66 10 be
       0.08801541 0.056763105 -0.10233662 -0.1410177
000390 2b 49 89 3c 54 ce 87 3d 2e 6d a5 3e 7f 52 c5 3d
       0.016758522 0.06631151 0.3230986 0.096348755
0003a0 0b e2 cf bd 4f b1 50 3c 5f ab 0b be 4e 2c 5b 3e
       -0.10150536 0.012737586 -0.13639592 0.2140362
0003b0 66 2e a3 3e 22 6b 11 be 1d 6c 41 3e 54 29 06 3e
       0.31871337 -0.14201024 0.18888898 0.13101703
0003c0 56 2d 58 3e 12 7a 20 bd d8 e9 22 3d e2 81 6d 3e
       0.21111044 -0.039178915 0.039773792 0.23194078
0003d0 53 30 3f 3e 36 4c 1a be 91 0e 93 3d 74 25 1d be
       0.18670778 -0.15068135 0.07180513 -0.15346318
0003e0 7a 3a a7 bd 4b 39 f8 bd ae 8e a2 3a d6 6c 2c be
       -0.081654504 -0.12120303 0.0012402141 -0.16838393
0003f0 5a 95 2c bd 05 4c c4 3c a8 68 d2 bd e6 96 9b 3d
       -0.04213462 0.02396203 -0.10273868 0.07597141

net.2.weight f4 [256, 256]
000000 8d 38 01 bd 89 1a c2 bd ad 49 8e 3b 5f ce 8e 3b
       -0.03154807 -0.094777174 0.004342279 0.0043580974
000010 7a 59 46 3d 0a c5 46 3d 67 e7 41 3d 88 8c 32 bc
       0.048425175 0.048527755 0.047339823 -0.010897763
000020 8b 95 93 bc 72 35 11 bd 61 49 4f 3d 28 12 9c 3c
       -0.018015644 -0.03545136 0.05060709 0.019051626
000030 81 61 d1 bd 54 8e 64 bd a4 64 6e 3b e2 31 db bc
       -0.102236755 -0.055799797 0.0036375904 -0.026757184
000040 a6 4d ed bc 59 66 f0 3c 5e 84 52 3c d8 6e 41 be
       -0.02896769 0.029345678 0.012848942 -0.1888994
000050 14 9a da 3b a3 12 80 3d 44 62 13 bd 20 be ab bb
       0.0066711996 0.06253555 -0.035982385 -0.0052411705
000060 cb 29 45 bd 23 d7 dd 3c 71 0f 8d bc 19 5e e3 3c
       -0.04813556 0.027080124 -0.017219277 0.02775483
000070 4a 19 94 bd c0 9c 25 3e 25 d8 00 bd 93 e0 53 3d
       -0.07231386 0.16173077 -0.03145613 0.051727843
000080 ee 97 00 3c c4 91 3f 3d da 61 c5 bd 8f ac 67 3c
       0.007848723 0.046769872 -0.09637804 0.014140262
000090 3c d6 f3 bc 42 02 87 bd 36 54 2c 3a 23 d6 55 bd
       -0.02976524 -0.065922275 0.00065738277 -0.05220617
0000a0 4a 24 de 3a bd 04 ab bd f3 5c 81 3d 65 dd 65 3d
       0.0016948071 -0.08350513 0.06316557 0.05611934
0000b0 37 14 dd 3d 19 43 b3 3d 83 d7 86 3d 14 eb b0 3d
       0.10794871 0.08753032 0.06584074 0.086385876
0000c0 62 c6 06 bc b1 ab 73 bc c0 bb 59 3d 90 d5 7f bd
       -0.008226009 -0.014872477 0.053157568 -0.06245953
0000d0 e5 44 13 3d 7e 22 a8 3d 31 41 01 3e fa f1 31 bb
       0.035954375 0.08209704 0.12622525 -0.0027152286
0000e0 75 35 7f bd 02 3a e8 3c 45 c2 0b bd 6f d9 cf bc
       -0.06230684 0.028347973 -0.034120817 -0.025372235
0000f0 87 48 53 bd 15 7a f3 bc 35 06 c6 bc af 26 92 3d
       -0.05158284 -0.0297213 -0.024172882 0.071362846
000100 d0 9d bf bd f6 b7 07 3d 84 64 ea bb f6 45 11 3d
       -0.09356272 0.033134423 -0.0071530957 0.03546711
000110 45 d1 c4 3c f2 75 f4 bc 9d ed 4f bd fa 93 7e 3d
       0.024025569 -0.029841397 -0.050763715 0.06215284
000120 7b 9e d6 bc 29 d0 69 bd c0 01 91 3b 86 c2 f4 3d
       -0.026198616 -0.057083283 0.0044252574 0.11951165
000130 9a 75 5b bd 6f a1 91 3d b6 58 b8 3c 13 33 1a 3d
       -0.05357895 0.07110869 0.022503238 0.037646364
000140 df ad 54 3d d2 7b a6 bd 1d fe 47 bd 3c 3e 2f bd
       0.05192363 -0.081290856 -0.048826326 -0.04278396
000150 60 b7 ff bc 45 25 75 3b f6 ea 90 bd a4 4e 1c 3d
       -0.03121537 0.0037406248 -0.07076065 0.038160935
000160 c3 7d 9d bd d3 d2 1c 3d 81 f4 d2 3c e9 bb ba 3d
       -0.07690003 0.038286995 0.025751354 0.09117872
000170 7f 56 2b 3c 94 6a 11 3c 2e a3 a7 3b fa 83 a9 3d
       0.010457634 0.008875508 0.005115888 0.08277126
000180 a9 30 6e 3d fe 8e 8e bd 07 5d 2c 3d 4a 46 d7 bc
       0.058151875 -0.06960867 0.042080905 -0.026278634
000190 4c 59 6c 3c d2 ad 88 3d 38 1a ee bc 86 c8 d2 3d
       0.014425587 0.066737786 -0.029065236 0.10292153
0001a0 b8 8b 7c 3d 10 bf 33 3d 94 29 01 3d b3 c7 06 bd
       0.061656684 0.043883383 0.031533793 -0.03290529
0001b0 00 a4 97 bd fd 82 82 bc 46 5f 6c 3d b0 5e 6a 3d
       -0.074043274 -0.0159316 0.057708047 0.057219207
0001c0 4e 04 35 3a 0f 4e 94 3d 20 a1 79 3d 93 d3 21 3c
       0.00069052435 0.07241451 0.060944676 0.009877103
0001d0 66 34 08 bd b4 e4 63 3d 6a 30 69 3d 58 90 ce 3b
       -0.033253096 0.05563803 0.056930937 0.006303828
0001e0 be 5b cb 3d 02 b3 80 bd c6 77 00 3d 40 11 5c 3d
       0.09929608 -0.06284143 0.031364225 0.05372739
0001f0 6d f4 02 3d bf ba 1a 3d cb db 22 3d e2 31 3d bd
       0.031971384 0.03777575 0.039760392 -0.04619015
000200 31 f1 a2 3d ad 56 45 bd 80 d2 2b bb aa af 47 bd
       0.0795616 -0.048178364 -0.0026217997 -0.04875151
000210 4c 6c e7 3b d9 c3 16 3e d5 23 1a bd 39 b1 1b 3c
       0.0070624705 0.14723147 -0.03763183 0.009502702
000220 d0 6b 4a bd 0f 76 e5 3b 01 b7 0b 3d 96 a4 1c 3d
       -0.049419224 0.007002599 0.034110073 0.0382429
000230 fa af 92 bb 2d 9f 66 bd 85 cc 26 bc 14 5a 49 bc
       -0.0044765444 -0.056304146 -0.010180597 -0.012289543
000240 c3 9c b0 3d db 00 84 3c fd 48 2f 3e ab e4 35 3c
       0.0862365 0.01611369 0.17117687 0.011101882
000250 ba 0c 23 bd 48 09 5b 3d 74 10 2e 3c 7b aa 0f 3e
       -0.03980706 0.05347565 0.01062404 0.14029877
000260 c1 81 e2 3b a9 f3 11 3c f1 02 b8 bc 4d 82 09 3d
       0.0069124405 0.008908191 -0.02246234 0.03357153
000270 40 92 85 bc 12 49 81 3d 57 2f df bd 6b 72 02 be
       -0.016305089 0.06312765 -0.10897701 -0.1273896
000280 f0 8f 82 bc ce 2f 6c 3d 50 bf 64 bd 27 55 f4 3b
       -0.015937775 0.057662778 -0.055846512 0.00745644
000290 b1 33 76 3d 30 5e 12 3e 8d 0d 3b 3d 19 ee ce bc
       0.06010789 0.14293742 0.04566722 -0.025260018
0002a0 8e da d5 3d bd 05 2d 3c 61 e9 1a bd 70 8e ad 3d
       0.104420766 0.01056045 -0.037820224 0.084744334
0002b0 4c e4 8a bd 7e 46 05 be c7 6c 17 3d a3 e5 df bc
       -0.067818254 -0.13015172 0.036968973 -0.027331179
0002c0 82 5f 77 3d 47 4f ce bc 8a 62 c4 bc 11 43 0b 3d
       0.060393818 -0.025184287 -0.023972768 0.033999506
0002d0 a4 92 48 3d 0a a2 3a 3d 29 ea 70 bc 47 87 13 3d
       0.048967972 0.04556469 -0.014704266 0.036017682
0002e0 60 b0 12 bd 89 22 87 3d 78 c0 e3 bc 6f a9 d4 3d
       -0.035812736 0.06598384 -0.027801737 0.103838794
0002f0 f8 d5 4f 3d d7 cb e1 3d 10 d8 a0 3d 4b a9 64 3c
       0.050741166 0.110252075 0.07853711 0.013956378
000300 6e 26 23 3d 50 2a dc 3d bf 08 f1 bc 58 21 b5 3c
       0.03983157 0.10750258 -0.029423116 0.022110626
000310 e4 aa af bc ad 24 ed 3c bb 78 ee 3c 92 cf 8a 3d
       -0.021443792 0.028948152 0.029110303 0.06777872
000320 25 09 83 bd af a2 4e 3d 89 68 49 3d 22 6b 71 bd
       -0.063982286 0.050448116 0.049171958 -0.05894006
000330 55 46 eb bb a2 a3 20 bd 5a 3f 2d bd 60 9e 4f bd
       -0.007180015 -0.039218552 -0.042296745 -0.050688148
000340 52 c1 4e 3d 6b 84 33 bd fd 51 3c bd 6e 63 66 3d
       0.050477333 -0.043827455 -0.045976628 0.056247167
000350 a3 51 b7 3b 00 3d 45 bd 81 3c cd bd 94 69 90 bb
       0.0055944487 -0.048153877 -0.10021306 -0.004407117
000360 e7 47 08 3e 5e 89 96 3b e3 65 79 3d 66 5c 58 bb
       0.13308679 0.004594012 0.060888182 -0.0033014058
000370 19 d3 5e 3d e4 38 01 bd 61 85 8c bd 53 84 c1 3d
       0.054400537 -0.031548396 -0.068613775 0.09449067
000380 62 cf 55 3d 0a 09 67 3c 04 28 71 bd d4 6f 74 bc
       0.05219973 0.014101276 -0.058876052 -0.01491924
000390 ae 1e b0 bd 7c 42 ed bc fe d9 6a 3d 71 5a ae 3c
       -0.08599602 -0.028962366 0.0573368 0.02128336
0003a0 01 7f 71 b9 78 dc 03 bd f4 ba dd bc 10 c9 bf 3d
       -0.00023030864 -0.032192677 -0.027066685 0.093645215
0003b0 61 5f 94 3d e2 65 6d 3d ca a8 1d bc 26 d0 81 bc
       0.072447546 0.05795849 -0.009622762 -0.015846323
0003c0 be a7 c2 3d f4 d5 06 3d 75 7d c4 bb 6a 91 fa 3d
       0.095046505 0.032918885 -0.005996401 0.12234767
0003d0 a3 61 c4 3d b5 e5 f8 3c d5 ec 66 3d ca 5b 66 3c
       0.09588935 0.03038297 0.056378204 0.01405997
0003e0 d4 8e d0 bd 12 e4 86 bc 12 a5 a3 bc 93 06 47 3c
       -0.10183492 -0.016466174 -0.019976173 0.0121475635
0003f0 4b bc 18 bd 12 d4 04 bd 41 ed 1e 3d 6d 8e 9c 3c
       -0.037288945 -0.03242881 0.03880048 0.019110883

net.2.bias f4 [256]
000000 61 78 7a 3e cb 39 40 bb b4 91 7d bd d7 09 8b bd
       0.24459983 -0.0029331322 -0.06190653 -0.06788986
000010 87 8d 79 3e ac 8e 90 bd 34 43 9f bb f7 0b 0c 3e
       0.24370395 -0.070584625 -0.004860306 0.13676439
000020 e9 9a 70 3e f1 ca c7 3c b8 6a 6e 3e e9 2c 4f 3e
       0.23496594 0.024388762 0.23282897 0.20231976
000030 fc 14 8c bd ce ee 23 3e 60 a5 0b bd 4e 78 90 bd
       -0.0683994 0.16009066 -0.03409326 -0.07054196
000040 b4 36 31 bd 7f c3 bd 3c b2 54 5f bd 04 2a 87 bd
       -0.04326506 0.023164509 -0.05452413 -0.06599811
000050 3a c5 e1 3b 06 14 6f bd 0c 14 12 3d a7 61 c1 bd
       0.0068899663 -0.058368705 0.03566365 -0.09442454
000060 1a 95 61 bd 4f 11 2b 3e b7 9c 1f bc 7c df c2 bb
       -0.055073835 0.16705821 -0.009741954 -0.0059470516
000070 7e e7 cf bd d8 cc ae bc 62 20 db 3c f9 1b 85 3e
       -0.101515755 -0.021337911 0.02674884 0.25997904
000080 c2 4c 28 bd 9e cc bb bb 9b aa 98 bd 89 d8 ca bb
       -0.041088827 -0.0057311794 -0.074544154 -0.006190364
000090 bd 18 4a 3e 41 33 38 3d 52 19 16 bc c7 de ad bc
       0.19736 0.044970755 -0.00916131 -0.021224393
0000a0 0e a6 5c 3e 28 fc 44 bd ed 82 6b 3d 78 b8 72 3e
       0.2154772 -0.048092037 0.057497907 0.23703182
0000b0 83 3d 44 3d ac a3 6f 3e 0a 64 a6 bc 27 0d 81 bd
       0.047910225 0.2340228 -0.020311374 -0.06301337
0000c0 e0 71 01 bd 6d 28 70 bd 0e 53 61 bd d8 c7 9e bd
       -0.03160274 -0.058632303 -0.055010848 -0.07752961
0000d0 f0 a1 45 3b eb 0a a8 bd 52 a5 1c 3d 88 8f 61 3e
       0.0030156337 -0.082052074 0.0382436 0.22027409
0000e0 b0 1d 44 3e 67 9b 12 bd 6b 2c 20 bd e9 3f e5 bb
       0.1915195 -0.035792734 -0.03910486 -0.006996144
0000f0 93 e3 30 bd 82 78 58 bd 31 d9 9d bd 7a 43 6a 3e
       -0.04318578 -0.0528493 -0.077074416 0.22877303
000100 c4 64 6e bd 1d ef ae bd 94 e6 6e 3e 08 41 49 bd
       -0.058201566 -0.08541701 0.23330146 -0.049134284
000110 40 93 b3 3b fa 0b 36 bc 05 b3 05 bd 11 80 30 3e
       0.0054802 -0.011111254 -0.03264143 0.17236353
000120 6a 7f 1e 3e 20 24 f5 3d 99 27 7d 3e 33 96 3f bd
       0.15478292 0.11969781 0.24722137 -0.0467741
000130 7f e8 55 bd 9e cb 80 bd 39 4d 69 3e e1 9b 4d 3e
       -0.05222368 -0.06288837 0.22783364 0.20078994
000140 25 59 9c 3c b8 52 50 bd 9c d9 3d 3e 21 5b be bd
       0.019085476 -0.050860137 0.18540043 -0.09294725
000150 08 65 8b bd c5 68 b7 bd b3 8a 7a bc b0 6b 55 bd
       -0.068063796 -0.0895553 -0.0152918575 -0.052104652
000160 fa 25 4c 3e 53 99 65 bd dc fc b8 3b 85 bd 29 bc
       0.19936362 -0.056054424 0.0056453776 -0.010360126
000170 2d 35 1a bd cb a5 91 3e 9d 88 0b bd ae 52 20 bd
       -0.03764837 0.28446802 -0.03406583 -0.03914135
000180 b1 3c 84 bd af 9c 74 bb 4f d4 33 3e 1e db 39 bd
       -0.064568885 -0.0037324836 0.17561458 -0.045374982
000190 78 d4 ac bb a4 36 ac bd 9a 9f 87 3e e4 0a 01 bb
       -0.0052743517 -0.08408859 0.26488954 -0.001969033
0001a0 1c e7 9b bc 27 8d 91 3e 2f f3 6e 3e 59 fc 84 3c
       -0.0190311 0.28428003 0.23334955 0.01623361
0001b0 8f ee 7d 3e 41 c1 ff 3d ce 18 6d 3d ff 4e 0d 3e
       0.24798034 0.12488032 0.057884984 0.13799666
0001c0 1b 60 5c bd d6 59 3e 3d f0 b5 81 bb 14 c0 c8 3c
       -0.05380259 0.046472393 -0.003958456 0.024505652
0001d0 d1 f5 4f 3e 81 4c 8f 3c 53 46 b3 bd 73 e1 87 3e
       0.20308615 0.017492535 -0.08753648 0.26539192
0001e0 8a 67 56 bd fe 8b 3d bd 0b 62 d9 bd af c0 9e 3b
       -0.052344836 -0.046276085 -0.10614403 0.004844747
0001f0 29 bc 6e 3e d6 7d 6c bd fe 7b 5b bd 96 64 69 bd
       0.23313965 -0.057737194 -0.053585045 -0.05698069
000200 95 b4 94 bd 15 ec a0 3c 3b 93 61 bd 43 11 02 bd
       -0.07261006 0.019643823 -0.05507205 -0.031754743
000210 ae ec 14 bd 36 fb 23 bd b9 b2 8a 3e 9e 78 ca bc
       -0.036358528 -0.040034495 0.2708948 -0.024715718
000220 1c e0 a1 bd 1e ee 8c 3e 7b 16 20 bb a1 22 8a 3e
       -0.079040736 0.2752542 -0.0024427462 0.26979545
000230 ae ec 65 3e 43 71 31 3e 75 92 e0 bc 36 76 5c bd
       0.22453567 0.17328362 -0.027413586 -0.053823672
000240 ef 46 3b bd c6 60 0f bc 09 22 7c bc 0a 6f d8 3c
       -0.045721944 -0.0087511 -0.015388974 0.026420135
000250 0b c5 48 3e c8 eb c1 bd 73 86 76 3e bf ab a7 bd
       0.19606416 -0.094688 0.24074726 -0.08187055
000260 a0 13 41 3e 90 cb 51 3e 2f 47 a5 3d 88 74 82 3e
       0.18855143 0.20487809 0.08070218 0.2547953
000270 18 71 20 bc 08 69 3a bd e0 1e 22 bb 3c a3 44 3e
       -0.009792589 -0.04551032 -0.0024737641 0.19202894
000280 a3 ff 32 3c d7 c5 51 ba 8c 95 23 bd d2 37 5e bc
       0.010925206 -0.0008002198 -0.03993754 -0.013563113
000290 ad ff c4 bd 2c aa 90 bd 93 0a 8a bd b8 d5 56 3e
       -0.09619079 -0.07063708 -0.06740298 0.20979965
0002a0 5c bc 54 3e 80 ef 10 3d b5 9e d1 3c 42 82 b1 bc
       0.20774978 0.035384655 0.025588373 -0.021668557
0002b0 75 ec c4 bd 0b 07 e3 bb 91 79 7a bc d8 0d 3a bc
       -0.09615413 -0.00692833 -0.015287773 -0.01135584
0002c0 05 95 70 bd 25 74 0a 3a 4e 4b 91 3c 51 7e b3 3e
       -0.058735866 0.0005281589 0.017736103 0.3505731
0002d0 03 b1 f1 bb f3 f8 90 bc 54 1e 6e 3e a1 cf 97 3b
       -0.007375838 -0.017696833 0.23253757 0.0046329056
0002e0 64 0f 6d 3e 5d 37 9a bc 50 7e 33 3c ce 84 17 3d
       0.23150402 -0.018825227 0.010955408 0.036991887
0002f0 fe 68 e8 bc 73 f1 76 3b 5c 11 68 3e 1a 89 70 3e
       -0.028370377 0.0037680536 0.22662872 0.234898
000300 89 4d 90 bd 04 eb cd bd 2a 22 ca 3c 20 ea 64 bd
       -0.07046039 -0.10054591 0.024674494 -0.05588734
000310 78 ac 0b bd f9 2b da 3d f4 ac ba bd ae e7 b6 3c
       -0.034100026 0.10652918 -0.091150194 0.02232727
000320 7a ac 6a bd 61 cd be 3c 79 1e 4d 3e 03 3b e1 bc
       -0.057293393 0.023291292 0.20031156 -0.02749396
000330 8f 93 36 3e 82 a0 a7 3d 4f 4e 54 3e c7 c2 85 bd
       0.17829727 0.08184911 0.20732997 -0.065312915
000340 3a b8 3d 3e e7 b5 90 bc 29 ce d9 3c 67 cd 6c bd
       0.18527308 -0.017664863 0.026587563 -0.057813074
000350 9b 20 c8 3d bc 79 14 bd 23 80 73 bd 09 93 61 bd
       0.09771844 -0.036248907 -0.059448373 -0.055071864
000360 01 50 08 3c 20 5f 9b 3e 58 0e a6 3e a8 95 3a bb
       0.008319856 0.30346012 0.32432818 -0.002847055
000370 08 29 8e bd 12 f8 ce bc 57 61 4a bd e5 f0 5b 3e
       -0.0694142 -0.025264774 -0.049409237 0.21478613
000380 a3 e8 86 bd ee 2b 84 3e f0 17 27 bd 69 26 37 3c
       -0.06587341 0.25814766 -0.040794313 0.011178591
000390 09 86 71 bc cb 10 6c bd 20 c5 45 bc 0d 90 74 3e
       -0.014741429 -0.057633203 -0.012070924 0.23883076
0003a0 1d fb ae bd f1 04 7a 3e 34 9a e2 bc 8f f1 86 bd
       -0.0854399 0.24415947 -0.02766142 -0.065890424
0003b0 0a ae 2d 3c 54 fa 06 3c b7 85 5d 3e 35 11 10 3d
       0.010600576 0.008238394 0.2163304 0.03517266
0003c0 fc af 81 bd 51 9a c0 bc 6d c0 7f bd 7a ae e2 bc
       -0.063323945 -0.023511084 -0.06243937 -0.027671088
0003d0 e3 70 3d bd 88 92 86 3c 36 38 ed bd 78 61 6c bd
       -0.046250235 0.016427293 -0.11582987 -0.05771014
0003e0 59 d6 b3 bd 7d d6 83 3e f7 e5 f5 bc 2b 52 4c 3e
       -0.08781118 0.2574958 -0.030016882 0.1995322
0003f0 00 ab 9e bd 61 a8 b1 bd 3c 73 80 bc f0 56 8f 3e
       -0.077474594 -0.08674694 -0.015679948 0.27996016

net.4.weight f4 [1, 256]
000000 04 85 39 3d 68 f6 2c bd 4e 3b 95 bd 2a 5b b3 bd
       0.04529287 -0.04222718 -0.07286702 -0.087576225
000010 09 a3 f8 3d dc 2e 7f bd 19 2b 41 bb 67 7f f5 3d
       0.121404715 -0.062300548 -0.002947515 0.11987191
000020 ed 39 af 3d fb 45 5d bd 35 48 9d 3d 68 93 c0 3d
       0.0855597 -0.054021817 0.07679788 0.094031155
000030 8a 5f 67 bd 48 84 74 3d bd 4a c7 3a 45 08 4f bd
       -0.056487598 0.059696466 0.0015204769 -0.050544996
000040 b5 bf b5 bd a2 90 b3 bd e2 7c 95 38 d3 1b 86 bd
       -0.08874456 -0.08767821 7.128135e-05 -0.06548276
000050 a4 b7 91 bd 50 6d b4 bd ff 8d a2 bd 92 01 48 bd
       -0.07115105 -0.08809912 -0.0793724 -0.048829623
000060 0d 33 42 bd 70 4c 98 3d 20 1a 8a 3c f4 0e 8a bd
       -0.047411967 0.07436454 0.01685816 -0.06741133
000070 cc b8 80 bd 65 e2 4e bd e2 c8 23 3d 7f b6 6e 3d
       -0.06285247 -0.050508875 0.0399865 0.05827951
000080 50 ba b8 bd 2e 9f 34 bd 4b 43 45 bd cf 73 eb 3c
       -0.09019911 -0.044097118 -0.04815988 0.028741745
000090 68 85 82 3d b7 cd 30 bd 38 13 21 3d 87 1c 94 bd
       0.063731015 -0.043164935 0.03932497 -0.07232004
0000a0 35 9a c0 3d 9e f4 50 bd 84 b8 16 3d ee 58 9a 3d
       0.09404413 -0.051014535 0.03679706 0.07536493
0000b0 ef 9e df 3c 59 c7 3b 3d f8 f5 90 bd 7c a1 a3 3c
       0.027297465 0.04584441 -0.07078165 0.019974463
0000c0 e8 d2 89 bd d5 06 95 bd c1 d6 54 bd 16 0c 51 bd
       -0.0672968 -0.07276694 -0.051962618 -0.051036917
0000d0 04 de 45 bd f2 3f 3d bd 79 eb 8f bd a6 20 85 3d
       -0.048307434 -0.04620356 -0.07027335 0.06500368
0000e0 1b ec 85 3d 09 82 51 bd ed e5 ae bd d8 a3 77 bd
       0.06539174 -0.0511494 -0.085399486 -0.060458988
0000f0 f0 1c 52 bd ed de ab 3c 35 44 76 bd e2 c7 b3 3d
       -0.05129713 0.020980323 -0.06012364 0.08778359
000100 54 42 a5 bd a2 e5 53 bd d3 92 ee 3d 43 7d d1 bd
       -0.08069292 -0.051732667 0.11649098 -0.1022897
000110 69 59 36 bd f6 76 29 3c 35 bb 45 bd 85 de 55 3d
       -0.044518862 0.010343304 -0.048274238 0.052214164
000120 1c ec cd 3d a0 7f c8 3c 36 4b 8b 3d 81 8d ee 3c
       0.100548 0.024474919 0.06801455 0.029120209
000130 b8 a4 7d bd b4 d5 af bd f5 8b 14 3d 97 a7 6e 3d
       -0.061924666 -0.085856825 0.036266286 0.058265295
000140 c5 e6 be 3c 54 58 a8 bd 09 f7 8a 3d af 8e 9b bd
       0.023303399 -0.08219972 0.067853995 -0.07595574
000150 1c 83 8a bd e8 10 21 bd 1f 23 9f 3c f2 d2 84 bd
       -0.067632884 -0.039322764 0.019425927 -0.06485547
000160 78 e8 f4 3d 22 04 5b bd 67 a2 08 bd b9 04 81 bd
       0.119584024 -0.05347074 -0.033358004 -0.06299729
000170 d1 60 2d bd 91 0d 9e 3d 7f 40 c9 bd 9d 39 8a bd
       -0.04232866 0.07717431 -0.09826755 -0.0674927
000180 b6 3c 26 3d 4d 4c 96 bd 45 a5 08 3e 42 42 06 bd
       0.040585242 -0.07338772 0.13344295 -0.032778032
000190 72 be 4f bd e0 f2 4d bd d0 2e 05 3e 0d 87 46 bd
       -0.050718732 -0.05028045 0.13006139 -0.04846864
0001a0 54 7b 8b bd 92 12 00 3e 3b 2a ae 3d 1c 1c 08 bd
       -0.06810632 0.12507084 0.085041486 -0.033229932
0001b0 ae db ae 3d 38 48 a5 3d aa 28 68 3c 44 86 8b 3d
       0.08537994 0.08070415 0.014169851 0.068127185
0001c0 8e 83 00 bd 23 cd 02 be da 86 22 bd d9 b0 90 bd
       -0.03137546 -0.12773566 -0.039679386 -0.07064981
0001d0 76 0a 1d 3d f6 74 bc bd d0 bb 63 bd 45 bd 9a 3d
       0.038340054 -0.09201996 -0.055599034 0.075556315
0001e0 6a 9c e4 bc 3a fe d4 3c ce 62 42 bd 57 6a 8e bd
       -0.027906615 0.02600013 -0.04745751 -0.069538765
0001f0 3b 2c fe 3d 85 66 2c bd ef 66 ad bd a3 88 ef bc
       0.1241078 -0.042089958 -0.08466899 -0.029239958
000200 34 38 94 bd 20 80 4b bd e3 5b 51 bd 0b 1b 0a 3d
       -0.072372824 -0.049682736 -0.05111302 0.033717196
000210 85 6a 09 3c 73 91 91 bd 55 81 97 3d 77 56 1b bd
       0.008387213 -0.0710782 0.07397715 -0.037924256
000220 af 36 a4 bd 41 d1 0b 3e fe 67 8c bd 20 91 fe 3d
       -0.080182426 0.13654043 -0.068557724 0.12430024
000230 12 38 c3 3d 78 a1 b6 3d b2 19 6f bd 03 02 82 bd
       0.09532179 0.089175165 -0.058374114 -0.0634804
000240 d7 2e 60 bd 3c 4d 89 bd 58 79 bd bc 4f 0d f4 3a
       -0.05473217 -0.067041844 -0.02312915 0.0018619689
000250 5b 0b 0a 3e a5 f4 0d bd 93 16 d0 3d 0f 35 85 bd
       0.13480894 -0.03465714 0.10160556 -0.06504261
000260 d1 89 b6 3d b3 9f 59 3d 63 5c 82 3d 68 f5 ca 3d
       0.08913005 0.053130817 0.063652776 0.09910089
000270 c9 63 17 bd 25 ae a1 bb c9 ca af 3c 89 78 75 3d
       -0.036960397 -0.0049340897 0.021459 0.059929404
000280 43 44 83 3c c3 6a a2 bd 53 7b 2a bd d3 82 63 bd
       0.01602376 -0.079305194 -0.041621517 -0.055544686
000290 90 75 24 bd 83 01 72 bd 51 43 a9 bd b6 2f 90 3d
       -0.04015118 -0.059083473 -0.08264793 0.0704035
0002a0 6d 58 02 3e 34 cf 86 3b f2 14 38 bd 58 21 4d bd
       0.12729044 0.004114056 -0.04494185 -0.050080627
0002b0 2c f7 a4 bd 39 8d 84 bd 75 56 74 bd 6f 1a 84 bd
       -0.08054957 -0.064722486 -0.059652764 -0.06450354
0002c0 32 cb 5f bd a5 3d 92 bd 95 5a 32 bc 70 17 17 3e
       -0.05463714 -0.07140664 -0.010885854 0.14755034
0002d0 06 a8 8e bd d5 f0 bb bd 3d 2a 49 3d 90 5e b1 bc
       -0.06965642 -0.091767944 0.049112547 -0.021651536
0002e0 03 b9 9f 3d 23 fb ae bd 27 32 81 bd 1b a3 00 3d
       0.0779896 -0.08543994 -0.06308394 0.03140555
0002f0 8c 9a 1c bd 9b 4c 95 bd 95 68 ad 3d 5f 22 9e 3d
       -0.038233325 -0.07290002 0.08467213 0.077213995
000300 7f 2e 1a bd 8a 02 84 bd 15 05 dc bc 7b 7e 22 bd
       -0.037642 -0.06445797 -0.026857892 -0.039671402
000310 76 2b 6c bd 0e 17 f1 3d 84 f5 02 bd 2d c3 89 bd
       -0.057658635 0.117719755 -0.031972423 -0.0672668
000320 80 64 11 bd df 3f 06 3d cd 80 b2 3d 99 a4 9a bd
       -0.035496235 0.032775756 0.08715973 -0.07550926
000330 16 3e 87 3d 00 58 57 3c 70 b8 64 3d df 5d 25 3b
       0.06603639 0.013143539 0.055839956 0.0025232953
000340 27 3a 8a 3d 89 f7 37 bd d3 d6 90 bd f7 c9 b3 bd
       0.06749373 -0.044913802 -0.070722245 -0.08778756
000350 7a 46 95 3c 28 fa d3 bd a9 48 a1 3d 99 94 d2 3c
       0.018222082 -0.10350448 0.07875187 0.025705623
000360 36 3a 15 bd 32 ea fa 3d 24 4e d3 3d 4b c0 c9 bd
       -0.036432467 0.122517005 0.103176385 -0.0985113
000370 2e 85 93 bd 0d f5 f2 bc f9 f8 54 3d 88 28 e6 3d
       -0.072031364 -0.029657865 0.05199525 0.112381995
000380 ed f6 c3 bc 7c 6c b3 3d 01 eb 52 bd 1e e4 51 bd
       -0.023921454 0.08760926 -0.05149365 -0.05124294
000390 b6 9b 3f bd 99 b0 31 3c cb ec ad bd ec 71 5c 3d
       -0.046779357 0.010845327 -0.0849243 0.053819582
0003a0 3f 7e 66 bd c0 1d 95 3d 0a 2c 9c bd 55 bb 50 bd
       -0.05627274 0.07281065 -0.07625587 -0.050959904
0003b0 1e 3f 0f bd da 7c eb bc d1 5e c2 3d a1 d9 40 3c
       -0.034972303 -0.028746057 0.09490741 0.011770637
0003c0 36 68 a0 bd ef 7a bf bd b5 dd 32 bd 26 f4 c7 bd
       -0.07832377 -0.093496196 -0.043668468 -0.097633645
0003d0 52 93 2f bd e6 6d c1 bd 4d 80 4d bd af 21 65 3d
       -0.042865105 -0.094447896 -0.050171185 0.055940326
0003e0 b8 1d 1a bd 84 ff a9 3d 05 7e 26 bd 79 1b 63 3d
       -0.037626 0.08300689 -0.040647525 0.05544612
0003f0 4d 6b 13 bd a1 56 83 bd b7 38 56 bd 5f d5 58 3d
       -0.035991002 -0.064130075 -0.05230018 0.05293786
